{"format": "graph-model", "generatedBy": "2.5.0", "convertedBy": "TensorFlow.js Converter v3.8.0", "signature": {"inputs": {"input_1": {"name": "input_1:0", "dtype": "DT_FLOAT", "tensorShape": {"dim": [{"size": "-1"}, {"size": "512"}]}}}, "outputs": {"output_1": {"name": "Identity:0", "dtype": "DT_FLOAT", "tensorShape": {"dim": [{"size": "-1"}, {"size": "3"}, {"size": "1024"}, {"size": "1024"}]}}}}, "modelTopology": {"node": [{"name": "StatefulPartitionedCall/style_gan_g/G_synthesis/G_synthesis/1024x1024/Conv1/bias/Reshape", "op": "Const", "attr": {"dtype": {"type": "DT_FLOAT"}, "value": {"tensor": {"dtype": "DT_FLOAT", "tensorShape": {"dim": [{"size": "1"}, {"size": "16"}, {"size": "1"}, {"size": "1"}]}}}}}, {"name": "StatefulPartitionedCall/style_gan_g/G_synthesis/G_synthesis/1024x1024/Conv1/Noise/ReadVariableOp", "op": "Const", "attr": {"dtype": {"type": "DT_FLOAT"}, "value": {"tensor": {"dtype": "DT_FLOAT", "tensorShape": {"dim": [{"size": "1"}, {"size": "1"}, {"size": "1024"}, {"size": "1024"}]}}}}}, {"name": "StatefulPartitionedCall/style_gan_g/G_synthesis/G_synthesis/1024x1024/Conv1/Noise/Reshape", "op": "Const", "attr": {"dtype": {"type": "DT_FLOAT"}, "value": {"tensor": {"dtype": "DT_FLOAT", "tensorShape": {"dim": [{"size": "1"}, {"size": "16"}, {"size": "1"}, {"size": "1"}]}}}}}, {"name": "StatefulPartitionedCall/style_gan_g/G_synthesis/G_synthesis/1024x1024/Conv0_up/bias/Reshape", "op": "Const", "attr": {"dtype": {"type": "DT_FLOAT"}, "value": {"tensor": {"dtype": "DT_FLOAT", "tensorShape": {"dim": [{"size": "1"}, {"size": "16"}, {"size": "1"}, {"size": "1"}]}}}}}, {"name": "StatefulPartitionedCall/style_gan_g/G_synthesis/G_synthesis/1024x1024/Conv0_up/Noise/ReadVariableOp", "op": "Const", "attr": {"dtype": {"type": "DT_FLOAT"}, "value": {"tensor": {"dtype": "DT_FLOAT", "tensorShape": {"dim": [{"size": "1"}, {"size": "1"}, {"size": "1024"}, {"size": "1024"}]}}}}}, {"name": "StatefulPartitionedCall/style_gan_g/G_synthesis/G_synthesis/1024x1024/Conv0_up/Noise/Reshape", "op": "Const", "attr": {"dtype": {"type": "DT_FLOAT"}, "value": {"tensor": {"dtype": "DT_FLOAT", "tensorShape": {"dim": [{"size": "1"}, {"size": "16"}, {"size": "1"}, {"size": "1"}]}}}}}, {"name": "StatefulPartitionedCall/style_gan_g/G_synthesis/G_synthesis/1024x1024/Conv0_up/strided_slice_4/stack", "op": "Const", "attr": {"value": {"tensor": {"dtype": "DT_INT32", "tensorShape": {"dim": [{"size": "1"}]}}}, "dtype": {"type": "DT_INT32"}}}, {"name": "StatefulPartitionedCall/style_gan_g/G_synthesis/G_synthesis/1024x1024/Conv0_up/strided_slice_4/stack_1", "op": "Const", "attr": {"value": {"tensor": {"dtype": "DT_INT32", "tensorShape": {"dim": [{"size": "1"}]}}}, "dtype": {"type": "DT_INT32"}}}, {"name": "StatefulPartitionedCall/style_gan_g/G_synthesis/G_synthesis/1024x1024/Conv0_up/strided_slice_4/stack_2", "op": "Const", "attr": {"dtype": {"type": "DT_INT32"}, "value": {"tensor": {"dtype": "DT_INT32", "tensorShape": {"dim": [{"size": "1"}]}}}}}, {"name": "StatefulPartitionedCall/style_gan_g/G_synthesis/G_synthesis/1024x1024/Conv0_up/conv2d_transpose/input_sizes/1", "op": "Const", "attr": {"dtype": {"type": "DT_INT32"}, "value": {"tensor": {"dtype": "DT_INT32", "tensorShape": {}}}}}, {"name": "StatefulPartitionedCall/style_gan_g/G_synthesis/G_synthesis/1024x1024/Conv0_up/conv2d_transpose/input_sizes/2", "op": "Const", "attr": {"dtype": {"type": "DT_INT32"}, "value": {"tensor": {"dtype": "DT_INT32", "tensorShape": {}}}}}, {"name": "StatefulPartitionedCall/style_gan_g/G_synthesis/G_synthesis/1024x1024/Conv0_up/conv2d_transpose/input_sizes/3", "op": "Const", "attr": {"value": {"tensor": {"dtype": "DT_INT32", "tensorShape": {}}}, "dtype": {"type": "DT_INT32"}}}, {"name": "StatefulPartitionedCall/style_gan_g/G_synthesis/G_synthesis/1024x1024/Conv0_up/AddN", "op": "Const", "attr": {"dtype": {"type": "DT_FLOAT"}, "value": {"tensor": {"dtype": "DT_FLOAT", "tensorShape": {"dim": [{"size": "4"}, {"size": "4"}, {"size": "16"}, {"size": "32"}]}}}}}, {"name": "StatefulPartitionedCall/style_gan_g/G_synthesis/G_synthesis/512x512/Conv1/bias/Reshape", "op": "Const", "attr": {"value": {"tensor": {"dtype": "DT_FLOAT", "tensorShape": {"dim": [{"size": "1"}, {"size": "32"}, {"size": "1"}, {"size": "1"}]}}}, "dtype": {"type": "DT_FLOAT"}}}, {"name": "StatefulPartitionedCall/style_gan_g/G_synthesis/G_synthesis/512x512/Conv1/Noise/ReadVariableOp", "op": "Const", "attr": {"dtype": {"type": "DT_FLOAT"}, "value": {"tensor": {"dtype": "DT_FLOAT", "tensorShape": {"dim": [{"size": "1"}, {"size": "1"}, {"size": "512"}, {"size": "512"}]}}}}}, {"name": "StatefulPartitionedCall/style_gan_g/G_synthesis/G_synthesis/512x512/Conv1/Noise/Reshape", "op": "Const", "attr": {"value": {"tensor": {"dtype": "DT_FLOAT", "tensorShape": {"dim": [{"size": "1"}, {"size": "32"}, {"size": "1"}, {"size": "1"}]}}}, "dtype": {"type": "DT_FLOAT"}}}, {"name": "StatefulPartitionedCall/style_gan_g/G_synthesis/G_synthesis/512x512/Conv0_up/bias/Reshape", "op": "Const", "attr": {"value": {"tensor": {"dtype": "DT_FLOAT", "tensorShape": {"dim": [{"size": "1"}, {"size": "32"}, {"size": "1"}, {"size": "1"}]}}}, "dtype": {"type": "DT_FLOAT"}}}, {"name": "StatefulPartitionedCall/style_gan_g/G_synthesis/G_synthesis/512x512/Conv0_up/Noise/ReadVariableOp", "op": "Const", "attr": {"dtype": {"type": "DT_FLOAT"}, "value": {"tensor": {"dtype": "DT_FLOAT", "tensorShape": {"dim": [{"size": "1"}, {"size": "1"}, {"size": "512"}, {"size": "512"}]}}}}}, {"name": "StatefulPartitionedCall/style_gan_g/G_synthesis/G_synthesis/512x512/Conv0_up/Noise/Reshape", "op": "Const", "attr": {"dtype": {"type": "DT_FLOAT"}, "value": {"tensor": {"dtype": "DT_FLOAT", "tensorShape": {"dim": [{"size": "1"}, {"size": "32"}, {"size": "1"}, {"size": "1"}]}}}}}, {"name": "StatefulPartitionedCall/style_gan_g/G_synthesis/G_synthesis/512x512/Conv0_up/strided_slice_4/stack", "op": "Const", "attr": {"dtype": {"type": "DT_INT32"}, "value": {"tensor": {"dtype": "DT_INT32", "tensorShape": {"dim": [{"size": "1"}]}}}}}, {"name": "StatefulPartitionedCall/style_gan_g/G_synthesis/G_synthesis/512x512/Conv0_up/strided_slice_4/stack_1", "op": "Const", "attr": {"dtype": {"type": "DT_INT32"}, "value": {"tensor": {"dtype": "DT_INT32", "tensorShape": {"dim": [{"size": "1"}]}}}}}, {"name": "StatefulPartitionedCall/style_gan_g/G_synthesis/G_synthesis/512x512/Conv0_up/strided_slice_4/stack_2", "op": "Const", "attr": {"dtype": {"type": "DT_INT32"}, "value": {"tensor": {"dtype": "DT_INT32", "tensorShape": {"dim": [{"size": "1"}]}}}}}, {"name": "StatefulPartitionedCall/style_gan_g/G_synthesis/G_synthesis/512x512/Conv0_up/conv2d_transpose/input_sizes/1", "op": "Const", "attr": {"dtype": {"type": "DT_INT32"}, "value": {"tensor": {"dtype": "DT_INT32", "tensorShape": {}}}}}, {"name": "StatefulPartitionedCall/style_gan_g/G_synthesis/G_synthesis/512x512/Conv0_up/conv2d_transpose/input_sizes/2", "op": "Const", "attr": {"value": {"tensor": {"dtype": "DT_INT32", "tensorShape": {}}}, "dtype": {"type": "DT_INT32"}}}, {"name": "StatefulPartitionedCall/style_gan_g/G_synthesis/G_synthesis/512x512/Conv0_up/conv2d_transpose/input_sizes/3", "op": "Const", "attr": {"dtype": {"type": "DT_INT32"}, "value": {"tensor": {"dtype": "DT_INT32", "tensorShape": {}}}}}, {"name": "StatefulPartitionedCall/style_gan_g/G_synthesis/G_synthesis/512x512/Conv0_up/strided_slice/stack", "op": "Const", "attr": {"value": {"tensor": {"dtype": "DT_INT32", "tensorShape": {"dim": [{"size": "2"}]}}}, "dtype": {"type": "DT_INT32"}}}, {"name": "StatefulPartitionedCall/style_gan_g/G_synthesis/G_synthesis/512x512/Conv0_up/strided_slice/stack_1", "op": "Const", "attr": {"dtype": {"type": "DT_INT32"}, "value": {"tensor": {"dtype": "DT_INT32", "tensorShape": {"dim": [{"size": "2"}]}}}}}, {"name": "StatefulPartitionedCall/style_gan_g/G_synthesis/G_synthesis/512x512/Conv0_up/strided_slice/stack_2", "op": "Const", "attr": {"dtype": {"type": "DT_INT32"}, "value": {"tensor": {"dtype": "DT_INT32", "tensorShape": {"dim": [{"size": "2"}]}}}}}, {"name": "StatefulPartitionedCall/style_gan_g/G_synthesis/G_synthesis/512x512/Conv0_up/strided_slice_1/stack", "op": "Const", "attr": {"value": {"tensor": {"dtype": "DT_INT32", "tensorShape": {"dim": [{"size": "2"}]}}}, "dtype": {"type": "DT_INT32"}}}, {"name": "StatefulPartitionedCall/style_gan_g/G_synthesis/G_synthesis/512x512/Conv0_up/strided_slice_1/stack_1", "op": "Const", "attr": {"dtype": {"type": "DT_INT32"}, "value": {"tensor": {"dtype": "DT_INT32", "tensorShape": {"dim": [{"size": "2"}]}}}}}, {"name": "StatefulPartitionedCall/style_gan_g/G_synthesis/G_synthesis/512x512/Conv0_up/strided_slice_1/stack_2", "op": "Const", "attr": {"dtype": {"type": "DT_INT32"}, "value": {"tensor": {"dtype": "DT_INT32", "tensorShape": {"dim": [{"size": "2"}]}}}}}, {"name": "StatefulPartitionedCall/style_gan_g/G_synthesis/G_synthesis/512x512/Conv0_up/strided_slice_2/stack", "op": "Const", "attr": {"dtype": {"type": "DT_INT32"}, "value": {"tensor": {"dtype": "DT_INT32", "tensorShape": {"dim": [{"size": "2"}]}}}}}, {"name": "StatefulPartitionedCall/style_gan_g/G_synthesis/G_synthesis/512x512/Conv0_up/strided_slice_2/stack_1", "op": "Const", "attr": {"dtype": {"type": "DT_INT32"}, "value": {"tensor": {"dtype": "DT_INT32", "tensorShape": {"dim": [{"size": "2"}]}}}}}, {"name": "StatefulPartitionedCall/style_gan_g/G_synthesis/G_synthesis/512x512/Conv0_up/strided_slice_2/stack_2", "op": "Const", "attr": {"dtype": {"type": "DT_INT32"}, "value": {"tensor": {"dtype": "DT_INT32", "tensorShape": {"dim": [{"size": "2"}]}}}}}, {"name": "StatefulPartitionedCall/style_gan_g/G_synthesis/G_synthesis/512x512/Conv0_up/transpose", "op": "Const", "attr": {"value": {"tensor": {"dtype": "DT_FLOAT", "tensorShape": {"dim": [{"size": "3"}, {"size": "3"}, {"size": "32"}, {"size": "64"}]}}}, "dtype": {"type": "DT_FLOAT"}}}, {"name": "StatefulPartitionedCall/style_gan_g/G_synthesis/G_synthesis/512x512/Conv0_up/Pad/paddings", "op": "Const", "attr": {"value": {"tensor": {"dtype": "DT_INT32", "tensorShape": {"dim": [{"size": "4"}, {"size": "2"}]}}}, "dtype": {"type": "DT_INT32"}}}, {"name": "StatefulPartitionedCall/style_gan_g/G_synthesis/G_synthesis/512x512/Conv0_up/strided_slice_3/stack", "op": "Const", "attr": {"dtype": {"type": "DT_INT32"}, "value": {"tensor": {"dtype": "DT_INT32", "tensorShape": {"dim": [{"size": "2"}]}}}}}, {"name": "StatefulPartitionedCall/style_gan_g/G_synthesis/G_synthesis/512x512/Conv0_up/strided_slice_3/stack_1", "op": "Const", "attr": {"value": {"tensor": {"dtype": "DT_INT32", "tensorShape": {"dim": [{"size": "2"}]}}}, "dtype": {"type": "DT_INT32"}}}, {"name": "StatefulPartitionedCall/style_gan_g/G_synthesis/G_synthesis/512x512/Conv0_up/strided_slice_3/stack_2", "op": "Const", "attr": {"dtype": {"type": "DT_INT32"}, "value": {"tensor": {"dtype": "DT_INT32", "tensorShape": {"dim": [{"size": "2"}]}}}}}, {"name": "StatefulPartitionedCall/style_gan_g/G_synthesis/G_synthesis/256x256/Conv1/bias/Reshape", "op": "Const", "attr": {"value": {"tensor": {"dtype": "DT_FLOAT", "tensorShape": {"dim": [{"size": "1"}, {"size": "64"}, {"size": "1"}, {"size": "1"}]}}}, "dtype": {"type": "DT_FLOAT"}}}, {"name": "StatefulPartitionedCall/style_gan_g/G_synthesis/G_synthesis/256x256/Conv1/Noise/ReadVariableOp", "op": "Const", "attr": {"dtype": {"type": "DT_FLOAT"}, "value": {"tensor": {"dtype": "DT_FLOAT", "tensorShape": {"dim": [{"size": "1"}, {"size": "1"}, {"size": "256"}, {"size": "256"}]}}}}}, {"name": "StatefulPartitionedCall/style_gan_g/G_synthesis/G_synthesis/256x256/Conv1/Noise/Reshape", "op": "Const", "attr": {"dtype": {"type": "DT_FLOAT"}, "value": {"tensor": {"dtype": "DT_FLOAT", "tensorShape": {"dim": [{"size": "1"}, {"size": "64"}, {"size": "1"}, {"size": "1"}]}}}}}, {"name": "StatefulPartitionedCall/style_gan_g/G_synthesis/G_synthesis/256x256/Conv0_up/bias/Reshape", "op": "Const", "attr": {"dtype": {"type": "DT_FLOAT"}, "value": {"tensor": {"dtype": "DT_FLOAT", "tensorShape": {"dim": [{"size": "1"}, {"size": "64"}, {"size": "1"}, {"size": "1"}]}}}}}, {"name": "StatefulPartitionedCall/style_gan_g/G_synthesis/G_synthesis/256x256/Conv0_up/Noise/ReadVariableOp", "op": "Const", "attr": {"dtype": {"type": "DT_FLOAT"}, "value": {"tensor": {"dtype": "DT_FLOAT", "tensorShape": {"dim": [{"size": "1"}, {"size": "1"}, {"size": "256"}, {"size": "256"}]}}}}}, {"name": "StatefulPartitionedCall/style_gan_g/G_synthesis/G_synthesis/256x256/Conv0_up/Noise/Reshape", "op": "Const", "attr": {"value": {"tensor": {"dtype": "DT_FLOAT", "tensorShape": {"dim": [{"size": "1"}, {"size": "64"}, {"size": "1"}, {"size": "1"}]}}}, "dtype": {"type": "DT_FLOAT"}}}, {"name": "StatefulPartitionedCall/style_gan_g/G_synthesis/G_synthesis/256x256/Conv0_up/strided_slice_4/stack", "op": "Const", "attr": {"value": {"tensor": {"dtype": "DT_INT32", "tensorShape": {"dim": [{"size": "1"}]}}}, "dtype": {"type": "DT_INT32"}}}, {"name": "StatefulPartitionedCall/style_gan_g/G_synthesis/G_synthesis/256x256/Conv0_up/strided_slice_4/stack_1", "op": "Const", "attr": {"dtype": {"type": "DT_INT32"}, "value": {"tensor": {"dtype": "DT_INT32", "tensorShape": {"dim": [{"size": "1"}]}}}}}, {"name": "StatefulPartitionedCall/style_gan_g/G_synthesis/G_synthesis/256x256/Conv0_up/strided_slice_4/stack_2", "op": "Const", "attr": {"dtype": {"type": "DT_INT32"}, "value": {"tensor": {"dtype": "DT_INT32", "tensorShape": {"dim": [{"size": "1"}]}}}}}, {"name": "StatefulPartitionedCall/style_gan_g/G_synthesis/G_synthesis/256x256/Conv0_up/conv2d_transpose/input_sizes/1", "op": "Const", "attr": {"value": {"tensor": {"dtype": "DT_INT32", "tensorShape": {}}}, "dtype": {"type": "DT_INT32"}}}, {"name": "StatefulPartitionedCall/style_gan_g/G_synthesis/G_synthesis/256x256/Conv0_up/conv2d_transpose/input_sizes/2", "op": "Const", "attr": {"value": {"tensor": {"dtype": "DT_INT32", "tensorShape": {}}}, "dtype": {"type": "DT_INT32"}}}, {"name": "StatefulPartitionedCall/style_gan_g/G_synthesis/G_synthesis/256x256/Conv0_up/conv2d_transpose/input_sizes/3", "op": "Const", "attr": {"value": {"tensor": {"dtype": "DT_INT32", "tensorShape": {}}}, "dtype": {"type": "DT_INT32"}}}, {"name": "StatefulPartitionedCall/style_gan_g/G_synthesis/G_synthesis/256x256/Conv0_up/strided_slice/stack", "op": "Const", "attr": {"value": {"tensor": {"dtype": "DT_INT32", "tensorShape": {"dim": [{"size": "2"}]}}}, "dtype": {"type": "DT_INT32"}}}, {"name": "StatefulPartitionedCall/style_gan_g/G_synthesis/G_synthesis/256x256/Conv0_up/strided_slice/stack_1", "op": "Const", "attr": {"value": {"tensor": {"dtype": "DT_INT32", "tensorShape": {"dim": [{"size": "2"}]}}}, "dtype": {"type": "DT_INT32"}}}, {"name": "StatefulPartitionedCall/style_gan_g/G_synthesis/G_synthesis/256x256/Conv0_up/strided_slice/stack_2", "op": "Const", "attr": {"value": {"tensor": {"dtype": "DT_INT32", "tensorShape": {"dim": [{"size": "2"}]}}}, "dtype": {"type": "DT_INT32"}}}, {"name": "StatefulPartitionedCall/style_gan_g/G_synthesis/G_synthesis/256x256/Conv0_up/strided_slice_1/stack", "op": "Const", "attr": {"dtype": {"type": "DT_INT32"}, "value": {"tensor": {"dtype": "DT_INT32", "tensorShape": {"dim": [{"size": "2"}]}}}}}, {"name": "StatefulPartitionedCall/style_gan_g/G_synthesis/G_synthesis/256x256/Conv0_up/strided_slice_1/stack_1", "op": "Const", "attr": {"value": {"tensor": {"dtype": "DT_INT32", "tensorShape": {"dim": [{"size": "2"}]}}}, "dtype": {"type": "DT_INT32"}}}, {"name": "StatefulPartitionedCall/style_gan_g/G_synthesis/G_synthesis/256x256/Conv0_up/strided_slice_1/stack_2", "op": "Const", "attr": {"dtype": {"type": "DT_INT32"}, "value": {"tensor": {"dtype": "DT_INT32", "tensorShape": {"dim": [{"size": "2"}]}}}}}, {"name": "StatefulPartitionedCall/style_gan_g/G_synthesis/G_synthesis/256x256/Conv0_up/strided_slice_2/stack", "op": "Const", "attr": {"dtype": {"type": "DT_INT32"}, "value": {"tensor": {"dtype": "DT_INT32", "tensorShape": {"dim": [{"size": "2"}]}}}}}, {"name": "StatefulPartitionedCall/style_gan_g/G_synthesis/G_synthesis/256x256/Conv0_up/strided_slice_2/stack_1", "op": "Const", "attr": {"value": {"tensor": {"dtype": "DT_INT32", "tensorShape": {"dim": [{"size": "2"}]}}}, "dtype": {"type": "DT_INT32"}}}, {"name": "StatefulPartitionedCall/style_gan_g/G_synthesis/G_synthesis/256x256/Conv0_up/strided_slice_2/stack_2", "op": "Const", "attr": {"value": {"tensor": {"dtype": "DT_INT32", "tensorShape": {"dim": [{"size": "2"}]}}}, "dtype": {"type": "DT_INT32"}}}, {"name": "StatefulPartitionedCall/style_gan_g/G_synthesis/G_synthesis/256x256/Conv0_up/transpose", "op": "Const", "attr": {"value": {"tensor": {"dtype": "DT_FLOAT", "tensorShape": {"dim": [{"size": "3"}, {"size": "3"}, {"size": "64"}, {"size": "128"}]}}}, "dtype": {"type": "DT_FLOAT"}}}, {"name": "StatefulPartitionedCall/style_gan_g/G_synthesis/G_synthesis/256x256/Conv0_up/Pad/paddings", "op": "Const", "attr": {"value": {"tensor": {"dtype": "DT_INT32", "tensorShape": {"dim": [{"size": "4"}, {"size": "2"}]}}}, "dtype": {"type": "DT_INT32"}}}, {"name": "StatefulPartitionedCall/style_gan_g/G_synthesis/G_synthesis/256x256/Conv0_up/strided_slice_3/stack", "op": "Const", "attr": {"value": {"tensor": {"dtype": "DT_INT32", "tensorShape": {"dim": [{"size": "2"}]}}}, "dtype": {"type": "DT_INT32"}}}, {"name": "StatefulPartitionedCall/style_gan_g/G_synthesis/G_synthesis/256x256/Conv0_up/strided_slice_3/stack_1", "op": "Const", "attr": {"value": {"tensor": {"dtype": "DT_INT32", "tensorShape": {"dim": [{"size": "2"}]}}}, "dtype": {"type": "DT_INT32"}}}, {"name": "StatefulPartitionedCall/style_gan_g/G_synthesis/G_synthesis/256x256/Conv0_up/strided_slice_3/stack_2", "op": "Const", "attr": {"value": {"tensor": {"dtype": "DT_INT32", "tensorShape": {"dim": [{"size": "2"}]}}}, "dtype": {"type": "DT_INT32"}}}, {"name": "StatefulPartitionedCall/style_gan_g/G_synthesis/G_synthesis/128x128/Conv1/bias/Reshape", "op": "Const", "attr": {"dtype": {"type": "DT_FLOAT"}, "value": {"tensor": {"dtype": "DT_FLOAT", "tensorShape": {"dim": [{"size": "1"}, {"size": "128"}, {"size": "1"}, {"size": "1"}]}}}}}, {"name": "StatefulPartitionedCall/style_gan_g/G_synthesis/G_synthesis/128x128/Conv1/Noise/ReadVariableOp", "op": "Const", "attr": {"value": {"tensor": {"dtype": "DT_FLOAT", "tensorShape": {"dim": [{"size": "1"}, {"size": "1"}, {"size": "128"}, {"size": "128"}]}}}, "dtype": {"type": "DT_FLOAT"}}}, {"name": "StatefulPartitionedCall/style_gan_g/G_synthesis/G_synthesis/128x128/Conv1/Noise/Reshape", "op": "Const", "attr": {"value": {"tensor": {"dtype": "DT_FLOAT", "tensorShape": {"dim": [{"size": "1"}, {"size": "128"}, {"size": "1"}, {"size": "1"}]}}}, "dtype": {"type": "DT_FLOAT"}}}, {"name": "StatefulPartitionedCall/style_gan_g/G_synthesis/G_synthesis/128x128/Conv0_up/bias/Reshape", "op": "Const", "attr": {"value": {"tensor": {"dtype": "DT_FLOAT", "tensorShape": {"dim": [{"size": "1"}, {"size": "128"}, {"size": "1"}, {"size": "1"}]}}}, "dtype": {"type": "DT_FLOAT"}}}, {"name": "StatefulPartitionedCall/style_gan_g/G_synthesis/G_synthesis/128x128/Conv0_up/Noise/ReadVariableOp", "op": "Const", "attr": {"value": {"tensor": {"dtype": "DT_FLOAT", "tensorShape": {"dim": [{"size": "1"}, {"size": "1"}, {"size": "128"}, {"size": "128"}]}}}, "dtype": {"type": "DT_FLOAT"}}}, {"name": "StatefulPartitionedCall/style_gan_g/G_synthesis/G_synthesis/128x128/Conv0_up/Noise/Reshape", "op": "Const", "attr": {"value": {"tensor": {"dtype": "DT_FLOAT", "tensorShape": {"dim": [{"size": "1"}, {"size": "128"}, {"size": "1"}, {"size": "1"}]}}}, "dtype": {"type": "DT_FLOAT"}}}, {"name": "StatefulPartitionedCall/style_gan_g/G_synthesis/G_synthesis/128x128/Conv0_up/strided_slice_4/stack", "op": "Const", "attr": {"value": {"tensor": {"dtype": "DT_INT32", "tensorShape": {"dim": [{"size": "1"}]}}}, "dtype": {"type": "DT_INT32"}}}, {"name": "StatefulPartitionedCall/style_gan_g/G_synthesis/G_synthesis/128x128/Conv0_up/strided_slice_4/stack_1", "op": "Const", "attr": {"value": {"tensor": {"dtype": "DT_INT32", "tensorShape": {"dim": [{"size": "1"}]}}}, "dtype": {"type": "DT_INT32"}}}, {"name": "StatefulPartitionedCall/style_gan_g/G_synthesis/G_synthesis/128x128/Conv0_up/strided_slice_4/stack_2", "op": "Const", "attr": {"value": {"tensor": {"dtype": "DT_INT32", "tensorShape": {"dim": [{"size": "1"}]}}}, "dtype": {"type": "DT_INT32"}}}, {"name": "StatefulPartitionedCall/style_gan_g/G_synthesis/G_synthesis/128x128/Conv0_up/conv2d_transpose/input_sizes/1", "op": "Const", "attr": {"value": {"tensor": {"dtype": "DT_INT32", "tensorShape": {}}}, "dtype": {"type": "DT_INT32"}}}, {"name": "StatefulPartitionedCall/style_gan_g/G_synthesis/G_synthesis/128x128/Conv0_up/conv2d_transpose/input_sizes/2", "op": "Const", "attr": {"dtype": {"type": "DT_INT32"}, "value": {"tensor": {"dtype": "DT_INT32", "tensorShape": {}}}}}, {"name": "StatefulPartitionedCall/style_gan_g/G_synthesis/G_synthesis/128x128/Conv0_up/conv2d_transpose/input_sizes/3", "op": "Const", "attr": {"dtype": {"type": "DT_INT32"}, "value": {"tensor": {"dtype": "DT_INT32", "tensorShape": {}}}}}, {"name": "StatefulPartitionedCall/style_gan_g/G_synthesis/G_synthesis/128x128/Conv0_up/strided_slice/stack", "op": "Const", "attr": {"value": {"tensor": {"dtype": "DT_INT32", "tensorShape": {"dim": [{"size": "2"}]}}}, "dtype": {"type": "DT_INT32"}}}, {"name": "StatefulPartitionedCall/style_gan_g/G_synthesis/G_synthesis/128x128/Conv0_up/strided_slice/stack_1", "op": "Const", "attr": {"value": {"tensor": {"dtype": "DT_INT32", "tensorShape": {"dim": [{"size": "2"}]}}}, "dtype": {"type": "DT_INT32"}}}, {"name": "StatefulPartitionedCall/style_gan_g/G_synthesis/G_synthesis/128x128/Conv0_up/strided_slice/stack_2", "op": "Const", "attr": {"value": {"tensor": {"dtype": "DT_INT32", "tensorShape": {"dim": [{"size": "2"}]}}}, "dtype": {"type": "DT_INT32"}}}, {"name": "StatefulPartitionedCall/style_gan_g/G_synthesis/G_synthesis/128x128/Conv0_up/strided_slice_1/stack", "op": "Const", "attr": {"value": {"tensor": {"dtype": "DT_INT32", "tensorShape": {"dim": [{"size": "2"}]}}}, "dtype": {"type": "DT_INT32"}}}, {"name": "StatefulPartitionedCall/style_gan_g/G_synthesis/G_synthesis/128x128/Conv0_up/strided_slice_1/stack_1", "op": "Const", "attr": {"dtype": {"type": "DT_INT32"}, "value": {"tensor": {"dtype": "DT_INT32", "tensorShape": {"dim": [{"size": "2"}]}}}}}, {"name": "StatefulPartitionedCall/style_gan_g/G_synthesis/G_synthesis/128x128/Conv0_up/strided_slice_1/stack_2", "op": "Const", "attr": {"value": {"tensor": {"dtype": "DT_INT32", "tensorShape": {"dim": [{"size": "2"}]}}}, "dtype": {"type": "DT_INT32"}}}, {"name": "StatefulPartitionedCall/style_gan_g/G_synthesis/G_synthesis/128x128/Conv0_up/strided_slice_2/stack", "op": "Const", "attr": {"dtype": {"type": "DT_INT32"}, "value": {"tensor": {"dtype": "DT_INT32", "tensorShape": {"dim": [{"size": "2"}]}}}}}, {"name": "StatefulPartitionedCall/style_gan_g/G_synthesis/G_synthesis/128x128/Conv0_up/strided_slice_2/stack_1", "op": "Const", "attr": {"value": {"tensor": {"dtype": "DT_INT32", "tensorShape": {"dim": [{"size": "2"}]}}}, "dtype": {"type": "DT_INT32"}}}, {"name": "StatefulPartitionedCall/style_gan_g/G_synthesis/G_synthesis/128x128/Conv0_up/strided_slice_2/stack_2", "op": "Const", "attr": {"dtype": {"type": "DT_INT32"}, "value": {"tensor": {"dtype": "DT_INT32", "tensorShape": {"dim": [{"size": "2"}]}}}}}, {"name": "StatefulPartitionedCall/style_gan_g/G_synthesis/G_synthesis/128x128/Conv0_up/transpose", "op": "Const", "attr": {"value": {"tensor": {"dtype": "DT_FLOAT", "tensorShape": {"dim": [{"size": "3"}, {"size": "3"}, {"size": "128"}, {"size": "256"}]}}}, "dtype": {"type": "DT_FLOAT"}}}, {"name": "StatefulPartitionedCall/style_gan_g/G_synthesis/G_synthesis/128x128/Conv0_up/Pad/paddings", "op": "Const", "attr": {"value": {"tensor": {"dtype": "DT_INT32", "tensorShape": {"dim": [{"size": "4"}, {"size": "2"}]}}}, "dtype": {"type": "DT_INT32"}}}, {"name": "StatefulPartitionedCall/style_gan_g/G_synthesis/G_synthesis/128x128/Conv0_up/strided_slice_3/stack", "op": "Const", "attr": {"value": {"tensor": {"dtype": "DT_INT32", "tensorShape": {"dim": [{"size": "2"}]}}}, "dtype": {"type": "DT_INT32"}}}, {"name": "StatefulPartitionedCall/style_gan_g/G_synthesis/G_synthesis/128x128/Conv0_up/strided_slice_3/stack_1", "op": "Const", "attr": {"value": {"tensor": {"dtype": "DT_INT32", "tensorShape": {"dim": [{"size": "2"}]}}}, "dtype": {"type": "DT_INT32"}}}, {"name": "StatefulPartitionedCall/style_gan_g/G_synthesis/G_synthesis/128x128/Conv0_up/strided_slice_3/stack_2", "op": "Const", "attr": {"value": {"tensor": {"dtype": "DT_INT32", "tensorShape": {"dim": [{"size": "2"}]}}}, "dtype": {"type": "DT_INT32"}}}, {"name": "StatefulPartitionedCall/style_gan_g/G_synthesis/G_synthesis/64x64/Conv1/bias/Reshape", "op": "Const", "attr": {"value": {"tensor": {"dtype": "DT_FLOAT", "tensorShape": {"dim": [{"size": "1"}, {"size": "256"}, {"size": "1"}, {"size": "1"}]}}}, "dtype": {"type": "DT_FLOAT"}}}, {"name": "StatefulPartitionedCall/style_gan_g/G_synthesis/G_synthesis/64x64/Conv1/Noise/ReadVariableOp", "op": "Const", "attr": {"value": {"tensor": {"dtype": "DT_FLOAT", "tensorShape": {"dim": [{"size": "1"}, {"size": "1"}, {"size": "64"}, {"size": "64"}]}}}, "dtype": {"type": "DT_FLOAT"}}}, {"name": "StatefulPartitionedCall/style_gan_g/G_synthesis/G_synthesis/64x64/Conv1/Noise/Reshape", "op": "Const", "attr": {"value": {"tensor": {"dtype": "DT_FLOAT", "tensorShape": {"dim": [{"size": "1"}, {"size": "256"}, {"size": "1"}, {"size": "1"}]}}}, "dtype": {"type": "DT_FLOAT"}}}, {"name": "StatefulPartitionedCall/style_gan_g/G_synthesis/G_synthesis/64x64/Conv0_up/bias/Reshape", "op": "Const", "attr": {"value": {"tensor": {"dtype": "DT_FLOAT", "tensorShape": {"dim": [{"size": "1"}, {"size": "256"}, {"size": "1"}, {"size": "1"}]}}}, "dtype": {"type": "DT_FLOAT"}}}, {"name": "StatefulPartitionedCall/style_gan_g/G_synthesis/G_synthesis/64x64/Conv0_up/Noise/ReadVariableOp", "op": "Const", "attr": {"value": {"tensor": {"dtype": "DT_FLOAT", "tensorShape": {"dim": [{"size": "1"}, {"size": "1"}, {"size": "64"}, {"size": "64"}]}}}, "dtype": {"type": "DT_FLOAT"}}}, {"name": "StatefulPartitionedCall/style_gan_g/G_synthesis/G_synthesis/64x64/Conv0_up/Noise/Reshape", "op": "Const", "attr": {"value": {"tensor": {"dtype": "DT_FLOAT", "tensorShape": {"dim": [{"size": "1"}, {"size": "256"}, {"size": "1"}, {"size": "1"}]}}}, "dtype": {"type": "DT_FLOAT"}}}, {"name": "StatefulPartitionedCall/style_gan_g/G_synthesis/G_synthesis/32x32/Conv1/bias/Reshape", "op": "Const", "attr": {"value": {"tensor": {"dtype": "DT_FLOAT", "tensorShape": {"dim": [{"size": "1"}, {"size": "512"}, {"size": "1"}, {"size": "1"}]}}}, "dtype": {"type": "DT_FLOAT"}}}, {"name": "StatefulPartitionedCall/style_gan_g/G_synthesis/G_synthesis/32x32/Conv1/Noise/ReadVariableOp", "op": "Const", "attr": {"value": {"tensor": {"dtype": "DT_FLOAT", "tensorShape": {"dim": [{"size": "1"}, {"size": "1"}, {"size": "32"}, {"size": "32"}]}}}, "dtype": {"type": "DT_FLOAT"}}}, {"name": "StatefulPartitionedCall/style_gan_g/G_synthesis/G_synthesis/32x32/Conv1/Noise/Reshape", "op": "Const", "attr": {"value": {"tensor": {"dtype": "DT_FLOAT", "tensorShape": {"dim": [{"size": "1"}, {"size": "512"}, {"size": "1"}, {"size": "1"}]}}}, "dtype": {"type": "DT_FLOAT"}}}, {"name": "StatefulPartitionedCall/style_gan_g/G_synthesis/G_synthesis/32x32/Conv0_up/bias/Reshape", "op": "Const", "attr": {"value": {"tensor": {"dtype": "DT_FLOAT", "tensorShape": {"dim": [{"size": "1"}, {"size": "512"}, {"size": "1"}, {"size": "1"}]}}}, "dtype": {"type": "DT_FLOAT"}}}, {"name": "StatefulPartitionedCall/style_gan_g/G_synthesis/G_synthesis/32x32/Conv0_up/Noise/ReadVariableOp", "op": "Const", "attr": {"value": {"tensor": {"dtype": "DT_FLOAT", "tensorShape": {"dim": [{"size": "1"}, {"size": "1"}, {"size": "32"}, {"size": "32"}]}}}, "dtype": {"type": "DT_FLOAT"}}}, {"name": "StatefulPartitionedCall/style_gan_g/G_synthesis/G_synthesis/32x32/Conv0_up/Noise/Reshape", "op": "Const", "attr": {"dtype": {"type": "DT_FLOAT"}, "value": {"tensor": {"dtype": "DT_FLOAT", "tensorShape": {"dim": [{"size": "1"}, {"size": "512"}, {"size": "1"}, {"size": "1"}]}}}}}, {"name": "StatefulPartitionedCall/style_gan_g/G_synthesis/G_synthesis/16x16/Conv1/bias/Reshape", "op": "Const", "attr": {"dtype": {"type": "DT_FLOAT"}, "value": {"tensor": {"dtype": "DT_FLOAT", "tensorShape": {"dim": [{"size": "1"}, {"size": "512"}, {"size": "1"}, {"size": "1"}]}}}}}, {"name": "StatefulPartitionedCall/style_gan_g/G_synthesis/G_synthesis/16x16/Conv1/Noise/ReadVariableOp", "op": "Const", "attr": {"value": {"tensor": {"dtype": "DT_FLOAT", "tensorShape": {"dim": [{"size": "1"}, {"size": "1"}, {"size": "16"}, {"size": "16"}]}}}, "dtype": {"type": "DT_FLOAT"}}}, {"name": "StatefulPartitionedCall/style_gan_g/G_synthesis/G_synthesis/16x16/Conv1/Noise/Reshape", "op": "Const", "attr": {"value": {"tensor": {"dtype": "DT_FLOAT", "tensorShape": {"dim": [{"size": "1"}, {"size": "512"}, {"size": "1"}, {"size": "1"}]}}}, "dtype": {"type": "DT_FLOAT"}}}, {"name": "StatefulPartitionedCall/style_gan_g/G_synthesis/G_synthesis/16x16/Conv0_up/bias/Reshape", "op": "Const", "attr": {"value": {"tensor": {"dtype": "DT_FLOAT", "tensorShape": {"dim": [{"size": "1"}, {"size": "512"}, {"size": "1"}, {"size": "1"}]}}}, "dtype": {"type": "DT_FLOAT"}}}, {"name": "StatefulPartitionedCall/style_gan_g/G_synthesis/G_synthesis/16x16/Conv0_up/Noise/ReadVariableOp", "op": "Const", "attr": {"dtype": {"type": "DT_FLOAT"}, "value": {"tensor": {"dtype": "DT_FLOAT", "tensorShape": {"dim": [{"size": "1"}, {"size": "1"}, {"size": "16"}, {"size": "16"}]}}}}}, {"name": "StatefulPartitionedCall/style_gan_g/G_synthesis/G_synthesis/16x16/Conv0_up/Noise/Reshape", "op": "Const", "attr": {"value": {"tensor": {"dtype": "DT_FLOAT", "tensorShape": {"dim": [{"size": "1"}, {"size": "512"}, {"size": "1"}, {"size": "1"}]}}}, "dtype": {"type": "DT_FLOAT"}}}, {"name": "StatefulPartitionedCall/style_gan_g/G_synthesis/G_synthesis/8x8/Conv1/bias/Reshape", "op": "Const", "attr": {"value": {"tensor": {"dtype": "DT_FLOAT", "tensorShape": {"dim": [{"size": "1"}, {"size": "512"}, {"size": "1"}, {"size": "1"}]}}}, "dtype": {"type": "DT_FLOAT"}}}, {"name": "StatefulPartitionedCall/style_gan_g/G_synthesis/G_synthesis/8x8/Conv1/Noise/ReadVariableOp", "op": "Const", "attr": {"value": {"tensor": {"dtype": "DT_FLOAT", "tensorShape": {"dim": [{"size": "1"}, {"size": "1"}, {"size": "8"}, {"size": "8"}]}}}, "dtype": {"type": "DT_FLOAT"}}}, {"name": "StatefulPartitionedCall/style_gan_g/G_synthesis/G_synthesis/8x8/Conv1/Noise/Reshape", "op": "Const", "attr": {"value": {"tensor": {"dtype": "DT_FLOAT", "tensorShape": {"dim": [{"size": "1"}, {"size": "512"}, {"size": "1"}, {"size": "1"}]}}}, "dtype": {"type": "DT_FLOAT"}}}, {"name": "StatefulPartitionedCall/style_gan_g/G_synthesis/G_synthesis/8x8/Conv0_up/bias/Reshape", "op": "Const", "attr": {"dtype": {"type": "DT_FLOAT"}, "value": {"tensor": {"dtype": "DT_FLOAT", "tensorShape": {"dim": [{"size": "1"}, {"size": "512"}, {"size": "1"}, {"size": "1"}]}}}}}, {"name": "StatefulPartitionedCall/style_gan_g/G_synthesis/G_synthesis/8x8/Conv0_up/Noise/ReadVariableOp", "op": "Const", "attr": {"value": {"tensor": {"dtype": "DT_FLOAT", "tensorShape": {"dim": [{"size": "1"}, {"size": "1"}, {"size": "8"}, {"size": "8"}]}}}, "dtype": {"type": "DT_FLOAT"}}}, {"name": "StatefulPartitionedCall/style_gan_g/G_synthesis/G_synthesis/8x8/Conv0_up/Noise/Reshape", "op": "Const", "attr": {"value": {"tensor": {"dtype": "DT_FLOAT", "tensorShape": {"dim": [{"size": "1"}, {"size": "512"}, {"size": "1"}, {"size": "1"}]}}}, "dtype": {"type": "DT_FLOAT"}}}, {"name": "StatefulPartitionedCall/style_gan_g/G_synthesis/G_synthesis/4x4/Const/Tile/ReadVariableOp", "op": "Const", "attr": {"value": {"tensor": {"dtype": "DT_FLOAT", "tensorShape": {"dim": [{"size": "1"}, {"size": "512"}, {"size": "4"}, {"size": "4"}]}}}, "dtype": {"type": "DT_FLOAT"}}}, {"name": "StatefulPartitionedCall/style_gan_g/G_synthesis/G_synthesis/4x4/Const/strided_slice/stack", "op": "Const", "attr": {"value": {"tensor": {"dtype": "DT_INT32", "tensorShape": {"dim": [{"size": "1"}]}}}, "dtype": {"type": "DT_INT32"}}}, {"name": "StatefulPartitionedCall/style_gan_g/G_synthesis/G_synthesis/4x4/Const/strided_slice/stack_1", "op": "Const", "attr": {"dtype": {"type": "DT_INT32"}, "value": {"tensor": {"dtype": "DT_INT32", "tensorShape": {"dim": [{"size": "1"}]}}}}}, {"name": "StatefulPartitionedCall/style_gan_g/G_synthesis/G_synthesis/4x4/Const/strided_slice/stack_2", "op": "Const", "attr": {"value": {"tensor": {"dtype": "DT_INT32", "tensorShape": {"dim": [{"size": "1"}]}}}, "dtype": {"type": "DT_INT32"}}}, {"name": "StatefulPartitionedCall/style_gan_g/G_synthesis/G_synthesis/4x4/Const/Tile/multiples/1", "op": "Const", "attr": {"value": {"tensor": {"dtype": "DT_INT32", "tensorShape": {}}}, "dtype": {"type": "DT_INT32"}}}, {"name": "StatefulPartitionedCall/style_gan_g/G_synthesis/G_synthesis/4x4/Const/Tile/multiples/2", "op": "Const", "attr": {"value": {"tensor": {"dtype": "DT_INT32", "tensorShape": {}}}, "dtype": {"type": "DT_INT32"}}}, {"name": "StatefulPartitionedCall/style_gan_g/G_synthesis/G_synthesis/4x4/Const/Tile/multiples/3", "op": "Const", "attr": {"dtype": {"type": "DT_INT32"}, "value": {"tensor": {"dtype": "DT_INT32", "tensorShape": {}}}}}, {"name": "StatefulPartitionedCall/style_gan_g/G_synthesis/G_synthesis/4x4/Const/Noise/add", "op": "Const", "attr": {"dtype": {"type": "DT_FLOAT"}, "value": {"tensor": {"dtype": "DT_FLOAT", "tensorShape": {"dim": [{"size": "1"}, {"size": "512"}, {"size": "4"}, {"size": "4"}]}}}}}, {"name": "StatefulPartitionedCall/style_gan_g/G_synthesis/G_synthesis/4x4/Const/LeakyReLU/alpha", "op": "Const", "attr": {"value": {"tensor": {"dtype": "DT_FLOAT", "tensorShape": {}}}, "dtype": {"type": "DT_FLOAT"}}}, {"name": "StatefulPartitionedCall/style_gan_g/G_synthesis/G_synthesis/4x4/Const/InstanceNorm/Mean/reduction_indices", "op": "Const", "attr": {"dtype": {"type": "DT_INT32"}, "value": {"tensor": {"dtype": "DT_INT32", "tensorShape": {"dim": [{"size": "2"}]}}}}}, {"name": "StatefulPartitionedCall/style_gan_g/G_synthesis/G_synthesis/4x4/Const/InstanceNorm/Mean_1/reduction_indices", "op": "Const", "attr": {"dtype": {"type": "DT_INT32"}, "value": {"tensor": {"dtype": "DT_INT32", "tensorShape": {"dim": [{"size": "2"}]}}}}}, {"name": "StatefulPartitionedCall/style_gan_g/G_synthesis/G_synthesis/4x4/Const/InstanceNorm/epsilon", "op": "Const", "attr": {"value": {"tensor": {"dtype": "DT_FLOAT", "tensorShape": {}}}, "dtype": {"type": "DT_FLOAT"}}}, {"name": "StatefulPartitionedCall/style_gan_g/G_synthesis/G_synthesis/4x4/Const/StyleModApply/strided_slice/stack", "op": "Const", "attr": {"value": {"tensor": {"dtype": "DT_INT32", "tensorShape": {"dim": [{"size": "2"}]}}}, "dtype": {"type": "DT_INT32"}}}, {"name": "StatefulPartitionedCall/style_gan_g/G_synthesis/G_synthesis/4x4/Const/StyleModApply/strided_slice/stack_1", "op": "Const", "attr": {"value": {"tensor": {"dtype": "DT_INT32", "tensorShape": {"dim": [{"size": "2"}]}}}, "dtype": {"type": "DT_INT32"}}}, {"name": "StatefulPartitionedCall/style_gan_g/G_synthesis/G_synthesis/4x4/Const/StyleModApply/strided_slice/stack_2", "op": "Const", "attr": {"value": {"tensor": {"dtype": "DT_INT32", "tensorShape": {"dim": [{"size": "2"}]}}}, "dtype": {"type": "DT_INT32"}}}, {"name": "StatefulPartitionedCall/style_gan_g/G_synthesis/G_synthesis/4x4/Const/StyleModApply/add/y", "op": "Const", "attr": {"value": {"tensor": {"dtype": "DT_FLOAT", "tensorShape": {}}}, "dtype": {"type": "DT_FLOAT"}}}, {"name": "StatefulPartitionedCall/style_gan_g/G_synthesis/G_synthesis/4x4/Const/StridedSlice/strided_slice/stack", "op": "Const", "attr": {"value": {"tensor": {"dtype": "DT_INT32", "tensorShape": {"dim": [{"size": "2"}]}}}, "dtype": {"type": "DT_INT32"}}}, {"name": "StatefulPartitionedCall/style_gan_g/G_synthesis/G_synthesis/4x4/Const/StridedSlice/strided_slice/stack_1", "op": "Const", "attr": {"value": {"tensor": {"dtype": "DT_INT32", "tensorShape": {"dim": [{"size": "2"}]}}}, "dtype": {"type": "DT_INT32"}}}, {"name": "StatefulPartitionedCall/style_gan_g/G_synthesis/G_synthesis/4x4/Const/StridedSlice/strided_slice/stack_2", "op": "Const", "attr": {"value": {"tensor": {"dtype": "DT_INT32", "tensorShape": {"dim": [{"size": "2"}]}}}, "dtype": {"type": "DT_INT32"}}}, {"name": "StatefulPartitionedCall/style_gan_g/G_synthesis/G_synthesis/4x4/Const/StyleMod/mul_1", "op": "Const", "attr": {"value": {"tensor": {"dtype": "DT_FLOAT", "tensorShape": {"dim": [{"size": "512"}, {"size": "1024"}]}}}, "dtype": {"type": "DT_FLOAT"}}}, {"name": "StatefulPartitionedCall/style_gan_g/G_synthesis/G_synthesis/4x4/Const/StyleMod/mul", "op": "Const", "attr": {"value": {"tensor": {"dtype": "DT_FLOAT", "tensorShape": {"dim": [{"size": "1024"}]}}}, "dtype": {"type": "DT_FLOAT"}}}, {"name": "StatefulPartitionedCall/style_gan_g/G_synthesis/G_synthesis/4x4/Const/StyleModApply/Reshape/shape", "op": "Const", "attr": {"value": {"tensor": {"dtype": "DT_INT32", "tensorShape": {"dim": [{"size": "5"}]}}}, "dtype": {"type": "DT_INT32"}}}, {"name": "StatefulPartitionedCall/style_gan_g/G_synthesis/G_synthesis/4x4/Const/StyleModApply/strided_slice_1/stack", "op": "Const", "attr": {"value": {"tensor": {"dtype": "DT_INT32", "tensorShape": {"dim": [{"size": "2"}]}}}, "dtype": {"type": "DT_INT32"}}}, {"name": "StatefulPartitionedCall/style_gan_g/G_synthesis/G_synthesis/4x4/Const/StyleModApply/strided_slice_1/stack_1", "op": "Const", "attr": {"value": {"tensor": {"dtype": "DT_INT32", "tensorShape": {"dim": [{"size": "2"}]}}}, "dtype": {"type": "DT_INT32"}}}, {"name": "StatefulPartitionedCall/style_gan_g/G_synthesis/G_synthesis/4x4/Const/StyleModApply/strided_slice_1/stack_2", "op": "Const", "attr": {"value": {"tensor": {"dtype": "DT_INT32", "tensorShape": {"dim": [{"size": "2"}]}}}, "dtype": {"type": "DT_INT32"}}}, {"name": "StatefulPartitionedCall/style_gan_g/G_synthesis/G_synthesis/4x4/Conv/mul", "op": "Const", "attr": {"value": {"tensor": {"dtype": "DT_FLOAT", "tensorShape": {"dim": [{"size": "3"}, {"size": "3"}, {"size": "512"}, {"size": "512"}]}}}, "dtype": {"type": "DT_FLOAT"}}}, {"name": "StatefulPartitionedCall/style_gan_g/G_synthesis/G_synthesis/4x4/Conv/Noise/add", "op": "Const", "attr": {"value": {"tensor": {"dtype": "DT_FLOAT", "tensorShape": {"dim": [{"size": "1"}, {"size": "512"}, {"size": "4"}, {"size": "4"}]}}}, "dtype": {"type": "DT_FLOAT"}}}, {"name": "StatefulPartitionedCall/style_gan_g/G_synthesis/G_synthesis/4x4/Conv/LeakyReLU/alpha", "op": "Const", "attr": {"value": {"tensor": {"dtype": "DT_FLOAT", "tensorShape": {}}}, "dtype": {"type": "DT_FLOAT"}}}, {"name": "StatefulPartitionedCall/style_gan_g/G_synthesis/G_synthesis/4x4/Conv/InstanceNorm/Mean/reduction_indices", "op": "Const", "attr": {"dtype": {"type": "DT_INT32"}, "value": {"tensor": {"dtype": "DT_INT32", "tensorShape": {"dim": [{"size": "2"}]}}}}}, {"name": "StatefulPartitionedCall/style_gan_g/G_synthesis/G_synthesis/4x4/Conv/InstanceNorm/Mean_1/reduction_indices", "op": "Const", "attr": {"value": {"tensor": {"dtype": "DT_INT32", "tensorShape": {"dim": [{"size": "2"}]}}}, "dtype": {"type": "DT_INT32"}}}, {"name": "StatefulPartitionedCall/style_gan_g/G_synthesis/G_synthesis/4x4/Conv/InstanceNorm/epsilon", "op": "Const", "attr": {"value": {"tensor": {"dtype": "DT_FLOAT", "tensorShape": {}}}, "dtype": {"type": "DT_FLOAT"}}}, {"name": "StatefulPartitionedCall/style_gan_g/G_synthesis/G_synthesis/4x4/Conv/StyleModApply/strided_slice/stack", "op": "Const", "attr": {"dtype": {"type": "DT_INT32"}, "value": {"tensor": {"dtype": "DT_INT32", "tensorShape": {"dim": [{"size": "2"}]}}}}}, {"name": "StatefulPartitionedCall/style_gan_g/G_synthesis/G_synthesis/4x4/Conv/StyleModApply/strided_slice/stack_1", "op": "Const", "attr": {"value": {"tensor": {"dtype": "DT_INT32", "tensorShape": {"dim": [{"size": "2"}]}}}, "dtype": {"type": "DT_INT32"}}}, {"name": "StatefulPartitionedCall/style_gan_g/G_synthesis/G_synthesis/4x4/Conv/StyleModApply/strided_slice/stack_2", "op": "Const", "attr": {"value": {"tensor": {"dtype": "DT_INT32", "tensorShape": {"dim": [{"size": "2"}]}}}, "dtype": {"type": "DT_INT32"}}}, {"name": "StatefulPartitionedCall/style_gan_g/G_synthesis/G_synthesis/4x4/Conv/StyleModApply/add/y", "op": "Const", "attr": {"dtype": {"type": "DT_FLOAT"}, "value": {"tensor": {"dtype": "DT_FLOAT", "tensorShape": {}}}}}, {"name": "StatefulPartitionedCall/style_gan_g/G_synthesis/G_synthesis/4x4/Conv/StridedSlice/strided_slice/stack", "op": "Const", "attr": {"dtype": {"type": "DT_INT32"}, "value": {"tensor": {"dtype": "DT_INT32", "tensorShape": {"dim": [{"size": "2"}]}}}}}, {"name": "StatefulPartitionedCall/style_gan_g/G_synthesis/G_synthesis/4x4/Conv/StridedSlice/strided_slice/stack_1", "op": "Const", "attr": {"value": {"tensor": {"dtype": "DT_INT32", "tensorShape": {"dim": [{"size": "2"}]}}}, "dtype": {"type": "DT_INT32"}}}, {"name": "StatefulPartitionedCall/style_gan_g/G_synthesis/G_synthesis/4x4/Conv/StridedSlice/strided_slice/stack_2", "op": "Const", "attr": {"value": {"tensor": {"dtype": "DT_INT32", "tensorShape": {"dim": [{"size": "2"}]}}}, "dtype": {"type": "DT_INT32"}}}, {"name": "StatefulPartitionedCall/style_gan_g/G_synthesis/G_synthesis/4x4/Conv/StyleMod/mul_1", "op": "Const", "attr": {"dtype": {"type": "DT_FLOAT"}, "value": {"tensor": {"dtype": "DT_FLOAT", "tensorShape": {"dim": [{"size": "512"}, {"size": "1024"}]}}}}}, {"name": "StatefulPartitionedCall/style_gan_g/G_synthesis/G_synthesis/4x4/Conv/StyleMod/mul", "op": "Const", "attr": {"dtype": {"type": "DT_FLOAT"}, "value": {"tensor": {"dtype": "DT_FLOAT", "tensorShape": {"dim": [{"size": "1024"}]}}}}}, {"name": "StatefulPartitionedCall/style_gan_g/G_synthesis/G_synthesis/4x4/Conv/StyleModApply/Reshape/shape", "op": "Const", "attr": {"dtype": {"type": "DT_INT32"}, "value": {"tensor": {"dtype": "DT_INT32", "tensorShape": {"dim": [{"size": "5"}]}}}}}, {"name": "StatefulPartitionedCall/style_gan_g/G_synthesis/G_synthesis/4x4/Conv/StyleModApply/strided_slice_1/stack", "op": "Const", "attr": {"value": {"tensor": {"dtype": "DT_INT32", "tensorShape": {"dim": [{"size": "2"}]}}}, "dtype": {"type": "DT_INT32"}}}, {"name": "StatefulPartitionedCall/style_gan_g/G_synthesis/G_synthesis/4x4/Conv/StyleModApply/strided_slice_1/stack_1", "op": "Const", "attr": {"value": {"tensor": {"dtype": "DT_INT32", "tensorShape": {"dim": [{"size": "2"}]}}}, "dtype": {"type": "DT_INT32"}}}, {"name": "StatefulPartitionedCall/style_gan_g/G_synthesis/G_synthesis/4x4/Conv/StyleModApply/strided_slice_1/stack_2", "op": "Const", "attr": {"value": {"tensor": {"dtype": "DT_INT32", "tensorShape": {"dim": [{"size": "2"}]}}}, "dtype": {"type": "DT_INT32"}}}, {"name": "StatefulPartitionedCall/style_gan_g/G_synthesis/G_synthesis/8x8/Conv0_up/Upscaled2d/Reshape/shape", "op": "Const", "attr": {"value": {"tensor": {"dtype": "DT_INT32", "tensorShape": {"dim": [{"size": "6"}]}}}, "dtype": {"type": "DT_INT32"}}}, {"name": "StatefulPartitionedCall/style_gan_g/G_synthesis/G_synthesis/8x8/Conv0_up/Upscaled2d/Tile/multiples", "op": "Const", "attr": {"value": {"tensor": {"dtype": "DT_INT32", "tensorShape": {"dim": [{"size": "6"}]}}}, "dtype": {"type": "DT_INT32"}}}, {"name": "StatefulPartitionedCall/style_gan_g/G_synthesis/G_synthesis/8x8/Conv0_up/Upscaled2d/Reshape_1/shape", "op": "Const", "attr": {"value": {"tensor": {"dtype": "DT_INT32", "tensorShape": {"dim": [{"size": "4"}]}}}, "dtype": {"type": "DT_INT32"}}}, {"name": "StatefulPartitionedCall/style_gan_g/G_synthesis/G_synthesis/8x8/Conv0_up/mul", "op": "Const", "attr": {"value": {"tensor": {"dtype": "DT_FLOAT", "tensorShape": {"dim": [{"size": "3"}, {"size": "3"}, {"size": "512"}, {"size": "512"}]}}}, "dtype": {"type": "DT_FLOAT"}}}, {"name": "StatefulPartitionedCall/style_gan_g/G_synthesis/G_synthesis/8x8/Conv0_up/Blur/filter", "op": "Const", "attr": {"value": {"tensor": {"dtype": "DT_FLOAT", "tensorShape": {"dim": [{"size": "3"}, {"size": "3"}, {"size": "512"}, {"size": "1"}]}}}, "dtype": {"type": "DT_FLOAT"}}}, {"name": "StatefulPartitionedCall/style_gan_g/G_synthesis/G_synthesis/8x8/Conv0_up/LeakyReLU/alpha", "op": "Const", "attr": {"value": {"tensor": {"dtype": "DT_FLOAT", "tensorShape": {}}}, "dtype": {"type": "DT_FLOAT"}}}, {"name": "StatefulPartitionedCall/style_gan_g/G_synthesis/G_synthesis/8x8/Conv0_up/InstanceNorm/Mean/reduction_indices", "op": "Const", "attr": {"value": {"tensor": {"dtype": "DT_INT32", "tensorShape": {"dim": [{"size": "2"}]}}}, "dtype": {"type": "DT_INT32"}}}, {"name": "StatefulPartitionedCall/style_gan_g/G_synthesis/G_synthesis/8x8/Conv0_up/InstanceNorm/Mean_1/reduction_indices", "op": "Const", "attr": {"value": {"tensor": {"dtype": "DT_INT32", "tensorShape": {"dim": [{"size": "2"}]}}}, "dtype": {"type": "DT_INT32"}}}, {"name": "StatefulPartitionedCall/style_gan_g/G_synthesis/G_synthesis/8x8/Conv0_up/InstanceNorm/epsilon", "op": "Const", "attr": {"dtype": {"type": "DT_FLOAT"}, "value": {"tensor": {"dtype": "DT_FLOAT", "tensorShape": {}}}}}, {"name": "StatefulPartitionedCall/style_gan_g/G_synthesis/G_synthesis/8x8/Conv0_up/StyleModApply/strided_slice/stack", "op": "Const", "attr": {"dtype": {"type": "DT_INT32"}, "value": {"tensor": {"dtype": "DT_INT32", "tensorShape": {"dim": [{"size": "2"}]}}}}}, {"name": "StatefulPartitionedCall/style_gan_g/G_synthesis/G_synthesis/8x8/Conv0_up/StyleModApply/strided_slice/stack_1", "op": "Const", "attr": {"dtype": {"type": "DT_INT32"}, "value": {"tensor": {"dtype": "DT_INT32", "tensorShape": {"dim": [{"size": "2"}]}}}}}, {"name": "StatefulPartitionedCall/style_gan_g/G_synthesis/G_synthesis/8x8/Conv0_up/StyleModApply/strided_slice/stack_2", "op": "Const", "attr": {"dtype": {"type": "DT_INT32"}, "value": {"tensor": {"dtype": "DT_INT32", "tensorShape": {"dim": [{"size": "2"}]}}}}}, {"name": "StatefulPartitionedCall/style_gan_g/G_synthesis/G_synthesis/8x8/Conv0_up/StyleModApply/add/y", "op": "Const", "attr": {"dtype": {"type": "DT_FLOAT"}, "value": {"tensor": {"dtype": "DT_FLOAT", "tensorShape": {}}}}}, {"name": "StatefulPartitionedCall/style_gan_g/G_synthesis/G_synthesis/8x8/Conv0_up/StridedSlice/strided_slice/stack", "op": "Const", "attr": {"dtype": {"type": "DT_INT32"}, "value": {"tensor": {"dtype": "DT_INT32", "tensorShape": {"dim": [{"size": "2"}]}}}}}, {"name": "StatefulPartitionedCall/style_gan_g/G_synthesis/G_synthesis/8x8/Conv0_up/StridedSlice/strided_slice/stack_1", "op": "Const", "attr": {"dtype": {"type": "DT_INT32"}, "value": {"tensor": {"dtype": "DT_INT32", "tensorShape": {"dim": [{"size": "2"}]}}}}}, {"name": "StatefulPartitionedCall/style_gan_g/G_synthesis/G_synthesis/8x8/Conv0_up/StridedSlice/strided_slice/stack_2", "op": "Const", "attr": {"value": {"tensor": {"dtype": "DT_INT32", "tensorShape": {"dim": [{"size": "2"}]}}}, "dtype": {"type": "DT_INT32"}}}, {"name": "StatefulPartitionedCall/style_gan_g/G_synthesis/G_synthesis/8x8/Conv0_up/StyleMod/mul_1", "op": "Const", "attr": {"value": {"tensor": {"dtype": "DT_FLOAT", "tensorShape": {"dim": [{"size": "512"}, {"size": "1024"}]}}}, "dtype": {"type": "DT_FLOAT"}}}, {"name": "StatefulPartitionedCall/style_gan_g/G_synthesis/G_synthesis/8x8/Conv0_up/StyleMod/mul", "op": "Const", "attr": {"dtype": {"type": "DT_FLOAT"}, "value": {"tensor": {"dtype": "DT_FLOAT", "tensorShape": {"dim": [{"size": "1024"}]}}}}}, {"name": "StatefulPartitionedCall/style_gan_g/G_synthesis/G_synthesis/8x8/Conv0_up/StyleModApply/Reshape/shape", "op": "Const", "attr": {"dtype": {"type": "DT_INT32"}, "value": {"tensor": {"dtype": "DT_INT32", "tensorShape": {"dim": [{"size": "5"}]}}}}}, {"name": "StatefulPartitionedCall/style_gan_g/G_synthesis/G_synthesis/8x8/Conv0_up/StyleModApply/strided_slice_1/stack", "op": "Const", "attr": {"dtype": {"type": "DT_INT32"}, "value": {"tensor": {"dtype": "DT_INT32", "tensorShape": {"dim": [{"size": "2"}]}}}}}, {"name": "StatefulPartitionedCall/style_gan_g/G_synthesis/G_synthesis/8x8/Conv0_up/StyleModApply/strided_slice_1/stack_1", "op": "Const", "attr": {"value": {"tensor": {"dtype": "DT_INT32", "tensorShape": {"dim": [{"size": "2"}]}}}, "dtype": {"type": "DT_INT32"}}}, {"name": "StatefulPartitionedCall/style_gan_g/G_synthesis/G_synthesis/8x8/Conv0_up/StyleModApply/strided_slice_1/stack_2", "op": "Const", "attr": {"dtype": {"type": "DT_INT32"}, "value": {"tensor": {"dtype": "DT_INT32", "tensorShape": {"dim": [{"size": "2"}]}}}}}, {"name": "StatefulPartitionedCall/style_gan_g/G_synthesis/G_synthesis/8x8/Conv1/mul", "op": "Const", "attr": {"dtype": {"type": "DT_FLOAT"}, "value": {"tensor": {"dtype": "DT_FLOAT", "tensorShape": {"dim": [{"size": "3"}, {"size": "3"}, {"size": "512"}, {"size": "512"}]}}}}}, {"name": "StatefulPartitionedCall/style_gan_g/G_synthesis/G_synthesis/8x8/Conv1/LeakyReLU/alpha", "op": "Const", "attr": {"value": {"tensor": {"dtype": "DT_FLOAT", "tensorShape": {}}}, "dtype": {"type": "DT_FLOAT"}}}, {"name": "StatefulPartitionedCall/style_gan_g/G_synthesis/G_synthesis/8x8/Conv1/InstanceNorm/Mean/reduction_indices", "op": "Const", "attr": {"value": {"tensor": {"dtype": "DT_INT32", "tensorShape": {"dim": [{"size": "2"}]}}}, "dtype": {"type": "DT_INT32"}}}, {"name": "StatefulPartitionedCall/style_gan_g/G_synthesis/G_synthesis/8x8/Conv1/InstanceNorm/Mean_1/reduction_indices", "op": "Const", "attr": {"dtype": {"type": "DT_INT32"}, "value": {"tensor": {"dtype": "DT_INT32", "tensorShape": {"dim": [{"size": "2"}]}}}}}, {"name": "StatefulPartitionedCall/style_gan_g/G_synthesis/G_synthesis/8x8/Conv1/InstanceNorm/epsilon", "op": "Const", "attr": {"value": {"tensor": {"dtype": "DT_FLOAT", "tensorShape": {}}}, "dtype": {"type": "DT_FLOAT"}}}, {"name": "StatefulPartitionedCall/style_gan_g/G_synthesis/G_synthesis/8x8/Conv1/StyleModApply/strided_slice/stack", "op": "Const", "attr": {"dtype": {"type": "DT_INT32"}, "value": {"tensor": {"dtype": "DT_INT32", "tensorShape": {"dim": [{"size": "2"}]}}}}}, {"name": "StatefulPartitionedCall/style_gan_g/G_synthesis/G_synthesis/8x8/Conv1/StyleModApply/strided_slice/stack_1", "op": "Const", "attr": {"dtype": {"type": "DT_INT32"}, "value": {"tensor": {"dtype": "DT_INT32", "tensorShape": {"dim": [{"size": "2"}]}}}}}, {"name": "StatefulPartitionedCall/style_gan_g/G_synthesis/G_synthesis/8x8/Conv1/StyleModApply/strided_slice/stack_2", "op": "Const", "attr": {"dtype": {"type": "DT_INT32"}, "value": {"tensor": {"dtype": "DT_INT32", "tensorShape": {"dim": [{"size": "2"}]}}}}}, {"name": "StatefulPartitionedCall/style_gan_g/G_synthesis/G_synthesis/8x8/Conv1/StyleModApply/add/y", "op": "Const", "attr": {"dtype": {"type": "DT_FLOAT"}, "value": {"tensor": {"dtype": "DT_FLOAT", "tensorShape": {}}}}}, {"name": "StatefulPartitionedCall/style_gan_g/G_synthesis/G_synthesis/8x8/Conv1/StridedSlice/strided_slice/stack", "op": "Const", "attr": {"dtype": {"type": "DT_INT32"}, "value": {"tensor": {"dtype": "DT_INT32", "tensorShape": {"dim": [{"size": "2"}]}}}}}, {"name": "StatefulPartitionedCall/style_gan_g/G_synthesis/G_synthesis/8x8/Conv1/StridedSlice/strided_slice/stack_1", "op": "Const", "attr": {"dtype": {"type": "DT_INT32"}, "value": {"tensor": {"dtype": "DT_INT32", "tensorShape": {"dim": [{"size": "2"}]}}}}}, {"name": "StatefulPartitionedCall/style_gan_g/G_synthesis/G_synthesis/8x8/Conv1/StridedSlice/strided_slice/stack_2", "op": "Const", "attr": {"dtype": {"type": "DT_INT32"}, "value": {"tensor": {"dtype": "DT_INT32", "tensorShape": {"dim": [{"size": "2"}]}}}}}, {"name": "StatefulPartitionedCall/style_gan_g/G_synthesis/G_synthesis/8x8/Conv1/StyleMod/mul_1", "op": "Const", "attr": {"dtype": {"type": "DT_FLOAT"}, "value": {"tensor": {"dtype": "DT_FLOAT", "tensorShape": {"dim": [{"size": "512"}, {"size": "1024"}]}}}}}, {"name": "StatefulPartitionedCall/style_gan_g/G_synthesis/G_synthesis/8x8/Conv1/StyleMod/mul", "op": "Const", "attr": {"value": {"tensor": {"dtype": "DT_FLOAT", "tensorShape": {"dim": [{"size": "1024"}]}}}, "dtype": {"type": "DT_FLOAT"}}}, {"name": "StatefulPartitionedCall/style_gan_g/G_synthesis/G_synthesis/8x8/Conv1/StyleModApply/Reshape/shape", "op": "Const", "attr": {"value": {"tensor": {"dtype": "DT_INT32", "tensorShape": {"dim": [{"size": "5"}]}}}, "dtype": {"type": "DT_INT32"}}}, {"name": "StatefulPartitionedCall/style_gan_g/G_synthesis/G_synthesis/8x8/Conv1/StyleModApply/strided_slice_1/stack", "op": "Const", "attr": {"value": {"tensor": {"dtype": "DT_INT32", "tensorShape": {"dim": [{"size": "2"}]}}}, "dtype": {"type": "DT_INT32"}}}, {"name": "StatefulPartitionedCall/style_gan_g/G_synthesis/G_synthesis/8x8/Conv1/StyleModApply/strided_slice_1/stack_1", "op": "Const", "attr": {"dtype": {"type": "DT_INT32"}, "value": {"tensor": {"dtype": "DT_INT32", "tensorShape": {"dim": [{"size": "2"}]}}}}}, {"name": "StatefulPartitionedCall/style_gan_g/G_synthesis/G_synthesis/8x8/Conv1/StyleModApply/strided_slice_1/stack_2", "op": "Const", "attr": {"value": {"tensor": {"dtype": "DT_INT32", "tensorShape": {"dim": [{"size": "2"}]}}}, "dtype": {"type": "DT_INT32"}}}, {"name": "StatefulPartitionedCall/style_gan_g/G_synthesis/G_synthesis/16x16/Conv0_up/Upscaled2d/Reshape/shape", "op": "Const", "attr": {"dtype": {"type": "DT_INT32"}, "value": {"tensor": {"dtype": "DT_INT32", "tensorShape": {"dim": [{"size": "6"}]}}}}}, {"name": "StatefulPartitionedCall/style_gan_g/G_synthesis/G_synthesis/16x16/Conv0_up/Upscaled2d/Tile/multiples", "op": "Const", "attr": {"dtype": {"type": "DT_INT32"}, "value": {"tensor": {"dtype": "DT_INT32", "tensorShape": {"dim": [{"size": "6"}]}}}}}, {"name": "StatefulPartitionedCall/style_gan_g/G_synthesis/G_synthesis/16x16/Conv0_up/Upscaled2d/Reshape_1/shape", "op": "Const", "attr": {"dtype": {"type": "DT_INT32"}, "value": {"tensor": {"dtype": "DT_INT32", "tensorShape": {"dim": [{"size": "4"}]}}}}}, {"name": "StatefulPartitionedCall/style_gan_g/G_synthesis/G_synthesis/16x16/Conv0_up/mul", "op": "Const", "attr": {"dtype": {"type": "DT_FLOAT"}, "value": {"tensor": {"dtype": "DT_FLOAT", "tensorShape": {"dim": [{"size": "3"}, {"size": "3"}, {"size": "512"}, {"size": "512"}]}}}}}, {"name": "StatefulPartitionedCall/style_gan_g/G_synthesis/G_synthesis/16x16/Conv0_up/Blur/filter", "op": "Const", "attr": {"dtype": {"type": "DT_FLOAT"}, "value": {"tensor": {"dtype": "DT_FLOAT", "tensorShape": {"dim": [{"size": "3"}, {"size": "3"}, {"size": "512"}, {"size": "1"}]}}}}}, {"name": "StatefulPartitionedCall/style_gan_g/G_synthesis/G_synthesis/16x16/Conv0_up/LeakyReLU/alpha", "op": "Const", "attr": {"dtype": {"type": "DT_FLOAT"}, "value": {"tensor": {"dtype": "DT_FLOAT", "tensorShape": {}}}}}, {"name": "StatefulPartitionedCall/style_gan_g/G_synthesis/G_synthesis/16x16/Conv0_up/InstanceNorm/Mean/reduction_indices", "op": "Const", "attr": {"dtype": {"type": "DT_INT32"}, "value": {"tensor": {"dtype": "DT_INT32", "tensorShape": {"dim": [{"size": "2"}]}}}}}, {"name": "StatefulPartitionedCall/style_gan_g/G_synthesis/G_synthesis/16x16/Conv0_up/InstanceNorm/Mean_1/reduction_indices", "op": "Const", "attr": {"value": {"tensor": {"dtype": "DT_INT32", "tensorShape": {"dim": [{"size": "2"}]}}}, "dtype": {"type": "DT_INT32"}}}, {"name": "StatefulPartitionedCall/style_gan_g/G_synthesis/G_synthesis/16x16/Conv0_up/InstanceNorm/epsilon", "op": "Const", "attr": {"dtype": {"type": "DT_FLOAT"}, "value": {"tensor": {"dtype": "DT_FLOAT", "tensorShape": {}}}}}, {"name": "StatefulPartitionedCall/style_gan_g/G_synthesis/G_synthesis/16x16/Conv0_up/StyleModApply/strided_slice/stack", "op": "Const", "attr": {"value": {"tensor": {"dtype": "DT_INT32", "tensorShape": {"dim": [{"size": "2"}]}}}, "dtype": {"type": "DT_INT32"}}}, {"name": "StatefulPartitionedCall/style_gan_g/G_synthesis/G_synthesis/16x16/Conv0_up/StyleModApply/strided_slice/stack_1", "op": "Const", "attr": {"dtype": {"type": "DT_INT32"}, "value": {"tensor": {"dtype": "DT_INT32", "tensorShape": {"dim": [{"size": "2"}]}}}}}, {"name": "StatefulPartitionedCall/style_gan_g/G_synthesis/G_synthesis/16x16/Conv0_up/StyleModApply/strided_slice/stack_2", "op": "Const", "attr": {"dtype": {"type": "DT_INT32"}, "value": {"tensor": {"dtype": "DT_INT32", "tensorShape": {"dim": [{"size": "2"}]}}}}}, {"name": "StatefulPartitionedCall/style_gan_g/G_synthesis/G_synthesis/16x16/Conv0_up/StyleModApply/add/y", "op": "Const", "attr": {"dtype": {"type": "DT_FLOAT"}, "value": {"tensor": {"dtype": "DT_FLOAT", "tensorShape": {}}}}}, {"name": "StatefulPartitionedCall/style_gan_g/G_synthesis/G_synthesis/16x16/Conv0_up/StridedSlice/strided_slice/stack", "op": "Const", "attr": {"value": {"tensor": {"dtype": "DT_INT32", "tensorShape": {"dim": [{"size": "2"}]}}}, "dtype": {"type": "DT_INT32"}}}, {"name": "StatefulPartitionedCall/style_gan_g/G_synthesis/G_synthesis/16x16/Conv0_up/StridedSlice/strided_slice/stack_1", "op": "Const", "attr": {"dtype": {"type": "DT_INT32"}, "value": {"tensor": {"dtype": "DT_INT32", "tensorShape": {"dim": [{"size": "2"}]}}}}}, {"name": "StatefulPartitionedCall/style_gan_g/G_synthesis/G_synthesis/16x16/Conv0_up/StridedSlice/strided_slice/stack_2", "op": "Const", "attr": {"value": {"tensor": {"dtype": "DT_INT32", "tensorShape": {"dim": [{"size": "2"}]}}}, "dtype": {"type": "DT_INT32"}}}, {"name": "StatefulPartitionedCall/style_gan_g/G_synthesis/G_synthesis/16x16/Conv0_up/StyleMod/mul_1", "op": "Const", "attr": {"value": {"tensor": {"dtype": "DT_FLOAT", "tensorShape": {"dim": [{"size": "512"}, {"size": "1024"}]}}}, "dtype": {"type": "DT_FLOAT"}}}, {"name": "StatefulPartitionedCall/style_gan_g/G_synthesis/G_synthesis/16x16/Conv0_up/StyleMod/mul", "op": "Const", "attr": {"value": {"tensor": {"dtype": "DT_FLOAT", "tensorShape": {"dim": [{"size": "1024"}]}}}, "dtype": {"type": "DT_FLOAT"}}}, {"name": "StatefulPartitionedCall/style_gan_g/G_synthesis/G_synthesis/16x16/Conv0_up/StyleModApply/Reshape/shape", "op": "Const", "attr": {"value": {"tensor": {"dtype": "DT_INT32", "tensorShape": {"dim": [{"size": "5"}]}}}, "dtype": {"type": "DT_INT32"}}}, {"name": "StatefulPartitionedCall/style_gan_g/G_synthesis/G_synthesis/16x16/Conv0_up/StyleModApply/strided_slice_1/stack", "op": "Const", "attr": {"value": {"tensor": {"dtype": "DT_INT32", "tensorShape": {"dim": [{"size": "2"}]}}}, "dtype": {"type": "DT_INT32"}}}, {"name": "StatefulPartitionedCall/style_gan_g/G_synthesis/G_synthesis/16x16/Conv0_up/StyleModApply/strided_slice_1/stack_1", "op": "Const", "attr": {"value": {"tensor": {"dtype": "DT_INT32", "tensorShape": {"dim": [{"size": "2"}]}}}, "dtype": {"type": "DT_INT32"}}}, {"name": "StatefulPartitionedCall/style_gan_g/G_synthesis/G_synthesis/16x16/Conv0_up/StyleModApply/strided_slice_1/stack_2", "op": "Const", "attr": {"dtype": {"type": "DT_INT32"}, "value": {"tensor": {"dtype": "DT_INT32", "tensorShape": {"dim": [{"size": "2"}]}}}}}, {"name": "StatefulPartitionedCall/style_gan_g/G_synthesis/G_synthesis/16x16/Conv1/mul", "op": "Const", "attr": {"dtype": {"type": "DT_FLOAT"}, "value": {"tensor": {"dtype": "DT_FLOAT", "tensorShape": {"dim": [{"size": "3"}, {"size": "3"}, {"size": "512"}, {"size": "512"}]}}}}}, {"name": "StatefulPartitionedCall/style_gan_g/G_synthesis/G_synthesis/16x16/Conv1/LeakyReLU/alpha", "op": "Const", "attr": {"dtype": {"type": "DT_FLOAT"}, "value": {"tensor": {"dtype": "DT_FLOAT", "tensorShape": {}}}}}, {"name": "StatefulPartitionedCall/style_gan_g/G_synthesis/G_synthesis/16x16/Conv1/InstanceNorm/Mean/reduction_indices", "op": "Const", "attr": {"value": {"tensor": {"dtype": "DT_INT32", "tensorShape": {"dim": [{"size": "2"}]}}}, "dtype": {"type": "DT_INT32"}}}, {"name": "StatefulPartitionedCall/style_gan_g/G_synthesis/G_synthesis/16x16/Conv1/InstanceNorm/Mean_1/reduction_indices", "op": "Const", "attr": {"dtype": {"type": "DT_INT32"}, "value": {"tensor": {"dtype": "DT_INT32", "tensorShape": {"dim": [{"size": "2"}]}}}}}, {"name": "StatefulPartitionedCall/style_gan_g/G_synthesis/G_synthesis/16x16/Conv1/InstanceNorm/epsilon", "op": "Const", "attr": {"value": {"tensor": {"dtype": "DT_FLOAT", "tensorShape": {}}}, "dtype": {"type": "DT_FLOAT"}}}, {"name": "StatefulPartitionedCall/style_gan_g/G_synthesis/G_synthesis/16x16/Conv1/StyleModApply/strided_slice/stack", "op": "Const", "attr": {"dtype": {"type": "DT_INT32"}, "value": {"tensor": {"dtype": "DT_INT32", "tensorShape": {"dim": [{"size": "2"}]}}}}}, {"name": "StatefulPartitionedCall/style_gan_g/G_synthesis/G_synthesis/16x16/Conv1/StyleModApply/strided_slice/stack_1", "op": "Const", "attr": {"dtype": {"type": "DT_INT32"}, "value": {"tensor": {"dtype": "DT_INT32", "tensorShape": {"dim": [{"size": "2"}]}}}}}, {"name": "StatefulPartitionedCall/style_gan_g/G_synthesis/G_synthesis/16x16/Conv1/StyleModApply/strided_slice/stack_2", "op": "Const", "attr": {"dtype": {"type": "DT_INT32"}, "value": {"tensor": {"dtype": "DT_INT32", "tensorShape": {"dim": [{"size": "2"}]}}}}}, {"name": "StatefulPartitionedCall/style_gan_g/G_synthesis/G_synthesis/16x16/Conv1/StyleModApply/add/y", "op": "Const", "attr": {"dtype": {"type": "DT_FLOAT"}, "value": {"tensor": {"dtype": "DT_FLOAT", "tensorShape": {}}}}}, {"name": "StatefulPartitionedCall/style_gan_g/G_synthesis/G_synthesis/16x16/Conv1/StridedSlice/strided_slice/stack", "op": "Const", "attr": {"dtype": {"type": "DT_INT32"}, "value": {"tensor": {"dtype": "DT_INT32", "tensorShape": {"dim": [{"size": "2"}]}}}}}, {"name": "StatefulPartitionedCall/style_gan_g/G_synthesis/G_synthesis/16x16/Conv1/StridedSlice/strided_slice/stack_1", "op": "Const", "attr": {"value": {"tensor": {"dtype": "DT_INT32", "tensorShape": {"dim": [{"size": "2"}]}}}, "dtype": {"type": "DT_INT32"}}}, {"name": "StatefulPartitionedCall/style_gan_g/G_synthesis/G_synthesis/16x16/Conv1/StridedSlice/strided_slice/stack_2", "op": "Const", "attr": {"dtype": {"type": "DT_INT32"}, "value": {"tensor": {"dtype": "DT_INT32", "tensorShape": {"dim": [{"size": "2"}]}}}}}, {"name": "StatefulPartitionedCall/style_gan_g/G_synthesis/G_synthesis/16x16/Conv1/StyleMod/mul_1", "op": "Const", "attr": {"value": {"tensor": {"dtype": "DT_FLOAT", "tensorShape": {"dim": [{"size": "512"}, {"size": "1024"}]}}}, "dtype": {"type": "DT_FLOAT"}}}, {"name": "StatefulPartitionedCall/style_gan_g/G_synthesis/G_synthesis/16x16/Conv1/StyleMod/mul", "op": "Const", "attr": {"dtype": {"type": "DT_FLOAT"}, "value": {"tensor": {"dtype": "DT_FLOAT", "tensorShape": {"dim": [{"size": "1024"}]}}}}}, {"name": "StatefulPartitionedCall/style_gan_g/G_synthesis/G_synthesis/16x16/Conv1/StyleModApply/Reshape/shape", "op": "Const", "attr": {"dtype": {"type": "DT_INT32"}, "value": {"tensor": {"dtype": "DT_INT32", "tensorShape": {"dim": [{"size": "5"}]}}}}}, {"name": "StatefulPartitionedCall/style_gan_g/G_synthesis/G_synthesis/16x16/Conv1/StyleModApply/strided_slice_1/stack", "op": "Const", "attr": {"dtype": {"type": "DT_INT32"}, "value": {"tensor": {"dtype": "DT_INT32", "tensorShape": {"dim": [{"size": "2"}]}}}}}, {"name": "StatefulPartitionedCall/style_gan_g/G_synthesis/G_synthesis/16x16/Conv1/StyleModApply/strided_slice_1/stack_1", "op": "Const", "attr": {"dtype": {"type": "DT_INT32"}, "value": {"tensor": {"dtype": "DT_INT32", "tensorShape": {"dim": [{"size": "2"}]}}}}}, {"name": "StatefulPartitionedCall/style_gan_g/G_synthesis/G_synthesis/16x16/Conv1/StyleModApply/strided_slice_1/stack_2", "op": "Const", "attr": {"value": {"tensor": {"dtype": "DT_INT32", "tensorShape": {"dim": [{"size": "2"}]}}}, "dtype": {"type": "DT_INT32"}}}, {"name": "StatefulPartitionedCall/style_gan_g/G_synthesis/G_synthesis/32x32/Conv0_up/Upscaled2d/Reshape/shape", "op": "Const", "attr": {"dtype": {"type": "DT_INT32"}, "value": {"tensor": {"dtype": "DT_INT32", "tensorShape": {"dim": [{"size": "6"}]}}}}}, {"name": "StatefulPartitionedCall/style_gan_g/G_synthesis/G_synthesis/32x32/Conv0_up/Upscaled2d/Tile/multiples", "op": "Const", "attr": {"dtype": {"type": "DT_INT32"}, "value": {"tensor": {"dtype": "DT_INT32", "tensorShape": {"dim": [{"size": "6"}]}}}}}, {"name": "StatefulPartitionedCall/style_gan_g/G_synthesis/G_synthesis/32x32/Conv0_up/Upscaled2d/Reshape_1/shape", "op": "Const", "attr": {"dtype": {"type": "DT_INT32"}, "value": {"tensor": {"dtype": "DT_INT32", "tensorShape": {"dim": [{"size": "4"}]}}}}}, {"name": "StatefulPartitionedCall/style_gan_g/G_synthesis/G_synthesis/32x32/Conv0_up/mul", "op": "Const", "attr": {"dtype": {"type": "DT_FLOAT"}, "value": {"tensor": {"dtype": "DT_FLOAT", "tensorShape": {"dim": [{"size": "3"}, {"size": "3"}, {"size": "512"}, {"size": "512"}]}}}}}, {"name": "StatefulPartitionedCall/style_gan_g/G_synthesis/G_synthesis/32x32/Conv0_up/Blur/filter", "op": "Const", "attr": {"dtype": {"type": "DT_FLOAT"}, "value": {"tensor": {"dtype": "DT_FLOAT", "tensorShape": {"dim": [{"size": "3"}, {"size": "3"}, {"size": "512"}, {"size": "1"}]}}}}}, {"name": "StatefulPartitionedCall/style_gan_g/G_synthesis/G_synthesis/32x32/Conv0_up/LeakyReLU/alpha", "op": "Const", "attr": {"dtype": {"type": "DT_FLOAT"}, "value": {"tensor": {"dtype": "DT_FLOAT", "tensorShape": {}}}}}, {"name": "StatefulPartitionedCall/style_gan_g/G_synthesis/G_synthesis/32x32/Conv0_up/InstanceNorm/Mean/reduction_indices", "op": "Const", "attr": {"value": {"tensor": {"dtype": "DT_INT32", "tensorShape": {"dim": [{"size": "2"}]}}}, "dtype": {"type": "DT_INT32"}}}, {"name": "StatefulPartitionedCall/style_gan_g/G_synthesis/G_synthesis/32x32/Conv0_up/InstanceNorm/Mean_1/reduction_indices", "op": "Const", "attr": {"value": {"tensor": {"dtype": "DT_INT32", "tensorShape": {"dim": [{"size": "2"}]}}}, "dtype": {"type": "DT_INT32"}}}, {"name": "StatefulPartitionedCall/style_gan_g/G_synthesis/G_synthesis/32x32/Conv0_up/InstanceNorm/epsilon", "op": "Const", "attr": {"value": {"tensor": {"dtype": "DT_FLOAT", "tensorShape": {}}}, "dtype": {"type": "DT_FLOAT"}}}, {"name": "StatefulPartitionedCall/style_gan_g/G_synthesis/G_synthesis/32x32/Conv0_up/StyleModApply/strided_slice/stack", "op": "Const", "attr": {"dtype": {"type": "DT_INT32"}, "value": {"tensor": {"dtype": "DT_INT32", "tensorShape": {"dim": [{"size": "2"}]}}}}}, {"name": "StatefulPartitionedCall/style_gan_g/G_synthesis/G_synthesis/32x32/Conv0_up/StyleModApply/strided_slice/stack_1", "op": "Const", "attr": {"value": {"tensor": {"dtype": "DT_INT32", "tensorShape": {"dim": [{"size": "2"}]}}}, "dtype": {"type": "DT_INT32"}}}, {"name": "StatefulPartitionedCall/style_gan_g/G_synthesis/G_synthesis/32x32/Conv0_up/StyleModApply/strided_slice/stack_2", "op": "Const", "attr": {"value": {"tensor": {"dtype": "DT_INT32", "tensorShape": {"dim": [{"size": "2"}]}}}, "dtype": {"type": "DT_INT32"}}}, {"name": "StatefulPartitionedCall/style_gan_g/G_synthesis/G_synthesis/32x32/Conv0_up/StyleModApply/add/y", "op": "Const", "attr": {"dtype": {"type": "DT_FLOAT"}, "value": {"tensor": {"dtype": "DT_FLOAT", "tensorShape": {}}}}}, {"name": "StatefulPartitionedCall/style_gan_g/G_synthesis/G_synthesis/32x32/Conv0_up/StridedSlice/strided_slice/stack", "op": "Const", "attr": {"value": {"tensor": {"dtype": "DT_INT32", "tensorShape": {"dim": [{"size": "2"}]}}}, "dtype": {"type": "DT_INT32"}}}, {"name": "StatefulPartitionedCall/style_gan_g/G_synthesis/G_synthesis/32x32/Conv0_up/StridedSlice/strided_slice/stack_1", "op": "Const", "attr": {"dtype": {"type": "DT_INT32"}, "value": {"tensor": {"dtype": "DT_INT32", "tensorShape": {"dim": [{"size": "2"}]}}}}}, {"name": "StatefulPartitionedCall/style_gan_g/G_synthesis/G_synthesis/32x32/Conv0_up/StridedSlice/strided_slice/stack_2", "op": "Const", "attr": {"value": {"tensor": {"dtype": "DT_INT32", "tensorShape": {"dim": [{"size": "2"}]}}}, "dtype": {"type": "DT_INT32"}}}, {"name": "StatefulPartitionedCall/style_gan_g/G_synthesis/G_synthesis/32x32/Conv0_up/StyleMod/mul_1", "op": "Const", "attr": {"dtype": {"type": "DT_FLOAT"}, "value": {"tensor": {"dtype": "DT_FLOAT", "tensorShape": {"dim": [{"size": "512"}, {"size": "1024"}]}}}}}, {"name": "StatefulPartitionedCall/style_gan_g/G_synthesis/G_synthesis/32x32/Conv0_up/StyleMod/mul", "op": "Const", "attr": {"value": {"tensor": {"dtype": "DT_FLOAT", "tensorShape": {"dim": [{"size": "1024"}]}}}, "dtype": {"type": "DT_FLOAT"}}}, {"name": "StatefulPartitionedCall/style_gan_g/G_synthesis/G_synthesis/32x32/Conv0_up/StyleModApply/Reshape/shape", "op": "Const", "attr": {"value": {"tensor": {"dtype": "DT_INT32", "tensorShape": {"dim": [{"size": "5"}]}}}, "dtype": {"type": "DT_INT32"}}}, {"name": "StatefulPartitionedCall/style_gan_g/G_synthesis/G_synthesis/32x32/Conv0_up/StyleModApply/strided_slice_1/stack", "op": "Const", "attr": {"value": {"tensor": {"dtype": "DT_INT32", "tensorShape": {"dim": [{"size": "2"}]}}}, "dtype": {"type": "DT_INT32"}}}, {"name": "StatefulPartitionedCall/style_gan_g/G_synthesis/G_synthesis/32x32/Conv0_up/StyleModApply/strided_slice_1/stack_1", "op": "Const", "attr": {"dtype": {"type": "DT_INT32"}, "value": {"tensor": {"dtype": "DT_INT32", "tensorShape": {"dim": [{"size": "2"}]}}}}}, {"name": "StatefulPartitionedCall/style_gan_g/G_synthesis/G_synthesis/32x32/Conv0_up/StyleModApply/strided_slice_1/stack_2", "op": "Const", "attr": {"dtype": {"type": "DT_INT32"}, "value": {"tensor": {"dtype": "DT_INT32", "tensorShape": {"dim": [{"size": "2"}]}}}}}, {"name": "StatefulPartitionedCall/style_gan_g/G_synthesis/G_synthesis/32x32/Conv1/mul", "op": "Const", "attr": {"value": {"tensor": {"dtype": "DT_FLOAT", "tensorShape": {"dim": [{"size": "3"}, {"size": "3"}, {"size": "512"}, {"size": "512"}]}}}, "dtype": {"type": "DT_FLOAT"}}}, {"name": "StatefulPartitionedCall/style_gan_g/G_synthesis/G_synthesis/32x32/Conv1/LeakyReLU/alpha", "op": "Const", "attr": {"value": {"tensor": {"dtype": "DT_FLOAT", "tensorShape": {}}}, "dtype": {"type": "DT_FLOAT"}}}, {"name": "StatefulPartitionedCall/style_gan_g/G_synthesis/G_synthesis/32x32/Conv1/InstanceNorm/Mean/reduction_indices", "op": "Const", "attr": {"value": {"tensor": {"dtype": "DT_INT32", "tensorShape": {"dim": [{"size": "2"}]}}}, "dtype": {"type": "DT_INT32"}}}, {"name": "StatefulPartitionedCall/style_gan_g/G_synthesis/G_synthesis/32x32/Conv1/InstanceNorm/Mean_1/reduction_indices", "op": "Const", "attr": {"dtype": {"type": "DT_INT32"}, "value": {"tensor": {"dtype": "DT_INT32", "tensorShape": {"dim": [{"size": "2"}]}}}}}, {"name": "StatefulPartitionedCall/style_gan_g/G_synthesis/G_synthesis/32x32/Conv1/InstanceNorm/epsilon", "op": "Const", "attr": {"value": {"tensor": {"dtype": "DT_FLOAT", "tensorShape": {}}}, "dtype": {"type": "DT_FLOAT"}}}, {"name": "StatefulPartitionedCall/style_gan_g/G_synthesis/G_synthesis/32x32/Conv1/StyleModApply/strided_slice/stack", "op": "Const", "attr": {"dtype": {"type": "DT_INT32"}, "value": {"tensor": {"dtype": "DT_INT32", "tensorShape": {"dim": [{"size": "2"}]}}}}}, {"name": "StatefulPartitionedCall/style_gan_g/G_synthesis/G_synthesis/32x32/Conv1/StyleModApply/strided_slice/stack_1", "op": "Const", "attr": {"value": {"tensor": {"dtype": "DT_INT32", "tensorShape": {"dim": [{"size": "2"}]}}}, "dtype": {"type": "DT_INT32"}}}, {"name": "StatefulPartitionedCall/style_gan_g/G_synthesis/G_synthesis/32x32/Conv1/StyleModApply/strided_slice/stack_2", "op": "Const", "attr": {"value": {"tensor": {"dtype": "DT_INT32", "tensorShape": {"dim": [{"size": "2"}]}}}, "dtype": {"type": "DT_INT32"}}}, {"name": "StatefulPartitionedCall/style_gan_g/G_synthesis/G_synthesis/32x32/Conv1/StyleModApply/add/y", "op": "Const", "attr": {"dtype": {"type": "DT_FLOAT"}, "value": {"tensor": {"dtype": "DT_FLOAT", "tensorShape": {}}}}}, {"name": "StatefulPartitionedCall/style_gan_g/G_synthesis/G_synthesis/32x32/Conv1/StridedSlice/strided_slice/stack", "op": "Const", "attr": {"value": {"tensor": {"dtype": "DT_INT32", "tensorShape": {"dim": [{"size": "2"}]}}}, "dtype": {"type": "DT_INT32"}}}, {"name": "StatefulPartitionedCall/style_gan_g/G_synthesis/G_synthesis/32x32/Conv1/StridedSlice/strided_slice/stack_1", "op": "Const", "attr": {"value": {"tensor": {"dtype": "DT_INT32", "tensorShape": {"dim": [{"size": "2"}]}}}, "dtype": {"type": "DT_INT32"}}}, {"name": "StatefulPartitionedCall/style_gan_g/G_synthesis/G_synthesis/32x32/Conv1/StridedSlice/strided_slice/stack_2", "op": "Const", "attr": {"value": {"tensor": {"dtype": "DT_INT32", "tensorShape": {"dim": [{"size": "2"}]}}}, "dtype": {"type": "DT_INT32"}}}, {"name": "StatefulPartitionedCall/style_gan_g/G_synthesis/G_synthesis/32x32/Conv1/StyleMod/mul_1", "op": "Const", "attr": {"value": {"tensor": {"dtype": "DT_FLOAT", "tensorShape": {"dim": [{"size": "512"}, {"size": "1024"}]}}}, "dtype": {"type": "DT_FLOAT"}}}, {"name": "StatefulPartitionedCall/style_gan_g/G_synthesis/G_synthesis/32x32/Conv1/StyleMod/mul", "op": "Const", "attr": {"value": {"tensor": {"dtype": "DT_FLOAT", "tensorShape": {"dim": [{"size": "1024"}]}}}, "dtype": {"type": "DT_FLOAT"}}}, {"name": "StatefulPartitionedCall/style_gan_g/G_synthesis/G_synthesis/32x32/Conv1/StyleModApply/Reshape/shape", "op": "Const", "attr": {"dtype": {"type": "DT_INT32"}, "value": {"tensor": {"dtype": "DT_INT32", "tensorShape": {"dim": [{"size": "5"}]}}}}}, {"name": "StatefulPartitionedCall/style_gan_g/G_synthesis/G_synthesis/32x32/Conv1/StyleModApply/strided_slice_1/stack", "op": "Const", "attr": {"value": {"tensor": {"dtype": "DT_INT32", "tensorShape": {"dim": [{"size": "2"}]}}}, "dtype": {"type": "DT_INT32"}}}, {"name": "StatefulPartitionedCall/style_gan_g/G_synthesis/G_synthesis/32x32/Conv1/StyleModApply/strided_slice_1/stack_1", "op": "Const", "attr": {"value": {"tensor": {"dtype": "DT_INT32", "tensorShape": {"dim": [{"size": "2"}]}}}, "dtype": {"type": "DT_INT32"}}}, {"name": "StatefulPartitionedCall/style_gan_g/G_synthesis/G_synthesis/32x32/Conv1/StyleModApply/strided_slice_1/stack_2", "op": "Const", "attr": {"dtype": {"type": "DT_INT32"}, "value": {"tensor": {"dtype": "DT_INT32", "tensorShape": {"dim": [{"size": "2"}]}}}}}, {"name": "StatefulPartitionedCall/style_gan_g/G_synthesis/G_synthesis/64x64/Conv0_up/Upscaled2d/Reshape/shape", "op": "Const", "attr": {"value": {"tensor": {"dtype": "DT_INT32", "tensorShape": {"dim": [{"size": "6"}]}}}, "dtype": {"type": "DT_INT32"}}}, {"name": "StatefulPartitionedCall/style_gan_g/G_synthesis/G_synthesis/64x64/Conv0_up/Upscaled2d/Tile/multiples", "op": "Const", "attr": {"value": {"tensor": {"dtype": "DT_INT32", "tensorShape": {"dim": [{"size": "6"}]}}}, "dtype": {"type": "DT_INT32"}}}, {"name": "StatefulPartitionedCall/style_gan_g/G_synthesis/G_synthesis/64x64/Conv0_up/Upscaled2d/Reshape_1/shape", "op": "Const", "attr": {"dtype": {"type": "DT_INT32"}, "value": {"tensor": {"dtype": "DT_INT32", "tensorShape": {"dim": [{"size": "4"}]}}}}}, {"name": "StatefulPartitionedCall/style_gan_g/G_synthesis/G_synthesis/64x64/Conv0_up/mul", "op": "Const", "attr": {"value": {"tensor": {"dtype": "DT_FLOAT", "tensorShape": {"dim": [{"size": "3"}, {"size": "3"}, {"size": "512"}, {"size": "256"}]}}}, "dtype": {"type": "DT_FLOAT"}}}, {"name": "StatefulPartitionedCall/style_gan_g/G_synthesis/G_synthesis/64x64/Conv0_up/Blur/filter", "op": "Const", "attr": {"value": {"tensor": {"dtype": "DT_FLOAT", "tensorShape": {"dim": [{"size": "3"}, {"size": "3"}, {"size": "256"}, {"size": "1"}]}}}, "dtype": {"type": "DT_FLOAT"}}}, {"name": "StatefulPartitionedCall/style_gan_g/G_synthesis/G_synthesis/64x64/Conv0_up/LeakyReLU/alpha", "op": "Const", "attr": {"dtype": {"type": "DT_FLOAT"}, "value": {"tensor": {"dtype": "DT_FLOAT", "tensorShape": {}}}}}, {"name": "StatefulPartitionedCall/style_gan_g/G_synthesis/G_synthesis/64x64/Conv0_up/InstanceNorm/Mean/reduction_indices", "op": "Const", "attr": {"dtype": {"type": "DT_INT32"}, "value": {"tensor": {"dtype": "DT_INT32", "tensorShape": {"dim": [{"size": "2"}]}}}}}, {"name": "StatefulPartitionedCall/style_gan_g/G_synthesis/G_synthesis/64x64/Conv0_up/InstanceNorm/Mean_1/reduction_indices", "op": "Const", "attr": {"dtype": {"type": "DT_INT32"}, "value": {"tensor": {"dtype": "DT_INT32", "tensorShape": {"dim": [{"size": "2"}]}}}}}, {"name": "StatefulPartitionedCall/style_gan_g/G_synthesis/G_synthesis/64x64/Conv0_up/InstanceNorm/epsilon", "op": "Const", "attr": {"dtype": {"type": "DT_FLOAT"}, "value": {"tensor": {"dtype": "DT_FLOAT", "tensorShape": {}}}}}, {"name": "StatefulPartitionedCall/style_gan_g/G_synthesis/G_synthesis/64x64/Conv0_up/StyleModApply/strided_slice/stack", "op": "Const", "attr": {"dtype": {"type": "DT_INT32"}, "value": {"tensor": {"dtype": "DT_INT32", "tensorShape": {"dim": [{"size": "2"}]}}}}}, {"name": "StatefulPartitionedCall/style_gan_g/G_synthesis/G_synthesis/64x64/Conv0_up/StyleModApply/strided_slice/stack_1", "op": "Const", "attr": {"dtype": {"type": "DT_INT32"}, "value": {"tensor": {"dtype": "DT_INT32", "tensorShape": {"dim": [{"size": "2"}]}}}}}, {"name": "StatefulPartitionedCall/style_gan_g/G_synthesis/G_synthesis/64x64/Conv0_up/StyleModApply/strided_slice/stack_2", "op": "Const", "attr": {"dtype": {"type": "DT_INT32"}, "value": {"tensor": {"dtype": "DT_INT32", "tensorShape": {"dim": [{"size": "2"}]}}}}}, {"name": "StatefulPartitionedCall/style_gan_g/G_synthesis/G_synthesis/64x64/Conv0_up/StyleModApply/add/y", "op": "Const", "attr": {"dtype": {"type": "DT_FLOAT"}, "value": {"tensor": {"dtype": "DT_FLOAT", "tensorShape": {}}}}}, {"name": "StatefulPartitionedCall/style_gan_g/G_synthesis/G_synthesis/64x64/Conv0_up/StridedSlice/strided_slice/stack", "op": "Const", "attr": {"dtype": {"type": "DT_INT32"}, "value": {"tensor": {"dtype": "DT_INT32", "tensorShape": {"dim": [{"size": "2"}]}}}}}, {"name": "StatefulPartitionedCall/style_gan_g/G_synthesis/G_synthesis/64x64/Conv0_up/StridedSlice/strided_slice/stack_1", "op": "Const", "attr": {"dtype": {"type": "DT_INT32"}, "value": {"tensor": {"dtype": "DT_INT32", "tensorShape": {"dim": [{"size": "2"}]}}}}}, {"name": "StatefulPartitionedCall/style_gan_g/G_synthesis/G_synthesis/64x64/Conv0_up/StridedSlice/strided_slice/stack_2", "op": "Const", "attr": {"value": {"tensor": {"dtype": "DT_INT32", "tensorShape": {"dim": [{"size": "2"}]}}}, "dtype": {"type": "DT_INT32"}}}, {"name": "StatefulPartitionedCall/style_gan_g/G_synthesis/G_synthesis/64x64/Conv0_up/StyleMod/mul_1", "op": "Const", "attr": {"value": {"tensor": {"dtype": "DT_FLOAT", "tensorShape": {"dim": [{"size": "512"}, {"size": "512"}]}}}, "dtype": {"type": "DT_FLOAT"}}}, {"name": "StatefulPartitionedCall/style_gan_g/G_synthesis/G_synthesis/64x64/Conv0_up/StyleMod/mul", "op": "Const", "attr": {"value": {"tensor": {"dtype": "DT_FLOAT", "tensorShape": {"dim": [{"size": "512"}]}}}, "dtype": {"type": "DT_FLOAT"}}}, {"name": "StatefulPartitionedCall/style_gan_g/G_synthesis/G_synthesis/64x64/Conv0_up/StyleModApply/Reshape/shape", "op": "Const", "attr": {"value": {"tensor": {"dtype": "DT_INT32", "tensorShape": {"dim": [{"size": "5"}]}}}, "dtype": {"type": "DT_INT32"}}}, {"name": "StatefulPartitionedCall/style_gan_g/G_synthesis/G_synthesis/64x64/Conv0_up/StyleModApply/strided_slice_1/stack", "op": "Const", "attr": {"value": {"tensor": {"dtype": "DT_INT32", "tensorShape": {"dim": [{"size": "2"}]}}}, "dtype": {"type": "DT_INT32"}}}, {"name": "StatefulPartitionedCall/style_gan_g/G_synthesis/G_synthesis/64x64/Conv0_up/StyleModApply/strided_slice_1/stack_1", "op": "Const", "attr": {"value": {"tensor": {"dtype": "DT_INT32", "tensorShape": {"dim": [{"size": "2"}]}}}, "dtype": {"type": "DT_INT32"}}}, {"name": "StatefulPartitionedCall/style_gan_g/G_synthesis/G_synthesis/64x64/Conv0_up/StyleModApply/strided_slice_1/stack_2", "op": "Const", "attr": {"value": {"tensor": {"dtype": "DT_INT32", "tensorShape": {"dim": [{"size": "2"}]}}}, "dtype": {"type": "DT_INT32"}}}, {"name": "StatefulPartitionedCall/style_gan_g/G_synthesis/G_synthesis/64x64/Conv1/mul", "op": "Const", "attr": {"value": {"tensor": {"dtype": "DT_FLOAT", "tensorShape": {"dim": [{"size": "3"}, {"size": "3"}, {"size": "256"}, {"size": "256"}]}}}, "dtype": {"type": "DT_FLOAT"}}}, {"name": "StatefulPartitionedCall/style_gan_g/G_synthesis/G_synthesis/64x64/Conv1/LeakyReLU/alpha", "op": "Const", "attr": {"value": {"tensor": {"dtype": "DT_FLOAT", "tensorShape": {}}}, "dtype": {"type": "DT_FLOAT"}}}, {"name": "StatefulPartitionedCall/style_gan_g/G_synthesis/G_synthesis/64x64/Conv1/InstanceNorm/Mean/reduction_indices", "op": "Const", "attr": {"value": {"tensor": {"dtype": "DT_INT32", "tensorShape": {"dim": [{"size": "2"}]}}}, "dtype": {"type": "DT_INT32"}}}, {"name": "StatefulPartitionedCall/style_gan_g/G_synthesis/G_synthesis/64x64/Conv1/InstanceNorm/Mean_1/reduction_indices", "op": "Const", "attr": {"value": {"tensor": {"dtype": "DT_INT32", "tensorShape": {"dim": [{"size": "2"}]}}}, "dtype": {"type": "DT_INT32"}}}, {"name": "StatefulPartitionedCall/style_gan_g/G_synthesis/G_synthesis/64x64/Conv1/InstanceNorm/epsilon", "op": "Const", "attr": {"value": {"tensor": {"dtype": "DT_FLOAT", "tensorShape": {}}}, "dtype": {"type": "DT_FLOAT"}}}, {"name": "StatefulPartitionedCall/style_gan_g/G_synthesis/G_synthesis/64x64/Conv1/StyleModApply/strided_slice/stack", "op": "Const", "attr": {"dtype": {"type": "DT_INT32"}, "value": {"tensor": {"dtype": "DT_INT32", "tensorShape": {"dim": [{"size": "2"}]}}}}}, {"name": "StatefulPartitionedCall/style_gan_g/G_synthesis/G_synthesis/64x64/Conv1/StyleModApply/strided_slice/stack_1", "op": "Const", "attr": {"value": {"tensor": {"dtype": "DT_INT32", "tensorShape": {"dim": [{"size": "2"}]}}}, "dtype": {"type": "DT_INT32"}}}, {"name": "StatefulPartitionedCall/style_gan_g/G_synthesis/G_synthesis/64x64/Conv1/StyleModApply/strided_slice/stack_2", "op": "Const", "attr": {"value": {"tensor": {"dtype": "DT_INT32", "tensorShape": {"dim": [{"size": "2"}]}}}, "dtype": {"type": "DT_INT32"}}}, {"name": "StatefulPartitionedCall/style_gan_g/G_synthesis/G_synthesis/64x64/Conv1/StyleModApply/add/y", "op": "Const", "attr": {"value": {"tensor": {"dtype": "DT_FLOAT", "tensorShape": {}}}, "dtype": {"type": "DT_FLOAT"}}}, {"name": "StatefulPartitionedCall/style_gan_g/G_synthesis/G_synthesis/64x64/Conv1/StridedSlice/strided_slice/stack", "op": "Const", "attr": {"value": {"tensor": {"dtype": "DT_INT32", "tensorShape": {"dim": [{"size": "2"}]}}}, "dtype": {"type": "DT_INT32"}}}, {"name": "StatefulPartitionedCall/style_gan_g/G_synthesis/G_synthesis/64x64/Conv1/StridedSlice/strided_slice/stack_1", "op": "Const", "attr": {"dtype": {"type": "DT_INT32"}, "value": {"tensor": {"dtype": "DT_INT32", "tensorShape": {"dim": [{"size": "2"}]}}}}}, {"name": "StatefulPartitionedCall/style_gan_g/G_synthesis/G_synthesis/64x64/Conv1/StridedSlice/strided_slice/stack_2", "op": "Const", "attr": {"value": {"tensor": {"dtype": "DT_INT32", "tensorShape": {"dim": [{"size": "2"}]}}}, "dtype": {"type": "DT_INT32"}}}, {"name": "StatefulPartitionedCall/style_gan_g/G_synthesis/G_synthesis/64x64/Conv1/StyleMod/mul_1", "op": "Const", "attr": {"value": {"tensor": {"dtype": "DT_FLOAT", "tensorShape": {"dim": [{"size": "512"}, {"size": "512"}]}}}, "dtype": {"type": "DT_FLOAT"}}}, {"name": "StatefulPartitionedCall/style_gan_g/G_synthesis/G_synthesis/64x64/Conv1/StyleMod/mul", "op": "Const", "attr": {"value": {"tensor": {"dtype": "DT_FLOAT", "tensorShape": {"dim": [{"size": "512"}]}}}, "dtype": {"type": "DT_FLOAT"}}}, {"name": "StatefulPartitionedCall/style_gan_g/G_synthesis/G_synthesis/64x64/Conv1/StyleModApply/Reshape/shape", "op": "Const", "attr": {"value": {"tensor": {"dtype": "DT_INT32", "tensorShape": {"dim": [{"size": "5"}]}}}, "dtype": {"type": "DT_INT32"}}}, {"name": "StatefulPartitionedCall/style_gan_g/G_synthesis/G_synthesis/64x64/Conv1/StyleModApply/strided_slice_1/stack", "op": "Const", "attr": {"dtype": {"type": "DT_INT32"}, "value": {"tensor": {"dtype": "DT_INT32", "tensorShape": {"dim": [{"size": "2"}]}}}}}, {"name": "StatefulPartitionedCall/style_gan_g/G_synthesis/G_synthesis/64x64/Conv1/StyleModApply/strided_slice_1/stack_1", "op": "Const", "attr": {"value": {"tensor": {"dtype": "DT_INT32", "tensorShape": {"dim": [{"size": "2"}]}}}, "dtype": {"type": "DT_INT32"}}}, {"name": "StatefulPartitionedCall/style_gan_g/G_synthesis/G_synthesis/64x64/Conv1/StyleModApply/strided_slice_1/stack_2", "op": "Const", "attr": {"value": {"tensor": {"dtype": "DT_INT32", "tensorShape": {"dim": [{"size": "2"}]}}}, "dtype": {"type": "DT_INT32"}}}, {"name": "StatefulPartitionedCall/style_gan_g/G_synthesis/G_synthesis/128x128/Conv0_up/Blur/filter", "op": "Const", "attr": {"value": {"tensor": {"dtype": "DT_FLOAT", "tensorShape": {"dim": [{"size": "3"}, {"size": "3"}, {"size": "128"}, {"size": "1"}]}}}, "dtype": {"type": "DT_FLOAT"}}}, {"name": "StatefulPartitionedCall/style_gan_g/G_synthesis/G_synthesis/128x128/Conv0_up/LeakyReLU/alpha", "op": "Const", "attr": {"value": {"tensor": {"dtype": "DT_FLOAT", "tensorShape": {}}}, "dtype": {"type": "DT_FLOAT"}}}, {"name": "StatefulPartitionedCall/style_gan_g/G_synthesis/G_synthesis/128x128/Conv0_up/InstanceNorm/Mean/reduction_indices", "op": "Const", "attr": {"value": {"tensor": {"dtype": "DT_INT32", "tensorShape": {"dim": [{"size": "2"}]}}}, "dtype": {"type": "DT_INT32"}}}, {"name": "StatefulPartitionedCall/style_gan_g/G_synthesis/G_synthesis/128x128/Conv0_up/InstanceNorm/Mean_1/reduction_indices", "op": "Const", "attr": {"dtype": {"type": "DT_INT32"}, "value": {"tensor": {"dtype": "DT_INT32", "tensorShape": {"dim": [{"size": "2"}]}}}}}, {"name": "StatefulPartitionedCall/style_gan_g/G_synthesis/G_synthesis/128x128/Conv0_up/InstanceNorm/epsilon", "op": "Const", "attr": {"value": {"tensor": {"dtype": "DT_FLOAT", "tensorShape": {}}}, "dtype": {"type": "DT_FLOAT"}}}, {"name": "StatefulPartitionedCall/style_gan_g/G_synthesis/G_synthesis/128x128/Conv0_up/StyleModApply/strided_slice/stack", "op": "Const", "attr": {"value": {"tensor": {"dtype": "DT_INT32", "tensorShape": {"dim": [{"size": "2"}]}}}, "dtype": {"type": "DT_INT32"}}}, {"name": "StatefulPartitionedCall/style_gan_g/G_synthesis/G_synthesis/128x128/Conv0_up/StyleModApply/strided_slice/stack_1", "op": "Const", "attr": {"value": {"tensor": {"dtype": "DT_INT32", "tensorShape": {"dim": [{"size": "2"}]}}}, "dtype": {"type": "DT_INT32"}}}, {"name": "StatefulPartitionedCall/style_gan_g/G_synthesis/G_synthesis/128x128/Conv0_up/StyleModApply/strided_slice/stack_2", "op": "Const", "attr": {"value": {"tensor": {"dtype": "DT_INT32", "tensorShape": {"dim": [{"size": "2"}]}}}, "dtype": {"type": "DT_INT32"}}}, {"name": "StatefulPartitionedCall/style_gan_g/G_synthesis/G_synthesis/128x128/Conv0_up/StyleModApply/add/y", "op": "Const", "attr": {"dtype": {"type": "DT_FLOAT"}, "value": {"tensor": {"dtype": "DT_FLOAT", "tensorShape": {}}}}}, {"name": "StatefulPartitionedCall/style_gan_g/G_synthesis/G_synthesis/128x128/Conv0_up/StridedSlice/strided_slice/stack", "op": "Const", "attr": {"dtype": {"type": "DT_INT32"}, "value": {"tensor": {"dtype": "DT_INT32", "tensorShape": {"dim": [{"size": "2"}]}}}}}, {"name": "StatefulPartitionedCall/style_gan_g/G_synthesis/G_synthesis/128x128/Conv0_up/StridedSlice/strided_slice/stack_1", "op": "Const", "attr": {"dtype": {"type": "DT_INT32"}, "value": {"tensor": {"dtype": "DT_INT32", "tensorShape": {"dim": [{"size": "2"}]}}}}}, {"name": "StatefulPartitionedCall/style_gan_g/G_synthesis/G_synthesis/128x128/Conv0_up/StridedSlice/strided_slice/stack_2", "op": "Const", "attr": {"value": {"tensor": {"dtype": "DT_INT32", "tensorShape": {"dim": [{"size": "2"}]}}}, "dtype": {"type": "DT_INT32"}}}, {"name": "StatefulPartitionedCall/style_gan_g/G_synthesis/G_synthesis/128x128/Conv0_up/StyleMod/mul_1", "op": "Const", "attr": {"value": {"tensor": {"dtype": "DT_FLOAT", "tensorShape": {"dim": [{"size": "512"}, {"size": "256"}]}}}, "dtype": {"type": "DT_FLOAT"}}}, {"name": "StatefulPartitionedCall/style_gan_g/G_synthesis/G_synthesis/128x128/Conv0_up/StyleMod/mul", "op": "Const", "attr": {"value": {"tensor": {"dtype": "DT_FLOAT", "tensorShape": {"dim": [{"size": "256"}]}}}, "dtype": {"type": "DT_FLOAT"}}}, {"name": "StatefulPartitionedCall/style_gan_g/G_synthesis/G_synthesis/128x128/Conv0_up/StyleModApply/Reshape/shape", "op": "Const", "attr": {"value": {"tensor": {"dtype": "DT_INT32", "tensorShape": {"dim": [{"size": "5"}]}}}, "dtype": {"type": "DT_INT32"}}}, {"name": "StatefulPartitionedCall/style_gan_g/G_synthesis/G_synthesis/128x128/Conv0_up/StyleModApply/strided_slice_1/stack", "op": "Const", "attr": {"dtype": {"type": "DT_INT32"}, "value": {"tensor": {"dtype": "DT_INT32", "tensorShape": {"dim": [{"size": "2"}]}}}}}, {"name": "StatefulPartitionedCall/style_gan_g/G_synthesis/G_synthesis/128x128/Conv0_up/StyleModApply/strided_slice_1/stack_1", "op": "Const", "attr": {"value": {"tensor": {"dtype": "DT_INT32", "tensorShape": {"dim": [{"size": "2"}]}}}, "dtype": {"type": "DT_INT32"}}}, {"name": "StatefulPartitionedCall/style_gan_g/G_synthesis/G_synthesis/128x128/Conv0_up/StyleModApply/strided_slice_1/stack_2", "op": "Const", "attr": {"value": {"tensor": {"dtype": "DT_INT32", "tensorShape": {"dim": [{"size": "2"}]}}}, "dtype": {"type": "DT_INT32"}}}, {"name": "StatefulPartitionedCall/style_gan_g/G_synthesis/G_synthesis/128x128/Conv1/mul", "op": "Const", "attr": {"dtype": {"type": "DT_FLOAT"}, "value": {"tensor": {"dtype": "DT_FLOAT", "tensorShape": {"dim": [{"size": "3"}, {"size": "3"}, {"size": "128"}, {"size": "128"}]}}}}}, {"name": "StatefulPartitionedCall/style_gan_g/G_synthesis/G_synthesis/128x128/Conv1/LeakyReLU/alpha", "op": "Const", "attr": {"value": {"tensor": {"dtype": "DT_FLOAT", "tensorShape": {}}}, "dtype": {"type": "DT_FLOAT"}}}, {"name": "StatefulPartitionedCall/style_gan_g/G_synthesis/G_synthesis/128x128/Conv1/InstanceNorm/Mean/reduction_indices", "op": "Const", "attr": {"value": {"tensor": {"dtype": "DT_INT32", "tensorShape": {"dim": [{"size": "2"}]}}}, "dtype": {"type": "DT_INT32"}}}, {"name": "StatefulPartitionedCall/style_gan_g/G_synthesis/G_synthesis/128x128/Conv1/InstanceNorm/Mean_1/reduction_indices", "op": "Const", "attr": {"value": {"tensor": {"dtype": "DT_INT32", "tensorShape": {"dim": [{"size": "2"}]}}}, "dtype": {"type": "DT_INT32"}}}, {"name": "StatefulPartitionedCall/style_gan_g/G_synthesis/G_synthesis/128x128/Conv1/InstanceNorm/epsilon", "op": "Const", "attr": {"value": {"tensor": {"dtype": "DT_FLOAT", "tensorShape": {}}}, "dtype": {"type": "DT_FLOAT"}}}, {"name": "StatefulPartitionedCall/style_gan_g/G_synthesis/G_synthesis/128x128/Conv1/StyleModApply/strided_slice/stack", "op": "Const", "attr": {"value": {"tensor": {"dtype": "DT_INT32", "tensorShape": {"dim": [{"size": "2"}]}}}, "dtype": {"type": "DT_INT32"}}}, {"name": "StatefulPartitionedCall/style_gan_g/G_synthesis/G_synthesis/128x128/Conv1/StyleModApply/strided_slice/stack_1", "op": "Const", "attr": {"value": {"tensor": {"dtype": "DT_INT32", "tensorShape": {"dim": [{"size": "2"}]}}}, "dtype": {"type": "DT_INT32"}}}, {"name": "StatefulPartitionedCall/style_gan_g/G_synthesis/G_synthesis/128x128/Conv1/StyleModApply/strided_slice/stack_2", "op": "Const", "attr": {"value": {"tensor": {"dtype": "DT_INT32", "tensorShape": {"dim": [{"size": "2"}]}}}, "dtype": {"type": "DT_INT32"}}}, {"name": "StatefulPartitionedCall/style_gan_g/G_synthesis/G_synthesis/128x128/Conv1/StyleModApply/add/y", "op": "Const", "attr": {"dtype": {"type": "DT_FLOAT"}, "value": {"tensor": {"dtype": "DT_FLOAT", "tensorShape": {}}}}}, {"name": "StatefulPartitionedCall/style_gan_g/G_synthesis/G_synthesis/128x128/Conv1/StridedSlice/strided_slice/stack", "op": "Const", "attr": {"dtype": {"type": "DT_INT32"}, "value": {"tensor": {"dtype": "DT_INT32", "tensorShape": {"dim": [{"size": "2"}]}}}}}, {"name": "StatefulPartitionedCall/style_gan_g/G_synthesis/G_synthesis/128x128/Conv1/StridedSlice/strided_slice/stack_1", "op": "Const", "attr": {"dtype": {"type": "DT_INT32"}, "value": {"tensor": {"dtype": "DT_INT32", "tensorShape": {"dim": [{"size": "2"}]}}}}}, {"name": "StatefulPartitionedCall/style_gan_g/G_synthesis/G_synthesis/128x128/Conv1/StridedSlice/strided_slice/stack_2", "op": "Const", "attr": {"value": {"tensor": {"dtype": "DT_INT32", "tensorShape": {"dim": [{"size": "2"}]}}}, "dtype": {"type": "DT_INT32"}}}, {"name": "StatefulPartitionedCall/style_gan_g/G_synthesis/G_synthesis/128x128/Conv1/StyleMod/mul_1", "op": "Const", "attr": {"value": {"tensor": {"dtype": "DT_FLOAT", "tensorShape": {"dim": [{"size": "512"}, {"size": "256"}]}}}, "dtype": {"type": "DT_FLOAT"}}}, {"name": "StatefulPartitionedCall/style_gan_g/G_synthesis/G_synthesis/128x128/Conv1/StyleMod/mul", "op": "Const", "attr": {"value": {"tensor": {"dtype": "DT_FLOAT", "tensorShape": {"dim": [{"size": "256"}]}}}, "dtype": {"type": "DT_FLOAT"}}}, {"name": "StatefulPartitionedCall/style_gan_g/G_synthesis/G_synthesis/128x128/Conv1/StyleModApply/Reshape/shape", "op": "Const", "attr": {"value": {"tensor": {"dtype": "DT_INT32", "tensorShape": {"dim": [{"size": "5"}]}}}, "dtype": {"type": "DT_INT32"}}}, {"name": "StatefulPartitionedCall/style_gan_g/G_synthesis/G_synthesis/128x128/Conv1/StyleModApply/strided_slice_1/stack", "op": "Const", "attr": {"value": {"tensor": {"dtype": "DT_INT32", "tensorShape": {"dim": [{"size": "2"}]}}}, "dtype": {"type": "DT_INT32"}}}, {"name": "StatefulPartitionedCall/style_gan_g/G_synthesis/G_synthesis/128x128/Conv1/StyleModApply/strided_slice_1/stack_1", "op": "Const", "attr": {"value": {"tensor": {"dtype": "DT_INT32", "tensorShape": {"dim": [{"size": "2"}]}}}, "dtype": {"type": "DT_INT32"}}}, {"name": "StatefulPartitionedCall/style_gan_g/G_synthesis/G_synthesis/128x128/Conv1/StyleModApply/strided_slice_1/stack_2", "op": "Const", "attr": {"value": {"tensor": {"dtype": "DT_INT32", "tensorShape": {"dim": [{"size": "2"}]}}}, "dtype": {"type": "DT_INT32"}}}, {"name": "StatefulPartitionedCall/style_gan_g/G_synthesis/G_synthesis/256x256/Conv0_up/Blur/filter", "op": "Const", "attr": {"dtype": {"type": "DT_FLOAT"}, "value": {"tensor": {"dtype": "DT_FLOAT", "tensorShape": {"dim": [{"size": "3"}, {"size": "3"}, {"size": "64"}, {"size": "1"}]}}}}}, {"name": "StatefulPartitionedCall/style_gan_g/G_synthesis/G_synthesis/256x256/Conv0_up/LeakyReLU/alpha", "op": "Const", "attr": {"dtype": {"type": "DT_FLOAT"}, "value": {"tensor": {"dtype": "DT_FLOAT", "tensorShape": {}}}}}, {"name": "StatefulPartitionedCall/style_gan_g/G_synthesis/G_synthesis/256x256/Conv0_up/InstanceNorm/Mean/reduction_indices", "op": "Const", "attr": {"value": {"tensor": {"dtype": "DT_INT32", "tensorShape": {"dim": [{"size": "2"}]}}}, "dtype": {"type": "DT_INT32"}}}, {"name": "StatefulPartitionedCall/style_gan_g/G_synthesis/G_synthesis/256x256/Conv0_up/InstanceNorm/Mean_1/reduction_indices", "op": "Const", "attr": {"value": {"tensor": {"dtype": "DT_INT32", "tensorShape": {"dim": [{"size": "2"}]}}}, "dtype": {"type": "DT_INT32"}}}, {"name": "StatefulPartitionedCall/style_gan_g/G_synthesis/G_synthesis/256x256/Conv0_up/InstanceNorm/epsilon", "op": "Const", "attr": {"value": {"tensor": {"dtype": "DT_FLOAT", "tensorShape": {}}}, "dtype": {"type": "DT_FLOAT"}}}, {"name": "StatefulPartitionedCall/style_gan_g/G_synthesis/G_synthesis/256x256/Conv0_up/StyleModApply/strided_slice/stack", "op": "Const", "attr": {"dtype": {"type": "DT_INT32"}, "value": {"tensor": {"dtype": "DT_INT32", "tensorShape": {"dim": [{"size": "2"}]}}}}}, {"name": "StatefulPartitionedCall/style_gan_g/G_synthesis/G_synthesis/256x256/Conv0_up/StyleModApply/strided_slice/stack_1", "op": "Const", "attr": {"value": {"tensor": {"dtype": "DT_INT32", "tensorShape": {"dim": [{"size": "2"}]}}}, "dtype": {"type": "DT_INT32"}}}, {"name": "StatefulPartitionedCall/style_gan_g/G_synthesis/G_synthesis/256x256/Conv0_up/StyleModApply/strided_slice/stack_2", "op": "Const", "attr": {"dtype": {"type": "DT_INT32"}, "value": {"tensor": {"dtype": "DT_INT32", "tensorShape": {"dim": [{"size": "2"}]}}}}}, {"name": "StatefulPartitionedCall/style_gan_g/G_synthesis/G_synthesis/256x256/Conv0_up/StyleModApply/add/y", "op": "Const", "attr": {"value": {"tensor": {"dtype": "DT_FLOAT", "tensorShape": {}}}, "dtype": {"type": "DT_FLOAT"}}}, {"name": "StatefulPartitionedCall/style_gan_g/G_synthesis/G_synthesis/256x256/Conv0_up/StridedSlice/strided_slice/stack", "op": "Const", "attr": {"dtype": {"type": "DT_INT32"}, "value": {"tensor": {"dtype": "DT_INT32", "tensorShape": {"dim": [{"size": "2"}]}}}}}, {"name": "StatefulPartitionedCall/style_gan_g/G_synthesis/G_synthesis/256x256/Conv0_up/StridedSlice/strided_slice/stack_1", "op": "Const", "attr": {"value": {"tensor": {"dtype": "DT_INT32", "tensorShape": {"dim": [{"size": "2"}]}}}, "dtype": {"type": "DT_INT32"}}}, {"name": "StatefulPartitionedCall/style_gan_g/G_synthesis/G_synthesis/256x256/Conv0_up/StridedSlice/strided_slice/stack_2", "op": "Const", "attr": {"value": {"tensor": {"dtype": "DT_INT32", "tensorShape": {"dim": [{"size": "2"}]}}}, "dtype": {"type": "DT_INT32"}}}, {"name": "StatefulPartitionedCall/style_gan_g/G_synthesis/G_synthesis/256x256/Conv0_up/StyleMod/mul_1", "op": "Const", "attr": {"value": {"tensor": {"dtype": "DT_FLOAT", "tensorShape": {"dim": [{"size": "512"}, {"size": "128"}]}}}, "dtype": {"type": "DT_FLOAT"}}}, {"name": "StatefulPartitionedCall/style_gan_g/G_synthesis/G_synthesis/256x256/Conv0_up/StyleMod/mul", "op": "Const", "attr": {"dtype": {"type": "DT_FLOAT"}, "value": {"tensor": {"dtype": "DT_FLOAT", "tensorShape": {"dim": [{"size": "128"}]}}}}}, {"name": "StatefulPartitionedCall/style_gan_g/G_synthesis/G_synthesis/256x256/Conv0_up/StyleModApply/Reshape/shape", "op": "Const", "attr": {"value": {"tensor": {"dtype": "DT_INT32", "tensorShape": {"dim": [{"size": "5"}]}}}, "dtype": {"type": "DT_INT32"}}}, {"name": "StatefulPartitionedCall/style_gan_g/G_synthesis/G_synthesis/256x256/Conv0_up/StyleModApply/strided_slice_1/stack", "op": "Const", "attr": {"dtype": {"type": "DT_INT32"}, "value": {"tensor": {"dtype": "DT_INT32", "tensorShape": {"dim": [{"size": "2"}]}}}}}, {"name": "StatefulPartitionedCall/style_gan_g/G_synthesis/G_synthesis/256x256/Conv0_up/StyleModApply/strided_slice_1/stack_1", "op": "Const", "attr": {"dtype": {"type": "DT_INT32"}, "value": {"tensor": {"dtype": "DT_INT32", "tensorShape": {"dim": [{"size": "2"}]}}}}}, {"name": "StatefulPartitionedCall/style_gan_g/G_synthesis/G_synthesis/256x256/Conv0_up/StyleModApply/strided_slice_1/stack_2", "op": "Const", "attr": {"dtype": {"type": "DT_INT32"}, "value": {"tensor": {"dtype": "DT_INT32", "tensorShape": {"dim": [{"size": "2"}]}}}}}, {"name": "StatefulPartitionedCall/style_gan_g/G_synthesis/G_synthesis/256x256/Conv1/mul", "op": "Const", "attr": {"value": {"tensor": {"dtype": "DT_FLOAT", "tensorShape": {"dim": [{"size": "3"}, {"size": "3"}, {"size": "64"}, {"size": "64"}]}}}, "dtype": {"type": "DT_FLOAT"}}}, {"name": "StatefulPartitionedCall/style_gan_g/G_synthesis/G_synthesis/256x256/Conv1/LeakyReLU/alpha", "op": "Const", "attr": {"dtype": {"type": "DT_FLOAT"}, "value": {"tensor": {"dtype": "DT_FLOAT", "tensorShape": {}}}}}, {"name": "StatefulPartitionedCall/style_gan_g/G_synthesis/G_synthesis/256x256/Conv1/InstanceNorm/Mean/reduction_indices", "op": "Const", "attr": {"dtype": {"type": "DT_INT32"}, "value": {"tensor": {"dtype": "DT_INT32", "tensorShape": {"dim": [{"size": "2"}]}}}}}, {"name": "StatefulPartitionedCall/style_gan_g/G_synthesis/G_synthesis/256x256/Conv1/InstanceNorm/Mean_1/reduction_indices", "op": "Const", "attr": {"dtype": {"type": "DT_INT32"}, "value": {"tensor": {"dtype": "DT_INT32", "tensorShape": {"dim": [{"size": "2"}]}}}}}, {"name": "StatefulPartitionedCall/style_gan_g/G_synthesis/G_synthesis/256x256/Conv1/InstanceNorm/epsilon", "op": "Const", "attr": {"value": {"tensor": {"dtype": "DT_FLOAT", "tensorShape": {}}}, "dtype": {"type": "DT_FLOAT"}}}, {"name": "StatefulPartitionedCall/style_gan_g/G_synthesis/G_synthesis/256x256/Conv1/StyleModApply/strided_slice/stack", "op": "Const", "attr": {"value": {"tensor": {"dtype": "DT_INT32", "tensorShape": {"dim": [{"size": "2"}]}}}, "dtype": {"type": "DT_INT32"}}}, {"name": "StatefulPartitionedCall/style_gan_g/G_synthesis/G_synthesis/256x256/Conv1/StyleModApply/strided_slice/stack_1", "op": "Const", "attr": {"dtype": {"type": "DT_INT32"}, "value": {"tensor": {"dtype": "DT_INT32", "tensorShape": {"dim": [{"size": "2"}]}}}}}, {"name": "StatefulPartitionedCall/style_gan_g/G_synthesis/G_synthesis/256x256/Conv1/StyleModApply/strided_slice/stack_2", "op": "Const", "attr": {"value": {"tensor": {"dtype": "DT_INT32", "tensorShape": {"dim": [{"size": "2"}]}}}, "dtype": {"type": "DT_INT32"}}}, {"name": "StatefulPartitionedCall/style_gan_g/G_synthesis/G_synthesis/256x256/Conv1/StyleModApply/add/y", "op": "Const", "attr": {"value": {"tensor": {"dtype": "DT_FLOAT", "tensorShape": {}}}, "dtype": {"type": "DT_FLOAT"}}}, {"name": "StatefulPartitionedCall/style_gan_g/G_synthesis/G_synthesis/256x256/Conv1/StridedSlice/strided_slice/stack", "op": "Const", "attr": {"value": {"tensor": {"dtype": "DT_INT32", "tensorShape": {"dim": [{"size": "2"}]}}}, "dtype": {"type": "DT_INT32"}}}, {"name": "StatefulPartitionedCall/style_gan_g/G_synthesis/G_synthesis/256x256/Conv1/StridedSlice/strided_slice/stack_1", "op": "Const", "attr": {"value": {"tensor": {"dtype": "DT_INT32", "tensorShape": {"dim": [{"size": "2"}]}}}, "dtype": {"type": "DT_INT32"}}}, {"name": "StatefulPartitionedCall/style_gan_g/G_synthesis/G_synthesis/256x256/Conv1/StridedSlice/strided_slice/stack_2", "op": "Const", "attr": {"value": {"tensor": {"dtype": "DT_INT32", "tensorShape": {"dim": [{"size": "2"}]}}}, "dtype": {"type": "DT_INT32"}}}, {"name": "StatefulPartitionedCall/style_gan_g/G_synthesis/G_synthesis/256x256/Conv1/StyleMod/mul_1", "op": "Const", "attr": {"value": {"tensor": {"dtype": "DT_FLOAT", "tensorShape": {"dim": [{"size": "512"}, {"size": "128"}]}}}, "dtype": {"type": "DT_FLOAT"}}}, {"name": "StatefulPartitionedCall/style_gan_g/G_synthesis/G_synthesis/256x256/Conv1/StyleMod/mul", "op": "Const", "attr": {"dtype": {"type": "DT_FLOAT"}, "value": {"tensor": {"dtype": "DT_FLOAT", "tensorShape": {"dim": [{"size": "128"}]}}}}}, {"name": "StatefulPartitionedCall/style_gan_g/G_synthesis/G_synthesis/256x256/Conv1/StyleModApply/Reshape/shape", "op": "Const", "attr": {"dtype": {"type": "DT_INT32"}, "value": {"tensor": {"dtype": "DT_INT32", "tensorShape": {"dim": [{"size": "5"}]}}}}}, {"name": "StatefulPartitionedCall/style_gan_g/G_synthesis/G_synthesis/256x256/Conv1/StyleModApply/strided_slice_1/stack", "op": "Const", "attr": {"value": {"tensor": {"dtype": "DT_INT32", "tensorShape": {"dim": [{"size": "2"}]}}}, "dtype": {"type": "DT_INT32"}}}, {"name": "StatefulPartitionedCall/style_gan_g/G_synthesis/G_synthesis/256x256/Conv1/StyleModApply/strided_slice_1/stack_1", "op": "Const", "attr": {"dtype": {"type": "DT_INT32"}, "value": {"tensor": {"dtype": "DT_INT32", "tensorShape": {"dim": [{"size": "2"}]}}}}}, {"name": "StatefulPartitionedCall/style_gan_g/G_synthesis/G_synthesis/256x256/Conv1/StyleModApply/strided_slice_1/stack_2", "op": "Const", "attr": {"value": {"tensor": {"dtype": "DT_INT32", "tensorShape": {"dim": [{"size": "2"}]}}}, "dtype": {"type": "DT_INT32"}}}, {"name": "StatefulPartitionedCall/style_gan_g/G_synthesis/G_synthesis/512x512/Conv0_up/Blur/filter", "op": "Const", "attr": {"dtype": {"type": "DT_FLOAT"}, "value": {"tensor": {"dtype": "DT_FLOAT", "tensorShape": {"dim": [{"size": "3"}, {"size": "3"}, {"size": "32"}, {"size": "1"}]}}}}}, {"name": "StatefulPartitionedCall/style_gan_g/G_synthesis/G_synthesis/512x512/Conv0_up/LeakyReLU/alpha", "op": "Const", "attr": {"value": {"tensor": {"dtype": "DT_FLOAT", "tensorShape": {}}}, "dtype": {"type": "DT_FLOAT"}}}, {"name": "StatefulPartitionedCall/style_gan_g/G_synthesis/G_synthesis/512x512/Conv0_up/InstanceNorm/Mean/reduction_indices", "op": "Const", "attr": {"value": {"tensor": {"dtype": "DT_INT32", "tensorShape": {"dim": [{"size": "2"}]}}}, "dtype": {"type": "DT_INT32"}}}, {"name": "StatefulPartitionedCall/style_gan_g/G_synthesis/G_synthesis/512x512/Conv0_up/InstanceNorm/Mean_1/reduction_indices", "op": "Const", "attr": {"dtype": {"type": "DT_INT32"}, "value": {"tensor": {"dtype": "DT_INT32", "tensorShape": {"dim": [{"size": "2"}]}}}}}, {"name": "StatefulPartitionedCall/style_gan_g/G_synthesis/G_synthesis/512x512/Conv0_up/InstanceNorm/epsilon", "op": "Const", "attr": {"dtype": {"type": "DT_FLOAT"}, "value": {"tensor": {"dtype": "DT_FLOAT", "tensorShape": {}}}}}, {"name": "StatefulPartitionedCall/style_gan_g/G_synthesis/G_synthesis/512x512/Conv0_up/StyleModApply/strided_slice/stack", "op": "Const", "attr": {"dtype": {"type": "DT_INT32"}, "value": {"tensor": {"dtype": "DT_INT32", "tensorShape": {"dim": [{"size": "2"}]}}}}}, {"name": "StatefulPartitionedCall/style_gan_g/G_synthesis/G_synthesis/512x512/Conv0_up/StyleModApply/strided_slice/stack_1", "op": "Const", "attr": {"value": {"tensor": {"dtype": "DT_INT32", "tensorShape": {"dim": [{"size": "2"}]}}}, "dtype": {"type": "DT_INT32"}}}, {"name": "StatefulPartitionedCall/style_gan_g/G_synthesis/G_synthesis/512x512/Conv0_up/StyleModApply/strided_slice/stack_2", "op": "Const", "attr": {"dtype": {"type": "DT_INT32"}, "value": {"tensor": {"dtype": "DT_INT32", "tensorShape": {"dim": [{"size": "2"}]}}}}}, {"name": "StatefulPartitionedCall/style_gan_g/G_synthesis/G_synthesis/512x512/Conv0_up/StyleModApply/add/y", "op": "Const", "attr": {"dtype": {"type": "DT_FLOAT"}, "value": {"tensor": {"dtype": "DT_FLOAT", "tensorShape": {}}}}}, {"name": "StatefulPartitionedCall/style_gan_g/G_synthesis/G_synthesis/512x512/Conv0_up/StridedSlice/strided_slice/stack", "op": "Const", "attr": {"value": {"tensor": {"dtype": "DT_INT32", "tensorShape": {"dim": [{"size": "2"}]}}}, "dtype": {"type": "DT_INT32"}}}, {"name": "StatefulPartitionedCall/style_gan_g/G_synthesis/G_synthesis/512x512/Conv0_up/StridedSlice/strided_slice/stack_1", "op": "Const", "attr": {"dtype": {"type": "DT_INT32"}, "value": {"tensor": {"dtype": "DT_INT32", "tensorShape": {"dim": [{"size": "2"}]}}}}}, {"name": "StatefulPartitionedCall/style_gan_g/G_synthesis/G_synthesis/512x512/Conv0_up/StridedSlice/strided_slice/stack_2", "op": "Const", "attr": {"value": {"tensor": {"dtype": "DT_INT32", "tensorShape": {"dim": [{"size": "2"}]}}}, "dtype": {"type": "DT_INT32"}}}, {"name": "StatefulPartitionedCall/style_gan_g/G_synthesis/G_synthesis/512x512/Conv0_up/StyleMod/mul_1", "op": "Const", "attr": {"value": {"tensor": {"dtype": "DT_FLOAT", "tensorShape": {"dim": [{"size": "512"}, {"size": "64"}]}}}, "dtype": {"type": "DT_FLOAT"}}}, {"name": "StatefulPartitionedCall/style_gan_g/G_synthesis/G_synthesis/512x512/Conv0_up/StyleMod/mul", "op": "Const", "attr": {"value": {"tensor": {"dtype": "DT_FLOAT", "tensorShape": {"dim": [{"size": "64"}]}}}, "dtype": {"type": "DT_FLOAT"}}}, {"name": "StatefulPartitionedCall/style_gan_g/G_synthesis/G_synthesis/512x512/Conv0_up/StyleModApply/Reshape/shape", "op": "Const", "attr": {"dtype": {"type": "DT_INT32"}, "value": {"tensor": {"dtype": "DT_INT32", "tensorShape": {"dim": [{"size": "5"}]}}}}}, {"name": "StatefulPartitionedCall/style_gan_g/G_synthesis/G_synthesis/512x512/Conv0_up/StyleModApply/strided_slice_1/stack", "op": "Const", "attr": {"value": {"tensor": {"dtype": "DT_INT32", "tensorShape": {"dim": [{"size": "2"}]}}}, "dtype": {"type": "DT_INT32"}}}, {"name": "StatefulPartitionedCall/style_gan_g/G_synthesis/G_synthesis/512x512/Conv0_up/StyleModApply/strided_slice_1/stack_1", "op": "Const", "attr": {"value": {"tensor": {"dtype": "DT_INT32", "tensorShape": {"dim": [{"size": "2"}]}}}, "dtype": {"type": "DT_INT32"}}}, {"name": "StatefulPartitionedCall/style_gan_g/G_synthesis/G_synthesis/512x512/Conv0_up/StyleModApply/strided_slice_1/stack_2", "op": "Const", "attr": {"value": {"tensor": {"dtype": "DT_INT32", "tensorShape": {"dim": [{"size": "2"}]}}}, "dtype": {"type": "DT_INT32"}}}, {"name": "StatefulPartitionedCall/style_gan_g/G_synthesis/G_synthesis/512x512/Conv1/mul", "op": "Const", "attr": {"value": {"tensor": {"dtype": "DT_FLOAT", "tensorShape": {"dim": [{"size": "3"}, {"size": "3"}, {"size": "32"}, {"size": "32"}]}}}, "dtype": {"type": "DT_FLOAT"}}}, {"name": "StatefulPartitionedCall/style_gan_g/G_synthesis/G_synthesis/512x512/Conv1/LeakyReLU/alpha", "op": "Const", "attr": {"value": {"tensor": {"dtype": "DT_FLOAT", "tensorShape": {}}}, "dtype": {"type": "DT_FLOAT"}}}, {"name": "StatefulPartitionedCall/style_gan_g/G_synthesis/G_synthesis/512x512/Conv1/InstanceNorm/Mean/reduction_indices", "op": "Const", "attr": {"value": {"tensor": {"dtype": "DT_INT32", "tensorShape": {"dim": [{"size": "2"}]}}}, "dtype": {"type": "DT_INT32"}}}, {"name": "StatefulPartitionedCall/style_gan_g/G_synthesis/G_synthesis/512x512/Conv1/InstanceNorm/Mean_1/reduction_indices", "op": "Const", "attr": {"value": {"tensor": {"dtype": "DT_INT32", "tensorShape": {"dim": [{"size": "2"}]}}}, "dtype": {"type": "DT_INT32"}}}, {"name": "StatefulPartitionedCall/style_gan_g/G_synthesis/G_synthesis/512x512/Conv1/InstanceNorm/epsilon", "op": "Const", "attr": {"dtype": {"type": "DT_FLOAT"}, "value": {"tensor": {"dtype": "DT_FLOAT", "tensorShape": {}}}}}, {"name": "StatefulPartitionedCall/style_gan_g/G_synthesis/G_synthesis/512x512/Conv1/StyleModApply/strided_slice/stack", "op": "Const", "attr": {"value": {"tensor": {"dtype": "DT_INT32", "tensorShape": {"dim": [{"size": "2"}]}}}, "dtype": {"type": "DT_INT32"}}}, {"name": "StatefulPartitionedCall/style_gan_g/G_synthesis/G_synthesis/512x512/Conv1/StyleModApply/strided_slice/stack_1", "op": "Const", "attr": {"dtype": {"type": "DT_INT32"}, "value": {"tensor": {"dtype": "DT_INT32", "tensorShape": {"dim": [{"size": "2"}]}}}}}, {"name": "StatefulPartitionedCall/style_gan_g/G_synthesis/G_synthesis/512x512/Conv1/StyleModApply/strided_slice/stack_2", "op": "Const", "attr": {"value": {"tensor": {"dtype": "DT_INT32", "tensorShape": {"dim": [{"size": "2"}]}}}, "dtype": {"type": "DT_INT32"}}}, {"name": "StatefulPartitionedCall/style_gan_g/G_synthesis/G_synthesis/512x512/Conv1/StyleModApply/add/y", "op": "Const", "attr": {"value": {"tensor": {"dtype": "DT_FLOAT", "tensorShape": {}}}, "dtype": {"type": "DT_FLOAT"}}}, {"name": "StatefulPartitionedCall/style_gan_g/G_synthesis/G_synthesis/512x512/Conv1/StridedSlice/strided_slice/stack", "op": "Const", "attr": {"value": {"tensor": {"dtype": "DT_INT32", "tensorShape": {"dim": [{"size": "2"}]}}}, "dtype": {"type": "DT_INT32"}}}, {"name": "StatefulPartitionedCall/style_gan_g/G_synthesis/G_synthesis/512x512/Conv1/StridedSlice/strided_slice/stack_1", "op": "Const", "attr": {"value": {"tensor": {"dtype": "DT_INT32", "tensorShape": {"dim": [{"size": "2"}]}}}, "dtype": {"type": "DT_INT32"}}}, {"name": "StatefulPartitionedCall/style_gan_g/G_synthesis/G_synthesis/512x512/Conv1/StridedSlice/strided_slice/stack_2", "op": "Const", "attr": {"value": {"tensor": {"dtype": "DT_INT32", "tensorShape": {"dim": [{"size": "2"}]}}}, "dtype": {"type": "DT_INT32"}}}, {"name": "StatefulPartitionedCall/style_gan_g/G_synthesis/G_synthesis/512x512/Conv1/StyleMod/mul_1", "op": "Const", "attr": {"dtype": {"type": "DT_FLOAT"}, "value": {"tensor": {"dtype": "DT_FLOAT", "tensorShape": {"dim": [{"size": "512"}, {"size": "64"}]}}}}}, {"name": "StatefulPartitionedCall/style_gan_g/G_synthesis/G_synthesis/512x512/Conv1/StyleMod/mul", "op": "Const", "attr": {"dtype": {"type": "DT_FLOAT"}, "value": {"tensor": {"dtype": "DT_FLOAT", "tensorShape": {"dim": [{"size": "64"}]}}}}}, {"name": "StatefulPartitionedCall/style_gan_g/G_synthesis/G_synthesis/512x512/Conv1/StyleModApply/Reshape/shape", "op": "Const", "attr": {"dtype": {"type": "DT_INT32"}, "value": {"tensor": {"dtype": "DT_INT32", "tensorShape": {"dim": [{"size": "5"}]}}}}}, {"name": "StatefulPartitionedCall/style_gan_g/G_synthesis/G_synthesis/512x512/Conv1/StyleModApply/strided_slice_1/stack", "op": "Const", "attr": {"value": {"tensor": {"dtype": "DT_INT32", "tensorShape": {"dim": [{"size": "2"}]}}}, "dtype": {"type": "DT_INT32"}}}, {"name": "StatefulPartitionedCall/style_gan_g/G_synthesis/G_synthesis/512x512/Conv1/StyleModApply/strided_slice_1/stack_1", "op": "Const", "attr": {"dtype": {"type": "DT_INT32"}, "value": {"tensor": {"dtype": "DT_INT32", "tensorShape": {"dim": [{"size": "2"}]}}}}}, {"name": "StatefulPartitionedCall/style_gan_g/G_synthesis/G_synthesis/512x512/Conv1/StyleModApply/strided_slice_1/stack_2", "op": "Const", "attr": {"dtype": {"type": "DT_INT32"}, "value": {"tensor": {"dtype": "DT_INT32", "tensorShape": {"dim": [{"size": "2"}]}}}}}, {"name": "StatefulPartitionedCall/style_gan_g/G_synthesis/G_synthesis/1024x1024/Conv0_up/Blur/filter", "op": "Const", "attr": {"value": {"tensor": {"dtype": "DT_FLOAT", "tensorShape": {"dim": [{"size": "3"}, {"size": "3"}, {"size": "16"}, {"size": "1"}]}}}, "dtype": {"type": "DT_FLOAT"}}}, {"name": "StatefulPartitionedCall/style_gan_g/G_synthesis/G_synthesis/1024x1024/Conv0_up/LeakyReLU/alpha", "op": "Const", "attr": {"dtype": {"type": "DT_FLOAT"}, "value": {"tensor": {"dtype": "DT_FLOAT", "tensorShape": {}}}}}, {"name": "StatefulPartitionedCall/style_gan_g/G_synthesis/G_synthesis/1024x1024/Conv0_up/InstanceNorm/Mean/reduction_indices", "op": "Const", "attr": {"dtype": {"type": "DT_INT32"}, "value": {"tensor": {"dtype": "DT_INT32", "tensorShape": {"dim": [{"size": "2"}]}}}}}, {"name": "StatefulPartitionedCall/style_gan_g/G_synthesis/G_synthesis/1024x1024/Conv0_up/InstanceNorm/Mean_1/reduction_indices", "op": "Const", "attr": {"value": {"tensor": {"dtype": "DT_INT32", "tensorShape": {"dim": [{"size": "2"}]}}}, "dtype": {"type": "DT_INT32"}}}, {"name": "StatefulPartitionedCall/style_gan_g/G_synthesis/G_synthesis/1024x1024/Conv0_up/InstanceNorm/epsilon", "op": "Const", "attr": {"dtype": {"type": "DT_FLOAT"}, "value": {"tensor": {"dtype": "DT_FLOAT", "tensorShape": {}}}}}, {"name": "StatefulPartitionedCall/style_gan_g/G_synthesis/G_synthesis/1024x1024/Conv0_up/StyleModApply/strided_slice/stack", "op": "Const", "attr": {"value": {"tensor": {"dtype": "DT_INT32", "tensorShape": {"dim": [{"size": "2"}]}}}, "dtype": {"type": "DT_INT32"}}}, {"name": "StatefulPartitionedCall/style_gan_g/G_synthesis/G_synthesis/1024x1024/Conv0_up/StyleModApply/strided_slice/stack_1", "op": "Const", "attr": {"dtype": {"type": "DT_INT32"}, "value": {"tensor": {"dtype": "DT_INT32", "tensorShape": {"dim": [{"size": "2"}]}}}}}, {"name": "StatefulPartitionedCall/style_gan_g/G_synthesis/G_synthesis/1024x1024/Conv0_up/StyleModApply/strided_slice/stack_2", "op": "Const", "attr": {"dtype": {"type": "DT_INT32"}, "value": {"tensor": {"dtype": "DT_INT32", "tensorShape": {"dim": [{"size": "2"}]}}}}}, {"name": "StatefulPartitionedCall/style_gan_g/G_synthesis/G_synthesis/1024x1024/Conv0_up/StyleModApply/add/y", "op": "Const", "attr": {"dtype": {"type": "DT_FLOAT"}, "value": {"tensor": {"dtype": "DT_FLOAT", "tensorShape": {}}}}}, {"name": "StatefulPartitionedCall/style_gan_g/G_synthesis/G_synthesis/1024x1024/Conv0_up/StridedSlice/strided_slice/stack", "op": "Const", "attr": {"dtype": {"type": "DT_INT32"}, "value": {"tensor": {"dtype": "DT_INT32", "tensorShape": {"dim": [{"size": "2"}]}}}}}, {"name": "StatefulPartitionedCall/style_gan_g/G_synthesis/G_synthesis/1024x1024/Conv0_up/StridedSlice/strided_slice/stack_1", "op": "Const", "attr": {"dtype": {"type": "DT_INT32"}, "value": {"tensor": {"dtype": "DT_INT32", "tensorShape": {"dim": [{"size": "2"}]}}}}}, {"name": "StatefulPartitionedCall/style_gan_g/G_synthesis/G_synthesis/1024x1024/Conv0_up/StridedSlice/strided_slice/stack_2", "op": "Const", "attr": {"dtype": {"type": "DT_INT32"}, "value": {"tensor": {"dtype": "DT_INT32", "tensorShape": {"dim": [{"size": "2"}]}}}}}, {"name": "StatefulPartitionedCall/style_gan_g/G_synthesis/G_synthesis/1024x1024/Conv0_up/StyleMod/mul_1", "op": "Const", "attr": {"dtype": {"type": "DT_FLOAT"}, "value": {"tensor": {"dtype": "DT_FLOAT", "tensorShape": {"dim": [{"size": "512"}, {"size": "32"}]}}}}}, {"name": "StatefulPartitionedCall/style_gan_g/G_synthesis/G_synthesis/1024x1024/Conv0_up/StyleMod/mul", "op": "Const", "attr": {"dtype": {"type": "DT_FLOAT"}, "value": {"tensor": {"dtype": "DT_FLOAT", "tensorShape": {"dim": [{"size": "32"}]}}}}}, {"name": "StatefulPartitionedCall/style_gan_g/G_synthesis/G_synthesis/1024x1024/Conv0_up/StyleModApply/Reshape/shape", "op": "Const", "attr": {"dtype": {"type": "DT_INT32"}, "value": {"tensor": {"dtype": "DT_INT32", "tensorShape": {"dim": [{"size": "5"}]}}}}}, {"name": "StatefulPartitionedCall/style_gan_g/G_synthesis/G_synthesis/1024x1024/Conv0_up/StyleModApply/strided_slice_1/stack", "op": "Const", "attr": {"dtype": {"type": "DT_INT32"}, "value": {"tensor": {"dtype": "DT_INT32", "tensorShape": {"dim": [{"size": "2"}]}}}}}, {"name": "StatefulPartitionedCall/style_gan_g/G_synthesis/G_synthesis/1024x1024/Conv0_up/StyleModApply/strided_slice_1/stack_1", "op": "Const", "attr": {"dtype": {"type": "DT_INT32"}, "value": {"tensor": {"dtype": "DT_INT32", "tensorShape": {"dim": [{"size": "2"}]}}}}}, {"name": "StatefulPartitionedCall/style_gan_g/G_synthesis/G_synthesis/1024x1024/Conv0_up/StyleModApply/strided_slice_1/stack_2", "op": "Const", "attr": {"dtype": {"type": "DT_INT32"}, "value": {"tensor": {"dtype": "DT_INT32", "tensorShape": {"dim": [{"size": "2"}]}}}}}, {"name": "StatefulPartitionedCall/style_gan_g/G_synthesis/G_synthesis/1024x1024/Conv1/mul", "op": "Const", "attr": {"dtype": {"type": "DT_FLOAT"}, "value": {"tensor": {"dtype": "DT_FLOAT", "tensorShape": {"dim": [{"size": "3"}, {"size": "3"}, {"size": "16"}, {"size": "16"}]}}}}}, {"name": "StatefulPartitionedCall/style_gan_g/G_synthesis/G_synthesis/1024x1024/Conv1/LeakyReLU/alpha", "op": "Const", "attr": {"dtype": {"type": "DT_FLOAT"}, "value": {"tensor": {"dtype": "DT_FLOAT", "tensorShape": {}}}}}, {"name": "StatefulPartitionedCall/style_gan_g/G_synthesis/G_synthesis/1024x1024/Conv1/InstanceNorm/Mean/reduction_indices", "op": "Const", "attr": {"dtype": {"type": "DT_INT32"}, "value": {"tensor": {"dtype": "DT_INT32", "tensorShape": {"dim": [{"size": "2"}]}}}}}, {"name": "StatefulPartitionedCall/style_gan_g/G_synthesis/G_synthesis/1024x1024/Conv1/InstanceNorm/Mean_1/reduction_indices", "op": "Const", "attr": {"dtype": {"type": "DT_INT32"}, "value": {"tensor": {"dtype": "DT_INT32", "tensorShape": {"dim": [{"size": "2"}]}}}}}, {"name": "StatefulPartitionedCall/style_gan_g/G_synthesis/G_synthesis/1024x1024/Conv1/InstanceNorm/epsilon", "op": "Const", "attr": {"value": {"tensor": {"dtype": "DT_FLOAT", "tensorShape": {}}}, "dtype": {"type": "DT_FLOAT"}}}, {"name": "StatefulPartitionedCall/style_gan_g/G_synthesis/G_synthesis/1024x1024/Conv1/StyleModApply/strided_slice/stack", "op": "Const", "attr": {"dtype": {"type": "DT_INT32"}, "value": {"tensor": {"dtype": "DT_INT32", "tensorShape": {"dim": [{"size": "2"}]}}}}}, {"name": "StatefulPartitionedCall/style_gan_g/G_synthesis/G_synthesis/1024x1024/Conv1/StyleModApply/strided_slice/stack_1", "op": "Const", "attr": {"value": {"tensor": {"dtype": "DT_INT32", "tensorShape": {"dim": [{"size": "2"}]}}}, "dtype": {"type": "DT_INT32"}}}, {"name": "StatefulPartitionedCall/style_gan_g/G_synthesis/G_synthesis/1024x1024/Conv1/StyleModApply/strided_slice/stack_2", "op": "Const", "attr": {"value": {"tensor": {"dtype": "DT_INT32", "tensorShape": {"dim": [{"size": "2"}]}}}, "dtype": {"type": "DT_INT32"}}}, {"name": "StatefulPartitionedCall/style_gan_g/G_synthesis/G_synthesis/1024x1024/Conv1/StyleModApply/add/y", "op": "Const", "attr": {"dtype": {"type": "DT_FLOAT"}, "value": {"tensor": {"dtype": "DT_FLOAT", "tensorShape": {}}}}}, {"name": "StatefulPartitionedCall/style_gan_g/G_mapping/Truncation/ReadVariableOp", "op": "Const", "attr": {"value": {"tensor": {"dtype": "DT_FLOAT", "tensorShape": {"dim": [{"size": "512"}]}}}, "dtype": {"type": "DT_FLOAT"}}}, {"name": "StatefulPartitionedCall/style_gan_g/G_mapping/G_mapping/PixelNorm/Mean/reduction_indices", "op": "Const", "attr": {"dtype": {"type": "DT_INT32"}, "value": {"tensor": {"dtype": "DT_INT32", "tensorShape": {}}}}}, {"name": "StatefulPartitionedCall/style_gan_g/G_mapping/G_mapping/PixelNorm/epsilon", "op": "Const", "attr": {"value": {"tensor": {"dtype": "DT_FLOAT", "tensorShape": {}}}, "dtype": {"type": "DT_FLOAT"}}}, {"name": "StatefulPartitionedCall/style_gan_g/G_mapping/G_mapping/Dense0/mul_1", "op": "Const", "attr": {"dtype": {"type": "DT_FLOAT"}, "value": {"tensor": {"dtype": "DT_FLOAT", "tensorShape": {"dim": [{"size": "512"}, {"size": "512"}]}}}}}, {"name": "StatefulPartitionedCall/style_gan_g/G_mapping/G_mapping/Dense0/mul", "op": "Const", "attr": {"dtype": {"type": "DT_FLOAT"}, "value": {"tensor": {"dtype": "DT_FLOAT", "tensorShape": {"dim": [{"size": "512"}]}}}}}, {"name": "StatefulPartitionedCall/style_gan_g/G_mapping/G_mapping/Dense0/LeakyReLU/alpha", "op": "Const", "attr": {"value": {"tensor": {"dtype": "DT_FLOAT", "tensorShape": {}}}, "dtype": {"type": "DT_FLOAT"}}}, {"name": "StatefulPartitionedCall/style_gan_g/G_mapping/G_mapping/Dense1/mul_1", "op": "Const", "attr": {"dtype": {"type": "DT_FLOAT"}, "value": {"tensor": {"dtype": "DT_FLOAT", "tensorShape": {"dim": [{"size": "512"}, {"size": "512"}]}}}}}, {"name": "StatefulPartitionedCall/style_gan_g/G_mapping/G_mapping/Dense1/mul", "op": "Const", "attr": {"dtype": {"type": "DT_FLOAT"}, "value": {"tensor": {"dtype": "DT_FLOAT", "tensorShape": {"dim": [{"size": "512"}]}}}}}, {"name": "StatefulPartitionedCall/style_gan_g/G_mapping/G_mapping/Dense1/LeakyReLU/alpha", "op": "Const", "attr": {"value": {"tensor": {"dtype": "DT_FLOAT", "tensorShape": {}}}, "dtype": {"type": "DT_FLOAT"}}}, {"name": "StatefulPartitionedCall/style_gan_g/G_mapping/G_mapping/Dense2/mul_1", "op": "Const", "attr": {"dtype": {"type": "DT_FLOAT"}, "value": {"tensor": {"dtype": "DT_FLOAT", "tensorShape": {"dim": [{"size": "512"}, {"size": "512"}]}}}}}, {"name": "StatefulPartitionedCall/style_gan_g/G_mapping/G_mapping/Dense2/mul", "op": "Const", "attr": {"dtype": {"type": "DT_FLOAT"}, "value": {"tensor": {"dtype": "DT_FLOAT", "tensorShape": {"dim": [{"size": "512"}]}}}}}, {"name": "StatefulPartitionedCall/style_gan_g/G_mapping/G_mapping/Dense2/LeakyReLU/alpha", "op": "Const", "attr": {"dtype": {"type": "DT_FLOAT"}, "value": {"tensor": {"dtype": "DT_FLOAT", "tensorShape": {}}}}}, {"name": "StatefulPartitionedCall/style_gan_g/G_mapping/G_mapping/Dense3/mul_1", "op": "Const", "attr": {"dtype": {"type": "DT_FLOAT"}, "value": {"tensor": {"dtype": "DT_FLOAT", "tensorShape": {"dim": [{"size": "512"}, {"size": "512"}]}}}}}, {"name": "StatefulPartitionedCall/style_gan_g/G_mapping/G_mapping/Dense3/mul", "op": "Const", "attr": {"dtype": {"type": "DT_FLOAT"}, "value": {"tensor": {"dtype": "DT_FLOAT", "tensorShape": {"dim": [{"size": "512"}]}}}}}, {"name": "StatefulPartitionedCall/style_gan_g/G_mapping/G_mapping/Dense3/LeakyReLU/alpha", "op": "Const", "attr": {"dtype": {"type": "DT_FLOAT"}, "value": {"tensor": {"dtype": "DT_FLOAT", "tensorShape": {}}}}}, {"name": "StatefulPartitionedCall/style_gan_g/G_mapping/G_mapping/Dense4/mul_1", "op": "Const", "attr": {"dtype": {"type": "DT_FLOAT"}, "value": {"tensor": {"dtype": "DT_FLOAT", "tensorShape": {"dim": [{"size": "512"}, {"size": "512"}]}}}}}, {"name": "StatefulPartitionedCall/style_gan_g/G_mapping/G_mapping/Dense4/mul", "op": "Const", "attr": {"dtype": {"type": "DT_FLOAT"}, "value": {"tensor": {"dtype": "DT_FLOAT", "tensorShape": {"dim": [{"size": "512"}]}}}}}, {"name": "StatefulPartitionedCall/style_gan_g/G_mapping/G_mapping/Dense4/LeakyReLU/alpha", "op": "Const", "attr": {"dtype": {"type": "DT_FLOAT"}, "value": {"tensor": {"dtype": "DT_FLOAT", "tensorShape": {}}}}}, {"name": "StatefulPartitionedCall/style_gan_g/G_mapping/G_mapping/Dense5/mul_1", "op": "Const", "attr": {"dtype": {"type": "DT_FLOAT"}, "value": {"tensor": {"dtype": "DT_FLOAT", "tensorShape": {"dim": [{"size": "512"}, {"size": "512"}]}}}}}, {"name": "StatefulPartitionedCall/style_gan_g/G_mapping/G_mapping/Dense5/mul", "op": "Const", "attr": {"dtype": {"type": "DT_FLOAT"}, "value": {"tensor": {"dtype": "DT_FLOAT", "tensorShape": {"dim": [{"size": "512"}]}}}}}, {"name": "StatefulPartitionedCall/style_gan_g/G_mapping/G_mapping/Dense5/LeakyReLU/alpha", "op": "Const", "attr": {"dtype": {"type": "DT_FLOAT"}, "value": {"tensor": {"dtype": "DT_FLOAT", "tensorShape": {}}}}}, {"name": "StatefulPartitionedCall/style_gan_g/G_mapping/G_mapping/Dense6/mul_1", "op": "Const", "attr": {"dtype": {"type": "DT_FLOAT"}, "value": {"tensor": {"dtype": "DT_FLOAT", "tensorShape": {"dim": [{"size": "512"}, {"size": "512"}]}}}}}, {"name": "StatefulPartitionedCall/style_gan_g/G_mapping/G_mapping/Dense6/mul", "op": "Const", "attr": {"dtype": {"type": "DT_FLOAT"}, "value": {"tensor": {"dtype": "DT_FLOAT", "tensorShape": {"dim": [{"size": "512"}]}}}}}, {"name": "StatefulPartitionedCall/style_gan_g/G_mapping/G_mapping/Dense6/LeakyReLU/alpha", "op": "Const", "attr": {"dtype": {"type": "DT_FLOAT"}, "value": {"tensor": {"dtype": "DT_FLOAT", "tensorShape": {}}}}}, {"name": "StatefulPartitionedCall/style_gan_g/G_mapping/G_mapping/Dense7/mul_1", "op": "Const", "attr": {"dtype": {"type": "DT_FLOAT"}, "value": {"tensor": {"dtype": "DT_FLOAT", "tensorShape": {"dim": [{"size": "512"}, {"size": "512"}]}}}}}, {"name": "StatefulPartitionedCall/style_gan_g/G_mapping/G_mapping/Dense7/mul", "op": "Const", "attr": {"dtype": {"type": "DT_FLOAT"}, "value": {"tensor": {"dtype": "DT_FLOAT", "tensorShape": {"dim": [{"size": "512"}]}}}}}, {"name": "StatefulPartitionedCall/style_gan_g/G_mapping/G_mapping/Dense7/LeakyReLU/alpha", "op": "Const", "attr": {"value": {"tensor": {"dtype": "DT_FLOAT", "tensorShape": {}}}, "dtype": {"type": "DT_FLOAT"}}}, {"name": "StatefulPartitionedCall/style_gan_g/G_mapping/G_mapping/Broadcast/strided_slice/stack", "op": "Const", "attr": {"dtype": {"type": "DT_INT32"}, "value": {"tensor": {"dtype": "DT_INT32", "tensorShape": {"dim": [{"size": "2"}]}}}}}, {"name": "StatefulPartitionedCall/style_gan_g/G_mapping/G_mapping/Broadcast/strided_slice/stack_1", "op": "Const", "attr": {"value": {"tensor": {"dtype": "DT_INT32", "tensorShape": {"dim": [{"size": "2"}]}}}, "dtype": {"type": "DT_INT32"}}}, {"name": "StatefulPartitionedCall/style_gan_g/G_mapping/G_mapping/Broadcast/strided_slice/stack_2", "op": "Const", "attr": {"value": {"tensor": {"dtype": "DT_INT32", "tensorShape": {"dim": [{"size": "2"}]}}}, "dtype": {"type": "DT_INT32"}}}, {"name": "StatefulPartitionedCall/style_gan_g/G_mapping/G_mapping/Broadcast/Tile/multiples", "op": "Const", "attr": {"dtype": {"type": "DT_INT32"}, "value": {"tensor": {"dtype": "DT_INT32", "tensorShape": {"dim": [{"size": "3"}]}}}}}, {"name": "StatefulPartitionedCall/style_gan_g/G_mapping/Truncation/sub/ReadVariableOp", "op": "Const", "attr": {"value": {"tensor": {"dtype": "DT_FLOAT", "tensorShape": {"dim": [{"size": "512"}]}}}, "dtype": {"type": "DT_FLOAT"}}}, {"name": "StatefulPartitionedCall/style_gan_g/G_mapping/Truncation/SelectV2", "op": "Const", "attr": {"value": {"tensor": {"dtype": "DT_FLOAT", "tensorShape": {"dim": [{"size": "1"}, {"size": "18"}, {"size": "1"}]}}}, "dtype": {"type": "DT_FLOAT"}}}, {"name": "StatefulPartitionedCall/style_gan_g/G_synthesis/G_synthesis/1024x1024/Conv1/StridedSlice/strided_slice/stack", "op": "Const", "attr": {"value": {"tensor": {"dtype": "DT_INT32", "tensorShape": {"dim": [{"size": "2"}]}}}, "dtype": {"type": "DT_INT32"}}}, {"name": "StatefulPartitionedCall/style_gan_g/G_synthesis/G_synthesis/1024x1024/Conv1/StridedSlice/strided_slice/stack_1", "op": "Const", "attr": {"value": {"tensor": {"dtype": "DT_INT32", "tensorShape": {"dim": [{"size": "2"}]}}}, "dtype": {"type": "DT_INT32"}}}, {"name": "StatefulPartitionedCall/style_gan_g/G_synthesis/G_synthesis/1024x1024/Conv1/StridedSlice/strided_slice/stack_2", "op": "Const", "attr": {"value": {"tensor": {"dtype": "DT_INT32", "tensorShape": {"dim": [{"size": "2"}]}}}, "dtype": {"type": "DT_INT32"}}}, {"name": "StatefulPartitionedCall/style_gan_g/G_synthesis/G_synthesis/1024x1024/Conv1/StyleMod/mul_1", "op": "Const", "attr": {"dtype": {"type": "DT_FLOAT"}, "value": {"tensor": {"dtype": "DT_FLOAT", "tensorShape": {"dim": [{"size": "512"}, {"size": "32"}]}}}}}, {"name": "StatefulPartitionedCall/style_gan_g/G_synthesis/G_synthesis/1024x1024/Conv1/StyleMod/mul", "op": "Const", "attr": {"dtype": {"type": "DT_FLOAT"}, "value": {"tensor": {"dtype": "DT_FLOAT", "tensorShape": {"dim": [{"size": "32"}]}}}}}, {"name": "StatefulPartitionedCall/style_gan_g/G_synthesis/G_synthesis/1024x1024/Conv1/StyleModApply/Reshape/shape", "op": "Const", "attr": {"value": {"tensor": {"dtype": "DT_INT32", "tensorShape": {"dim": [{"size": "5"}]}}}, "dtype": {"type": "DT_INT32"}}}, {"name": "StatefulPartitionedCall/style_gan_g/G_synthesis/G_synthesis/1024x1024/Conv1/StyleModApply/strided_slice_1/stack", "op": "Const", "attr": {"value": {"tensor": {"dtype": "DT_INT32", "tensorShape": {"dim": [{"size": "2"}]}}}, "dtype": {"type": "DT_INT32"}}}, {"name": "StatefulPartitionedCall/style_gan_g/G_synthesis/G_synthesis/1024x1024/Conv1/StyleModApply/strided_slice_1/stack_1", "op": "Const", "attr": {"value": {"tensor": {"dtype": "DT_INT32", "tensorShape": {"dim": [{"size": "2"}]}}}, "dtype": {"type": "DT_INT32"}}}, {"name": "StatefulPartitionedCall/style_gan_g/G_synthesis/G_synthesis/1024x1024/Conv1/StyleModApply/strided_slice_1/stack_2", "op": "Const", "attr": {"value": {"tensor": {"dtype": "DT_INT32", "tensorShape": {"dim": [{"size": "2"}]}}}, "dtype": {"type": "DT_INT32"}}}, {"name": "StatefulPartitionedCall/style_gan_g/G_synthesis/G_synthesis/ToRGB_lod0/mul", "op": "Const", "attr": {"dtype": {"type": "DT_FLOAT"}, "value": {"tensor": {"dtype": "DT_FLOAT", "tensorShape": {"dim": [{"size": "1"}, {"size": "1"}, {"size": "16"}, {"size": "3"}]}}}}}, {"name": "StatefulPartitionedCall/style_gan_g/G_synthesis/G_synthesis/ToRGB_lod0/mul_1", "op": "Const", "attr": {"value": {"tensor": {"dtype": "DT_FLOAT", "tensorShape": {"dim": [{"size": "3"}]}}}, "dtype": {"type": "DT_FLOAT"}}}, {"name": "input_1", "op": "Placeholder", "attr": {"dtype": {"type": "DT_FLOAT"}, "shape": {"shape": {"dim": [{"size": "-1"}, {"size": "512"}]}}}}, {"name": "StatefulPartitionedCall/style_gan_g/G_synthesis/G_synthesis/1024x1024/Conv1/Noise/mul", "op": "Mul", "input": ["StatefulPartitionedCall/style_gan_g/G_synthesis/G_synthesis/1024x1024/Conv1/Noise/ReadVariableOp", "StatefulPartitionedCall/style_gan_g/G_synthesis/G_synthesis/1024x1024/Conv1/Noise/Reshape"], "attr": {"T": {"type": "DT_FLOAT"}}}, {"name": "StatefulPartitionedCall/style_gan_g/G_synthesis/G_synthesis/1024x1024/Conv0_up/Noise/mul", "op": "Mul", "input": ["StatefulPartitionedCall/style_gan_g/G_synthesis/G_synthesis/1024x1024/Conv0_up/Noise/ReadVariableOp", "StatefulPartitionedCall/style_gan_g/G_synthesis/G_synthesis/1024x1024/Conv0_up/Noise/Reshape"], "attr": {"T": {"type": "DT_FLOAT"}}}, {"name": "StatefulPartitionedCall/style_gan_g/G_synthesis/G_synthesis/512x512/Conv1/Noise/mul", "op": "Mul", "input": ["StatefulPartitionedCall/style_gan_g/G_synthesis/G_synthesis/512x512/Conv1/Noise/ReadVariableOp", "StatefulPartitionedCall/style_gan_g/G_synthesis/G_synthesis/512x512/Conv1/Noise/Reshape"], "attr": {"T": {"type": "DT_FLOAT"}}}, {"name": "StatefulPartitionedCall/style_gan_g/G_synthesis/G_synthesis/512x512/Conv0_up/Noise/mul", "op": "Mul", "input": ["StatefulPartitionedCall/style_gan_g/G_synthesis/G_synthesis/512x512/Conv0_up/Noise/ReadVariableOp", "StatefulPartitionedCall/style_gan_g/G_synthesis/G_synthesis/512x512/Conv0_up/Noise/Reshape"], "attr": {"T": {"type": "DT_FLOAT"}}}, {"name": "StatefulPartitionedCall/style_gan_g/G_synthesis/G_synthesis/512x512/Conv0_up/Pad", "op": "Pad", "input": ["StatefulPartitionedCall/style_gan_g/G_synthesis/G_synthesis/512x512/Conv0_up/transpose", "StatefulPartitionedCall/style_gan_g/G_synthesis/G_synthesis/512x512/Conv0_up/Pad/paddings"], "attr": {"Tpaddings": {"type": "DT_INT32"}, "T": {"type": "DT_FLOAT"}}}, {"name": "StatefulPartitionedCall/style_gan_g/G_synthesis/G_synthesis/256x256/Conv1/Noise/mul", "op": "Mul", "input": ["StatefulPartitionedCall/style_gan_g/G_synthesis/G_synthesis/256x256/Conv1/Noise/ReadVariableOp", "StatefulPartitionedCall/style_gan_g/G_synthesis/G_synthesis/256x256/Conv1/Noise/Reshape"], "attr": {"T": {"type": "DT_FLOAT"}}}, {"name": "StatefulPartitionedCall/style_gan_g/G_synthesis/G_synthesis/256x256/Conv0_up/Noise/mul", "op": "Mul", "input": ["StatefulPartitionedCall/style_gan_g/G_synthesis/G_synthesis/256x256/Conv0_up/Noise/ReadVariableOp", "StatefulPartitionedCall/style_gan_g/G_synthesis/G_synthesis/256x256/Conv0_up/Noise/Reshape"], "attr": {"T": {"type": "DT_FLOAT"}}}, {"name": "StatefulPartitionedCall/style_gan_g/G_synthesis/G_synthesis/256x256/Conv0_up/Pad", "op": "Pad", "input": ["StatefulPartitionedCall/style_gan_g/G_synthesis/G_synthesis/256x256/Conv0_up/transpose", "StatefulPartitionedCall/style_gan_g/G_synthesis/G_synthesis/256x256/Conv0_up/Pad/paddings"], "attr": {"T": {"type": "DT_FLOAT"}, "Tpaddings": {"type": "DT_INT32"}}}, {"name": "StatefulPartitionedCall/style_gan_g/G_synthesis/G_synthesis/128x128/Conv1/Noise/mul", "op": "Mul", "input": ["StatefulPartitionedCall/style_gan_g/G_synthesis/G_synthesis/128x128/Conv1/Noise/ReadVariableOp", "StatefulPartitionedCall/style_gan_g/G_synthesis/G_synthesis/128x128/Conv1/Noise/Reshape"], "attr": {"T": {"type": "DT_FLOAT"}}}, {"name": "StatefulPartitionedCall/style_gan_g/G_synthesis/G_synthesis/128x128/Conv0_up/Noise/mul", "op": "Mul", "input": ["StatefulPartitionedCall/style_gan_g/G_synthesis/G_synthesis/128x128/Conv0_up/Noise/ReadVariableOp", "StatefulPartitionedCall/style_gan_g/G_synthesis/G_synthesis/128x128/Conv0_up/Noise/Reshape"], "attr": {"T": {"type": "DT_FLOAT"}}}, {"name": "StatefulPartitionedCall/style_gan_g/G_synthesis/G_synthesis/128x128/Conv0_up/Pad", "op": "Pad", "input": ["StatefulPartitionedCall/style_gan_g/G_synthesis/G_synthesis/128x128/Conv0_up/transpose", "StatefulPartitionedCall/style_gan_g/G_synthesis/G_synthesis/128x128/Conv0_up/Pad/paddings"], "attr": {"Tpaddings": {"type": "DT_INT32"}, "T": {"type": "DT_FLOAT"}}}, {"name": "StatefulPartitionedCall/style_gan_g/G_synthesis/G_synthesis/64x64/Conv1/Noise/mul", "op": "Mul", "input": ["StatefulPartitionedCall/style_gan_g/G_synthesis/G_synthesis/64x64/Conv1/Noise/ReadVariableOp", "StatefulPartitionedCall/style_gan_g/G_synthesis/G_synthesis/64x64/Conv1/Noise/Reshape"], "attr": {"T": {"type": "DT_FLOAT"}}}, {"name": "StatefulPartitionedCall/style_gan_g/G_synthesis/G_synthesis/64x64/Conv0_up/Noise/mul", "op": "Mul", "input": ["StatefulPartitionedCall/style_gan_g/G_synthesis/G_synthesis/64x64/Conv0_up/Noise/ReadVariableOp", "StatefulPartitionedCall/style_gan_g/G_synthesis/G_synthesis/64x64/Conv0_up/Noise/Reshape"], "attr": {"T": {"type": "DT_FLOAT"}}}, {"name": "StatefulPartitionedCall/style_gan_g/G_synthesis/G_synthesis/32x32/Conv1/Noise/mul", "op": "Mul", "input": ["StatefulPartitionedCall/style_gan_g/G_synthesis/G_synthesis/32x32/Conv1/Noise/ReadVariableOp", "StatefulPartitionedCall/style_gan_g/G_synthesis/G_synthesis/32x32/Conv1/Noise/Reshape"], "attr": {"T": {"type": "DT_FLOAT"}}}, {"name": "StatefulPartitionedCall/style_gan_g/G_synthesis/G_synthesis/32x32/Conv0_up/Noise/mul", "op": "Mul", "input": ["StatefulPartitionedCall/style_gan_g/G_synthesis/G_synthesis/32x32/Conv0_up/Noise/ReadVariableOp", "StatefulPartitionedCall/style_gan_g/G_synthesis/G_synthesis/32x32/Conv0_up/Noise/Reshape"], "attr": {"T": {"type": "DT_FLOAT"}}}, {"name": "StatefulPartitionedCall/style_gan_g/G_synthesis/G_synthesis/16x16/Conv1/Noise/mul", "op": "Mul", "input": ["StatefulPartitionedCall/style_gan_g/G_synthesis/G_synthesis/16x16/Conv1/Noise/ReadVariableOp", "StatefulPartitionedCall/style_gan_g/G_synthesis/G_synthesis/16x16/Conv1/Noise/Reshape"], "attr": {"T": {"type": "DT_FLOAT"}}}, {"name": "StatefulPartitionedCall/style_gan_g/G_synthesis/G_synthesis/16x16/Conv0_up/Noise/mul", "op": "Mul", "input": ["StatefulPartitionedCall/style_gan_g/G_synthesis/G_synthesis/16x16/Conv0_up/Noise/ReadVariableOp", "StatefulPartitionedCall/style_gan_g/G_synthesis/G_synthesis/16x16/Conv0_up/Noise/Reshape"], "attr": {"T": {"type": "DT_FLOAT"}}}, {"name": "StatefulPartitionedCall/style_gan_g/G_synthesis/G_synthesis/8x8/Conv1/Noise/mul", "op": "Mul", "input": ["StatefulPartitionedCall/style_gan_g/G_synthesis/G_synthesis/8x8/Conv1/Noise/ReadVariableOp", "StatefulPartitionedCall/style_gan_g/G_synthesis/G_synthesis/8x8/Conv1/Noise/Reshape"], "attr": {"T": {"type": "DT_FLOAT"}}}, {"name": "StatefulPartitionedCall/style_gan_g/G_synthesis/G_synthesis/8x8/Conv0_up/Noise/mul", "op": "Mul", "input": ["StatefulPartitionedCall/style_gan_g/G_synthesis/G_synthesis/8x8/Conv0_up/Noise/ReadVariableOp", "StatefulPartitionedCall/style_gan_g/G_synthesis/G_synthesis/8x8/Conv0_up/Noise/Reshape"], "attr": {"T": {"type": "DT_FLOAT"}}}, {"name": "StatefulPartitionedCall/style_gan_g/G_mapping/G_mapping/PixelNorm/Square", "op": "Square", "input": ["input_1"], "attr": {"T": {"type": "DT_FLOAT"}}}, {"name": "StatefulPartitionedCall/style_gan_g/G_synthesis/G_synthesis/1024x1024/Conv1/bias/ArithmeticOptimizer/AddOpsRewrite_Internal_0_add", "op": "AddV2", "input": ["StatefulPartitionedCall/style_gan_g/G_synthesis/G_synthesis/1024x1024/Conv1/bias/Reshape", "StatefulPartitionedCall/style_gan_g/G_synthesis/G_synthesis/1024x1024/Conv1/Noise/mul"], "attr": {"_grappler_ArithmeticOptimizer_AddOpsRewriteStage": {"b": true}, "T": {"type": "DT_FLOAT"}}}, {"name": "StatefulPartitionedCall/style_gan_g/G_synthesis/G_synthesis/1024x1024/Conv0_up/bias/ArithmeticOptimizer/AddOpsRewrite_Internal_0_add", "op": "AddV2", "input": ["StatefulPartitionedCall/style_gan_g/G_synthesis/G_synthesis/1024x1024/Conv0_up/bias/Reshape", "StatefulPartitionedCall/style_gan_g/G_synthesis/G_synthesis/1024x1024/Conv0_up/Noise/mul"], "attr": {"T": {"type": "DT_FLOAT"}, "_grappler_ArithmeticOptimizer_AddOpsRewriteStage": {"b": true}}}, {"name": "StatefulPartitionedCall/style_gan_g/G_synthesis/G_synthesis/512x512/Conv1/bias/ArithmeticOptimizer/AddOpsRewrite_Internal_0_add", "op": "AddV2", "input": ["StatefulPartitionedCall/style_gan_g/G_synthesis/G_synthesis/512x512/Conv1/bias/Reshape", "StatefulPartitionedCall/style_gan_g/G_synthesis/G_synthesis/512x512/Conv1/Noise/mul"], "attr": {"T": {"type": "DT_FLOAT"}, "_grappler_ArithmeticOptimizer_AddOpsRewriteStage": {"b": true}}}, {"name": "StatefulPartitionedCall/style_gan_g/G_synthesis/G_synthesis/512x512/Conv0_up/bias/ArithmeticOptimizer/AddOpsRewrite_Internal_0_add", "op": "AddV2", "input": ["StatefulPartitionedCall/style_gan_g/G_synthesis/G_synthesis/512x512/Conv0_up/bias/Reshape", "StatefulPartitionedCall/style_gan_g/G_synthesis/G_synthesis/512x512/Conv0_up/Noise/mul"], "attr": {"_grappler_ArithmeticOptimizer_AddOpsRewriteStage": {"b": true}, "T": {"type": "DT_FLOAT"}}}, {"name": "StatefulPartitionedCall/style_gan_g/G_synthesis/G_synthesis/512x512/Conv0_up/strided_slice", "op": "StridedSlice", "input": ["StatefulPartitionedCall/style_gan_g/G_synthesis/G_synthesis/512x512/Conv0_up/Pad", "StatefulPartitionedCall/style_gan_g/G_synthesis/G_synthesis/512x512/Conv0_up/strided_slice/stack", "StatefulPartitionedCall/style_gan_g/G_synthesis/G_synthesis/512x512/Conv0_up/strided_slice/stack_1", "StatefulPartitionedCall/style_gan_g/G_synthesis/G_synthesis/512x512/Conv0_up/strided_slice/stack_2"], "attr": {"ellipsis_mask": {"i": "0"}, "begin_mask": {"i": "0"}, "T": {"type": "DT_FLOAT"}, "end_mask": {"i": "3"}, "new_axis_mask": {"i": "0"}, "Index": {"type": "DT_INT32"}, "shrink_axis_mask": {"i": "0"}}}, {"name": "StatefulPartitionedCall/style_gan_g/G_synthesis/G_synthesis/512x512/Conv0_up/strided_slice_1", "op": "StridedSlice", "input": ["StatefulPartitionedCall/style_gan_g/G_synthesis/G_synthesis/512x512/Conv0_up/Pad", "StatefulPartitionedCall/style_gan_g/G_synthesis/G_synthesis/512x512/Conv0_up/strided_slice_1/stack", "StatefulPartitionedCall/style_gan_g/G_synthesis/G_synthesis/512x512/Conv0_up/strided_slice_1/stack_1", "StatefulPartitionedCall/style_gan_g/G_synthesis/G_synthesis/512x512/Conv0_up/strided_slice_1/stack_2"], "attr": {"begin_mask": {"i": "1"}, "new_axis_mask": {"i": "0"}, "T": {"type": "DT_FLOAT"}, "Index": {"type": "DT_INT32"}, "end_mask": {"i": "2"}, "shrink_axis_mask": {"i": "0"}, "ellipsis_mask": {"i": "0"}}}, {"name": "StatefulPartitionedCall/style_gan_g/G_synthesis/G_synthesis/512x512/Conv0_up/strided_slice_2", "op": "StridedSlice", "input": ["StatefulPartitionedCall/style_gan_g/G_synthesis/G_synthesis/512x512/Conv0_up/Pad", "StatefulPartitionedCall/style_gan_g/G_synthesis/G_synthesis/512x512/Conv0_up/strided_slice_2/stack", "StatefulPartitionedCall/style_gan_g/G_synthesis/G_synthesis/512x512/Conv0_up/strided_slice_2/stack_1", "StatefulPartitionedCall/style_gan_g/G_synthesis/G_synthesis/512x512/Conv0_up/strided_slice_2/stack_2"], "attr": {"ellipsis_mask": {"i": "0"}, "begin_mask": {"i": "2"}, "T": {"type": "DT_FLOAT"}, "end_mask": {"i": "1"}, "new_axis_mask": {"i": "0"}, "Index": {"type": "DT_INT32"}, "shrink_axis_mask": {"i": "0"}}}, {"name": "StatefulPartitionedCall/style_gan_g/G_synthesis/G_synthesis/512x512/Conv0_up/strided_slice_3", "op": "StridedSlice", "input": ["StatefulPartitionedCall/style_gan_g/G_synthesis/G_synthesis/512x512/Conv0_up/Pad", "StatefulPartitionedCall/style_gan_g/G_synthesis/G_synthesis/512x512/Conv0_up/strided_slice_3/stack", "StatefulPartitionedCall/style_gan_g/G_synthesis/G_synthesis/512x512/Conv0_up/strided_slice_3/stack_1", "StatefulPartitionedCall/style_gan_g/G_synthesis/G_synthesis/512x512/Conv0_up/strided_slice_3/stack_2"], "attr": {"new_axis_mask": {"i": "0"}, "ellipsis_mask": {"i": "0"}, "T": {"type": "DT_FLOAT"}, "Index": {"type": "DT_INT32"}, "shrink_axis_mask": {"i": "0"}, "begin_mask": {"i": "3"}, "end_mask": {"i": "0"}}}, {"name": "StatefulPartitionedCall/style_gan_g/G_synthesis/G_synthesis/256x256/Conv1/bias/ArithmeticOptimizer/AddOpsRewrite_Internal_0_add", "op": "AddV2", "input": ["StatefulPartitionedCall/style_gan_g/G_synthesis/G_synthesis/256x256/Conv1/bias/Reshape", "StatefulPartitionedCall/style_gan_g/G_synthesis/G_synthesis/256x256/Conv1/Noise/mul"], "attr": {"T": {"type": "DT_FLOAT"}, "_grappler_ArithmeticOptimizer_AddOpsRewriteStage": {"b": true}}}, {"name": "StatefulPartitionedCall/style_gan_g/G_synthesis/G_synthesis/256x256/Conv0_up/bias/ArithmeticOptimizer/AddOpsRewrite_Internal_0_add", "op": "AddV2", "input": ["StatefulPartitionedCall/style_gan_g/G_synthesis/G_synthesis/256x256/Conv0_up/bias/Reshape", "StatefulPartitionedCall/style_gan_g/G_synthesis/G_synthesis/256x256/Conv0_up/Noise/mul"], "attr": {"T": {"type": "DT_FLOAT"}, "_grappler_ArithmeticOptimizer_AddOpsRewriteStage": {"b": true}}}, {"name": "StatefulPartitionedCall/style_gan_g/G_synthesis/G_synthesis/256x256/Conv0_up/strided_slice", "op": "StridedSlice", "input": ["StatefulPartitionedCall/style_gan_g/G_synthesis/G_synthesis/256x256/Conv0_up/Pad", "StatefulPartitionedCall/style_gan_g/G_synthesis/G_synthesis/256x256/Conv0_up/strided_slice/stack", "StatefulPartitionedCall/style_gan_g/G_synthesis/G_synthesis/256x256/Conv0_up/strided_slice/stack_1", "StatefulPartitionedCall/style_gan_g/G_synthesis/G_synthesis/256x256/Conv0_up/strided_slice/stack_2"], "attr": {"ellipsis_mask": {"i": "0"}, "begin_mask": {"i": "0"}, "T": {"type": "DT_FLOAT"}, "end_mask": {"i": "3"}, "new_axis_mask": {"i": "0"}, "Index": {"type": "DT_INT32"}, "shrink_axis_mask": {"i": "0"}}}, {"name": "StatefulPartitionedCall/style_gan_g/G_synthesis/G_synthesis/256x256/Conv0_up/strided_slice_1", "op": "StridedSlice", "input": ["StatefulPartitionedCall/style_gan_g/G_synthesis/G_synthesis/256x256/Conv0_up/Pad", "StatefulPartitionedCall/style_gan_g/G_synthesis/G_synthesis/256x256/Conv0_up/strided_slice_1/stack", "StatefulPartitionedCall/style_gan_g/G_synthesis/G_synthesis/256x256/Conv0_up/strided_slice_1/stack_1", "StatefulPartitionedCall/style_gan_g/G_synthesis/G_synthesis/256x256/Conv0_up/strided_slice_1/stack_2"], "attr": {"new_axis_mask": {"i": "0"}, "ellipsis_mask": {"i": "0"}, "T": {"type": "DT_FLOAT"}, "Index": {"type": "DT_INT32"}, "shrink_axis_mask": {"i": "0"}, "begin_mask": {"i": "1"}, "end_mask": {"i": "2"}}}, {"name": "StatefulPartitionedCall/style_gan_g/G_synthesis/G_synthesis/256x256/Conv0_up/strided_slice_2", "op": "StridedSlice", "input": ["StatefulPartitionedCall/style_gan_g/G_synthesis/G_synthesis/256x256/Conv0_up/Pad", "StatefulPartitionedCall/style_gan_g/G_synthesis/G_synthesis/256x256/Conv0_up/strided_slice_2/stack", "StatefulPartitionedCall/style_gan_g/G_synthesis/G_synthesis/256x256/Conv0_up/strided_slice_2/stack_1", "StatefulPartitionedCall/style_gan_g/G_synthesis/G_synthesis/256x256/Conv0_up/strided_slice_2/stack_2"], "attr": {"ellipsis_mask": {"i": "0"}, "shrink_axis_mask": {"i": "0"}, "begin_mask": {"i": "2"}, "T": {"type": "DT_FLOAT"}, "Index": {"type": "DT_INT32"}, "end_mask": {"i": "1"}, "new_axis_mask": {"i": "0"}}}, {"name": "StatefulPartitionedCall/style_gan_g/G_synthesis/G_synthesis/256x256/Conv0_up/strided_slice_3", "op": "StridedSlice", "input": ["StatefulPartitionedCall/style_gan_g/G_synthesis/G_synthesis/256x256/Conv0_up/Pad", "StatefulPartitionedCall/style_gan_g/G_synthesis/G_synthesis/256x256/Conv0_up/strided_slice_3/stack", "StatefulPartitionedCall/style_gan_g/G_synthesis/G_synthesis/256x256/Conv0_up/strided_slice_3/stack_1", "StatefulPartitionedCall/style_gan_g/G_synthesis/G_synthesis/256x256/Conv0_up/strided_slice_3/stack_2"], "attr": {"ellipsis_mask": {"i": "0"}, "begin_mask": {"i": "3"}, "T": {"type": "DT_FLOAT"}, "end_mask": {"i": "0"}, "new_axis_mask": {"i": "0"}, "Index": {"type": "DT_INT32"}, "shrink_axis_mask": {"i": "0"}}}, {"name": "StatefulPartitionedCall/style_gan_g/G_synthesis/G_synthesis/128x128/Conv1/bias/ArithmeticOptimizer/AddOpsRewrite_Internal_0_add", "op": "AddV2", "input": ["StatefulPartitionedCall/style_gan_g/G_synthesis/G_synthesis/128x128/Conv1/bias/Reshape", "StatefulPartitionedCall/style_gan_g/G_synthesis/G_synthesis/128x128/Conv1/Noise/mul"], "attr": {"_grappler_ArithmeticOptimizer_AddOpsRewriteStage": {"b": true}, "T": {"type": "DT_FLOAT"}}}, {"name": "StatefulPartitionedCall/style_gan_g/G_synthesis/G_synthesis/128x128/Conv0_up/bias/ArithmeticOptimizer/AddOpsRewrite_Internal_0_add", "op": "AddV2", "input": ["StatefulPartitionedCall/style_gan_g/G_synthesis/G_synthesis/128x128/Conv0_up/bias/Reshape", "StatefulPartitionedCall/style_gan_g/G_synthesis/G_synthesis/128x128/Conv0_up/Noise/mul"], "attr": {"T": {"type": "DT_FLOAT"}, "_grappler_ArithmeticOptimizer_AddOpsRewriteStage": {"b": true}}}, {"name": "StatefulPartitionedCall/style_gan_g/G_synthesis/G_synthesis/128x128/Conv0_up/strided_slice", "op": "StridedSlice", "input": ["StatefulPartitionedCall/style_gan_g/G_synthesis/G_synthesis/128x128/Conv0_up/Pad", "StatefulPartitionedCall/style_gan_g/G_synthesis/G_synthesis/128x128/Conv0_up/strided_slice/stack", "StatefulPartitionedCall/style_gan_g/G_synthesis/G_synthesis/128x128/Conv0_up/strided_slice/stack_1", "StatefulPartitionedCall/style_gan_g/G_synthesis/G_synthesis/128x128/Conv0_up/strided_slice/stack_2"], "attr": {"new_axis_mask": {"i": "0"}, "ellipsis_mask": {"i": "0"}, "T": {"type": "DT_FLOAT"}, "Index": {"type": "DT_INT32"}, "shrink_axis_mask": {"i": "0"}, "begin_mask": {"i": "0"}, "end_mask": {"i": "3"}}}, {"name": "StatefulPartitionedCall/style_gan_g/G_synthesis/G_synthesis/128x128/Conv0_up/strided_slice_1", "op": "StridedSlice", "input": ["StatefulPartitionedCall/style_gan_g/G_synthesis/G_synthesis/128x128/Conv0_up/Pad", "StatefulPartitionedCall/style_gan_g/G_synthesis/G_synthesis/128x128/Conv0_up/strided_slice_1/stack", "StatefulPartitionedCall/style_gan_g/G_synthesis/G_synthesis/128x128/Conv0_up/strided_slice_1/stack_1", "StatefulPartitionedCall/style_gan_g/G_synthesis/G_synthesis/128x128/Conv0_up/strided_slice_1/stack_2"], "attr": {"new_axis_mask": {"i": "0"}, "ellipsis_mask": {"i": "0"}, "T": {"type": "DT_FLOAT"}, "Index": {"type": "DT_INT32"}, "shrink_axis_mask": {"i": "0"}, "begin_mask": {"i": "1"}, "end_mask": {"i": "2"}}}, {"name": "StatefulPartitionedCall/style_gan_g/G_synthesis/G_synthesis/128x128/Conv0_up/strided_slice_2", "op": "StridedSlice", "input": ["StatefulPartitionedCall/style_gan_g/G_synthesis/G_synthesis/128x128/Conv0_up/Pad", "StatefulPartitionedCall/style_gan_g/G_synthesis/G_synthesis/128x128/Conv0_up/strided_slice_2/stack", "StatefulPartitionedCall/style_gan_g/G_synthesis/G_synthesis/128x128/Conv0_up/strided_slice_2/stack_1", "StatefulPartitionedCall/style_gan_g/G_synthesis/G_synthesis/128x128/Conv0_up/strided_slice_2/stack_2"], "attr": {"new_axis_mask": {"i": "0"}, "ellipsis_mask": {"i": "0"}, "T": {"type": "DT_FLOAT"}, "Index": {"type": "DT_INT32"}, "shrink_axis_mask": {"i": "0"}, "begin_mask": {"i": "2"}, "end_mask": {"i": "1"}}}, {"name": "StatefulPartitionedCall/style_gan_g/G_synthesis/G_synthesis/128x128/Conv0_up/strided_slice_3", "op": "StridedSlice", "input": ["StatefulPartitionedCall/style_gan_g/G_synthesis/G_synthesis/128x128/Conv0_up/Pad", "StatefulPartitionedCall/style_gan_g/G_synthesis/G_synthesis/128x128/Conv0_up/strided_slice_3/stack", "StatefulPartitionedCall/style_gan_g/G_synthesis/G_synthesis/128x128/Conv0_up/strided_slice_3/stack_1", "StatefulPartitionedCall/style_gan_g/G_synthesis/G_synthesis/128x128/Conv0_up/strided_slice_3/stack_2"], "attr": {"new_axis_mask": {"i": "0"}, "ellipsis_mask": {"i": "0"}, "shrink_axis_mask": {"i": "0"}, "begin_mask": {"i": "3"}, "T": {"type": "DT_FLOAT"}, "end_mask": {"i": "0"}, "Index": {"type": "DT_INT32"}}}, {"name": "StatefulPartitionedCall/style_gan_g/G_synthesis/G_synthesis/64x64/Conv1/bias/ArithmeticOptimizer/AddOpsRewrite_Internal_0_add", "op": "AddV2", "input": ["StatefulPartitionedCall/style_gan_g/G_synthesis/G_synthesis/64x64/Conv1/bias/Reshape", "StatefulPartitionedCall/style_gan_g/G_synthesis/G_synthesis/64x64/Conv1/Noise/mul"], "attr": {"T": {"type": "DT_FLOAT"}, "_grappler_ArithmeticOptimizer_AddOpsRewriteStage": {"b": true}}}, {"name": "StatefulPartitionedCall/style_gan_g/G_synthesis/G_synthesis/64x64/Conv0_up/bias/ArithmeticOptimizer/AddOpsRewrite_Internal_0_add", "op": "AddV2", "input": ["StatefulPartitionedCall/style_gan_g/G_synthesis/G_synthesis/64x64/Conv0_up/bias/Reshape", "StatefulPartitionedCall/style_gan_g/G_synthesis/G_synthesis/64x64/Conv0_up/Noise/mul"], "attr": {"T": {"type": "DT_FLOAT"}, "_grappler_ArithmeticOptimizer_AddOpsRewriteStage": {"b": true}}}, {"name": "StatefulPartitionedCall/style_gan_g/G_synthesis/G_synthesis/32x32/Conv1/bias/ArithmeticOptimizer/AddOpsRewrite_Internal_0_add", "op": "AddV2", "input": ["StatefulPartitionedCall/style_gan_g/G_synthesis/G_synthesis/32x32/Conv1/bias/Reshape", "StatefulPartitionedCall/style_gan_g/G_synthesis/G_synthesis/32x32/Conv1/Noise/mul"], "attr": {"T": {"type": "DT_FLOAT"}, "_grappler_ArithmeticOptimizer_AddOpsRewriteStage": {"b": true}}}, {"name": "StatefulPartitionedCall/style_gan_g/G_synthesis/G_synthesis/32x32/Conv0_up/bias/ArithmeticOptimizer/AddOpsRewrite_Internal_0_add", "op": "AddV2", "input": ["StatefulPartitionedCall/style_gan_g/G_synthesis/G_synthesis/32x32/Conv0_up/bias/Reshape", "StatefulPartitionedCall/style_gan_g/G_synthesis/G_synthesis/32x32/Conv0_up/Noise/mul"], "attr": {"T": {"type": "DT_FLOAT"}, "_grappler_Arithm…
thesis/4x4/Conv/StyleModApply/strided_slice_1/stack_1", "shape": [2], "dtype": "int32"}, {"name": "StatefulPartitionedCall/style_gan_g/G_synthesis/G_synthesis/4x4/Conv/StyleModApply/strided_slice_1/stack_2", "shape": [2], "dtype": "int32"}, {"name": "StatefulPartitionedCall/style_gan_g/G_synthesis/G_synthesis/8x8/Conv0_up/Upscaled2d/Reshape/shape", "shape": [6], "dtype": "int32"}, {"name": "StatefulPartitionedCall/style_gan_g/G_synthesis/G_synthesis/8x8/Conv0_up/Upscaled2d/Tile/multiples", "shape": [6], "dtype": "int32"}, {"name": "StatefulPartitionedCall/style_gan_g/G_synthesis/G_synthesis/8x8/Conv0_up/Upscaled2d/Reshape_1/shape", "shape": [4], "dtype": "int32"}, {"name": "StatefulPartitionedCall/style_gan_g/G_synthesis/G_synthesis/8x8/Conv0_up/mul", "shape": [3, 3, 512, 512], "dtype": "float32"}, {"name": "StatefulPartitionedCall/style_gan_g/G_synthesis/G_synthesis/8x8/Conv0_up/Blur/filter", "shape": [3, 3, 512, 1], "dtype": "float32"}, {"name": "StatefulPartitionedCall/style_gan_g/G_synthesis/G_synthesis/8x8/Conv0_up/LeakyReLU/alpha", "shape": [], "dtype": "float32"}, {"name": "StatefulPartitionedCall/style_gan_g/G_synthesis/G_synthesis/8x8/Conv0_up/InstanceNorm/Mean/reduction_indices", "shape": [2], "dtype": "int32"}, {"name": "StatefulPartitionedCall/style_gan_g/G_synthesis/G_synthesis/8x8/Conv0_up/InstanceNorm/Mean_1/reduction_indices", "shape": [2], "dtype": "int32"}, {"name": "StatefulPartitionedCall/style_gan_g/G_synthesis/G_synthesis/8x8/Conv0_up/InstanceNorm/epsilon", "shape": [], "dtype": "float32"}, {"name": "StatefulPartitionedCall/style_gan_g/G_synthesis/G_synthesis/8x8/Conv0_up/StyleModApply/strided_slice/stack", "shape": [2], "dtype": "int32"}, {"name": "StatefulPartitionedCall/style_gan_g/G_synthesis/G_synthesis/8x8/Conv0_up/StyleModApply/strided_slice/stack_1", "shape": [2], "dtype": "int32"}, {"name": "StatefulPartitionedCall/style_gan_g/G_synthesis/G_synthesis/8x8/Conv0_up/StyleModApply/strided_slice/stack_2", "shape": [2], "dtype": "int32"}, {"name": "StatefulPartitionedCall/style_gan_g/G_synthesis/G_synthesis/8x8/Conv0_up/StyleModApply/add/y", "shape": [], "dtype": "float32"}, {"name": "StatefulPartitionedCall/style_gan_g/G_synthesis/G_synthesis/8x8/Conv0_up/StridedSlice/strided_slice/stack", "shape": [2], "dtype": "int32"}, {"name": "StatefulPartitionedCall/style_gan_g/G_synthesis/G_synthesis/8x8/Conv0_up/StridedSlice/strided_slice/stack_1", "shape": [2], "dtype": "int32"}, {"name": "StatefulPartitionedCall/style_gan_g/G_synthesis/G_synthesis/8x8/Conv0_up/StridedSlice/strided_slice/stack_2", "shape": [2], "dtype": "int32"}, {"name": "StatefulPartitionedCall/style_gan_g/G_synthesis/G_synthesis/8x8/Conv0_up/StyleMod/mul_1", "shape": [512, 1024], "dtype": "float32"}, {"name": "StatefulPartitionedCall/style_gan_g/G_synthesis/G_synthesis/8x8/Conv0_up/StyleMod/mul", "shape": [1024], "dtype": "float32"}, {"name": "StatefulPartitionedCall/style_gan_g/G_synthesis/G_synthesis/8x8/Conv0_up/StyleModApply/Reshape/shape", "shape": [5], "dtype": "int32"}, {"name": "StatefulPartitionedCall/style_gan_g/G_synthesis/G_synthesis/8x8/Conv0_up/StyleModApply/strided_slice_1/stack", "shape": [2], "dtype": "int32"}, {"name": "StatefulPartitionedCall/style_gan_g/G_synthesis/G_synthesis/8x8/Conv0_up/StyleModApply/strided_slice_1/stack_1", "shape": [2], "dtype": "int32"}, {"name": "StatefulPartitionedCall/style_gan_g/G_synthesis/G_synthesis/8x8/Conv0_up/StyleModApply/strided_slice_1/stack_2", "shape": [2], "dtype": "int32"}, {"name": "StatefulPartitionedCall/style_gan_g/G_synthesis/G_synthesis/8x8/Conv1/mul", "shape": [3, 3, 512, 512], "dtype": "float32"}, {"name": "StatefulPartitionedCall/style_gan_g/G_synthesis/G_synthesis/8x8/Conv1/LeakyReLU/alpha", "shape": [], "dtype": "float32"}, {"name": "StatefulPartitionedCall/style_gan_g/G_synthesis/G_synthesis/8x8/Conv1/InstanceNorm/Mean/reduction_indices", "shape": [2], "dtype": "int32"}, {"name": "StatefulPartitionedCall/style_gan_g/G_synthesis/G_synthesis/8x8/Conv1/InstanceNorm/Mean_1/reduction_indices", "shape": [2], "dtype": "int32"}, {"name": "StatefulPartitionedCall/style_gan_g/G_synthesis/G_synthesis/8x8/Conv1/InstanceNorm/epsilon", "shape": [], "dtype": "float32"}, {"name": "StatefulPartitionedCall/style_gan_g/G_synthesis/G_synthesis/8x8/Conv1/StyleModApply/strided_slice/stack", "shape": [2], "dtype": "int32"}, {"name": "StatefulPartitionedCall/style_gan_g/G_synthesis/G_synthesis/8x8/Conv1/StyleModApply/strided_slice/stack_1", "shape": [2], "dtype": "int32"}, {"name": "StatefulPartitionedCall/style_gan_g/G_synthesis/G_synthesis/8x8/Conv1/StyleModApply/strided_slice/stack_2", "shape": [2], "dtype": "int32"}, {"name": "StatefulPartitionedCall/style_gan_g/G_synthesis/G_synthesis/8x8/Conv1/StyleModApply/add/y", "shape": [], "dtype": "float32"}, {"name": "StatefulPartitionedCall/style_gan_g/G_synthesis/G_synthesis/8x8/Conv1/StridedSlice/strided_slice/stack", "shape": [2], "dtype": "int32"}, {"name": "StatefulPartitionedCall/style_gan_g/G_synthesis/G_synthesis/8x8/Conv1/StridedSlice/strided_slice/stack_1", "shape": [2], "dtype": "int32"}, {"name": "StatefulPartitionedCall/style_gan_g/G_synthesis/G_synthesis/8x8/Conv1/StridedSlice/strided_slice/stack_2", "shape": [2], "dtype": "int32"}, {"name": "StatefulPartitionedCall/style_gan_g/G_synthesis/G_synthesis/8x8/Conv1/StyleMod/mul_1", "shape": [512, 1024], "dtype": "float32"}, {"name": "StatefulPartitionedCall/style_gan_g/G_synthesis/G_synthesis/8x8/Conv1/StyleMod/mul", "shape": [1024], "dtype": "float32"}, {"name": "StatefulPartitionedCall/style_gan_g/G_synthesis/G_synthesis/8x8/Conv1/StyleModApply/Reshape/shape", "shape": [5], "dtype": "int32"}, {"name": "StatefulPartitionedCall/style_gan_g/G_synthesis/G_synthesis/8x8/Conv1/StyleModApply/strided_slice_1/stack", "shape": [2], "dtype": "int32"}, {"name": "StatefulPartitionedCall/style_gan_g/G_synthesis/G_synthesis/8x8/Conv1/StyleModApply/strided_slice_1/stack_1", "shape": [2], "dtype": "int32"}, {"name": "StatefulPartitionedCall/style_gan_g/G_synthesis/G_synthesis/8x8/Conv1/StyleModApply/strided_slice_1/stack_2", "shape": [2], "dtype": "int32"}, {"name": "StatefulPartitionedCall/style_gan_g/G_synthesis/G_synthesis/16x16/Conv0_up/Upscaled2d/Reshape/shape", "shape": [6], "dtype": "int32"}, {"name": "StatefulPartitionedCall/style_gan_g/G_synthesis/G_synthesis/16x16/Conv0_up/Upscaled2d/Tile/multiples", "shape": [6], "dtype": "int32"}, {"name": "StatefulPartitionedCall/style_gan_g/G_synthesis/G_synthesis/16x16/Conv0_up/Upscaled2d/Reshape_1/shape", "shape": [4], "dtype": "int32"}, {"name": "StatefulPartitionedCall/style_gan_g/G_synthesis/G_synthesis/16x16/Conv0_up/mul", "shape": [3, 3, 512, 512], "dtype": "float32"}, {"name": "StatefulPartitionedCall/style_gan_g/G_synthesis/G_synthesis/16x16/Conv0_up/Blur/filter", "shape": [3, 3, 512, 1], "dtype": "float32"}, {"name": "StatefulPartitionedCall/style_gan_g/G_synthesis/G_synthesis/16x16/Conv0_up/LeakyReLU/alpha", "shape": [], "dtype": "float32"}, {"name": "StatefulPartitionedCall/style_gan_g/G_synthesis/G_synthesis/16x16/Conv0_up/InstanceNorm/Mean/reduction_indices", "shape": [2], "dtype": "int32"}, {"name": "StatefulPartitionedCall/style_gan_g/G_synthesis/G_synthesis/16x16/Conv0_up/InstanceNorm/Mean_1/reduction_indices", "shape": [2], "dtype": "int32"}, {"name": "StatefulPartitionedCall/style_gan_g/G_synthesis/G_synthesis/16x16/Conv0_up/InstanceNorm/epsilon", "shape": [], "dtype": "float32"}, {"name": "StatefulPartitionedCall/style_gan_g/G_synthesis/G_synthesis/16x16/Conv0_up/StyleModApply/strided_slice/stack", "shape": [2], "dtype": "int32"}, {"name": "StatefulPartitionedCall/style_gan_g/G_synthesis/G_synthesis/16x16/Conv0_up/StyleModApply/strided_slice/stack_1", "shape": [2], "dtype": "int32"}, {"name": "StatefulPartitionedCall/style_gan_g/G_synthesis/G_synthesis/16x16/Conv0_up/StyleModApply/strided_slice/stack_2", "shape": [2], "dtype": "int32"}, {"name": "StatefulPartitionedCall/style_gan_g/G_synthesis/G_synthesis/16x16/Conv0_up/StyleModApply/add/y", "shape": [], "dtype": "float32"}, {"name": "StatefulPartitionedCall/style_gan_g/G_synthesis/G_synthesis/16x16/Conv0_up/StridedSlice/strided_slice/stack", "shape": [2], "dtype": "int32"}, {"name": "StatefulPartitionedCall/style_gan_g/G_synthesis/G_synthesis/16x16/Conv0_up/StridedSlice/strided_slice/stack_1", "shape": [2], "dtype": "int32"}, {"name": "StatefulPartitionedCall/style_gan_g/G_synthesis/G_synthesis/16x16/Conv0_up/StridedSlice/strided_slice/stack_2", "shape": [2], "dtype": "int32"}, {"name": "StatefulPartitionedCall/style_gan_g/G_synthesis/G_synthesis/16x16/Conv0_up/StyleMod/mul_1", "shape": [512, 1024], "dtype": "float32"}, {"name": "StatefulPartitionedCall/style_gan_g/G_synthesis/G_synthesis/16x16/Conv0_up/StyleMod/mul", "shape": [1024], "dtype": "float32"}, {"name": "StatefulPartitionedCall/style_gan_g/G_synthesis/G_synthesis/16x16/Conv0_up/StyleModApply/Reshape/shape", "shape": [5], "dtype": "int32"}, {"name": "StatefulPartitionedCall/style_gan_g/G_synthesis/G_synthesis/16x16/Conv0_up/StyleModApply/strided_slice_1/stack", "shape": [2], "dtype": "int32"}, {"name": "StatefulPartitionedCall/style_gan_g/G_synthesis/G_synthesis/16x16/Conv0_up/StyleModApply/strided_slice_1/stack_1", "shape": [2], "dtype": "int32"}, {"name": "StatefulPartitionedCall/style_gan_g/G_synthesis/G_synthesis/16x16/Conv0_up/StyleModApply/strided_slice_1/stack_2", "shape": [2], "dtype": "int32"}, {"name": "StatefulPartitionedCall/style_gan_g/G_synthesis/G_synthesis/16x16/Conv1/mul", "shape": [3, 3, 512, 512], "dtype": "float32"}, {"name": "StatefulPartitionedCall/style_gan_g/G_synthesis/G_synthesis/16x16/Conv1/LeakyReLU/alpha", "shape": [], "dtype": "float32"}, {"name": "StatefulPartitionedCall/style_gan_g/G_synthesis/G_synthesis/16x16/Conv1/InstanceNorm/Mean/reduction_indices", "shape": [2], "dtype": "int32"}, {"name": "StatefulPartitionedCall/style_gan_g/G_synthesis/G_synthesis/16x16/Conv1/InstanceNorm/Mean_1/reduction_indices", "shape": [2], "dtype": "int32"}, {"name": "StatefulPartitionedCall/style_gan_g/G_synthesis/G_synthesis/16x16/Conv1/InstanceNorm/epsilon", "shape": [], "dtype": "float32"}, {"name": "StatefulPartitionedCall/style_gan_g/G_synthesis/G_synthesis/16x16/Conv1/StyleModApply/strided_slice/stack", "shape": [2], "dtype": "int32"}, {"name": "StatefulPartitionedCall/style_gan_g/G_synthesis/G_synthesis/16x16/Conv1/StyleModApply/strided_slice/stack_1", "shape": [2], "dtype": "int32"}, {"name": "StatefulPartitionedCall/style_gan_g/G_synthesis/G_synthesis/16x16/Conv1/StyleModApply/strided_slice/stack_2", "shape": [2], "dtype": "int32"}, {"name": "StatefulPartitionedCall/style_gan_g/G_synthesis/G_synthesis/16x16/Conv1/StyleModApply/add/y", "shape": [], "dtype": "float32"}, {"name": "StatefulPartitionedCall/style_gan_g/G_synthesis/G_synthesis/16x16/Conv1/StridedSlice/strided_slice/stack", "shape": [2], "dtype": "int32"}, {"name": "StatefulPartitionedCall/style_gan_g/G_synthesis/G_synthesis/16x16/Conv1/StridedSlice/strided_slice/stack_1", "shape": [2], "dtype": "int32"}, {"name": "StatefulPartitionedCall/style_gan_g/G_synthesis/G_synthesis/16x16/Conv1/StridedSlice/strided_slice/stack_2", "shape": [2], "dtype": "int32"}, {"name": "StatefulPartitionedCall/style_gan_g/G_synthesis/G_synthesis/16x16/Conv1/StyleMod/mul_1", "shape": [512, 1024], "dtype": "float32"}, {"name": "StatefulPartitionedCall/style_gan_g/G_synthesis/G_synthesis/16x16/Conv1/StyleMod/mul", "shape": [1024], "dtype": "float32"}, {"name": "StatefulPartitionedCall/style_gan_g/G_synthesis/G_synthesis/16x16/Conv1/StyleModApply/Reshape/shape", "shape": [5], "dtype": "int32"}, {"name": "StatefulPartitionedCall/style_gan_g/G_synthesis/G_synthesis/16x16/Conv1/StyleModApply/strided_slice_1/stack", "shape": [2], "dtype": "int32"}, {"name": "StatefulPartitionedCall/style_gan_g/G_synthesis/G_synthesis/16x16/Conv1/StyleModApply/strided_slice_1/stack_1", "shape": [2], "dtype": "int32"}, {"name": "StatefulPartitionedCall/style_gan_g/G_synthesis/G_synthesis/16x16/Conv1/StyleModApply/strided_slice_1/stack_2", "shape": [2], "dtype": "int32"}, {"name": "StatefulPartitionedCall/style_gan_g/G_synthesis/G_synthesis/32x32/Conv0_up/Upscaled2d/Reshape/shape", "shape": [6], "dtype": "int32"}, {"name": "StatefulPartitionedCall/style_gan_g/G_synthesis/G_synthesis/32x32/Conv0_up/Upscaled2d/Tile/multiples", "shape": [6], "dtype": "int32"}, {"name": "StatefulPartitionedCall/style_gan_g/G_synthesis/G_synthesis/32x32/Conv0_up/Upscaled2d/Reshape_1/shape", "shape": [4], "dtype": "int32"}, {"name": "StatefulPartitionedCall/style_gan_g/G_synthesis/G_synthesis/32x32/Conv0_up/mul", "shape": [3, 3, 512, 512], "dtype": "float32"}, {"name": "StatefulPartitionedCall/style_gan_g/G_synthesis/G_synthesis/32x32/Conv0_up/Blur/filter", "shape": [3, 3, 512, 1], "dtype": "float32"}, {"name": "StatefulPartitionedCall/style_gan_g/G_synthesis/G_synthesis/32x32/Conv0_up/LeakyReLU/alpha", "shape": [], "dtype": "float32"}, {"name": "StatefulPartitionedCall/style_gan_g/G_synthesis/G_synthesis/32x32/Conv0_up/InstanceNorm/Mean/reduction_indices", "shape": [2], "dtype": "int32"}, {"name": "StatefulPartitionedCall/style_gan_g/G_synthesis/G_synthesis/32x32/Conv0_up/InstanceNorm/Mean_1/reduction_indices", "shape": [2], "dtype": "int32"}, {"name": "StatefulPartitionedCall/style_gan_g/G_synthesis/G_synthesis/32x32/Conv0_up/InstanceNorm/epsilon", "shape": [], "dtype": "float32"}, {"name": "StatefulPartitionedCall/style_gan_g/G_synthesis/G_synthesis/32x32/Conv0_up/StyleModApply/strided_slice/stack", "shape": [2], "dtype": "int32"}, {"name": "StatefulPartitionedCall/style_gan_g/G_synthesis/G_synthesis/32x32/Conv0_up/StyleModApply/strided_slice/stack_1", "shape": [2], "dtype": "int32"}, {"name": "StatefulPartitionedCall/style_gan_g/G_synthesis/G_synthesis/32x32/Conv0_up/StyleModApply/strided_slice/stack_2", "shape": [2], "dtype": "int32"}, {"name": "StatefulPartitionedCall/style_gan_g/G_synthesis/G_synthesis/32x32/Conv0_up/StyleModApply/add/y", "shape": [], "dtype": "float32"}, {"name": "StatefulPartitionedCall/style_gan_g/G_synthesis/G_synthesis/32x32/Conv0_up/StridedSlice/strided_slice/stack", "shape": [2], "dtype": "int32"}, {"name": "StatefulPartitionedCall/style_gan_g/G_synthesis/G_synthesis/32x32/Conv0_up/StridedSlice/strided_slice/stack_1", "shape": [2], "dtype": "int32"}, {"name": "StatefulPartitionedCall/style_gan_g/G_synthesis/G_synthesis/32x32/Conv0_up/StridedSlice/strided_slice/stack_2", "shape": [2], "dtype": "int32"}, {"name": "StatefulPartitionedCall/style_gan_g/G_synthesis/G_synthesis/32x32/Conv0_up/StyleMod/mul_1", "shape": [512, 1024], "dtype": "float32"}, {"name": "StatefulPartitionedCall/style_gan_g/G_synthesis/G_synthesis/32x32/Conv0_up/StyleMod/mul", "shape": [1024], "dtype": "float32"}, {"name": "StatefulPartitionedCall/style_gan_g/G_synthesis/G_synthesis/32x32/Conv0_up/StyleModApply/Reshape/shape", "shape": [5], "dtype": "int32"}, {"name": "StatefulPartitionedCall/style_gan_g/G_synthesis/G_synthesis/32x32/Conv0_up/StyleModApply/strided_slice_1/stack", "shape": [2], "dtype": "int32"}, {"name": "StatefulPartitionedCall/style_gan_g/G_synthesis/G_synthesis/32x32/Conv0_up/StyleModApply/strided_slice_1/stack_1", "shape": [2], "dtype": "int32"}, {"name": "StatefulPartitionedCall/style_gan_g/G_synthesis/G_synthesis/32x32/Conv0_up/StyleModApply/strided_slice_1/stack_2", "shape": [2], "dtype": "int32"}, {"name": "StatefulPartitionedCall/style_gan_g/G_synthesis/G_synthesis/32x32/Conv1/mul", "shape": [3, 3, 512, 512], "dtype": "float32"}, {"name": "StatefulPartitionedCall/style_gan_g/G_synthesis/G_synthesis/32x32/Conv1/LeakyReLU/alpha", "shape": [], "dtype": "float32"}, {"name": "StatefulPartitionedCall/style_gan_g/G_synthesis/G_synthesis/32x32/Conv1/InstanceNorm/Mean/reduction_indices", "shape": [2], "dtype": "int32"}, {"name": "StatefulPartitionedCall/style_gan_g/G_synthesis/G_synthesis/32x32/Conv1/InstanceNorm/Mean_1/reduction_indices", "shape": [2], "dtype": "int32"}, {"name": "StatefulPartitionedCall/style_gan_g/G_synthesis/G_synthesis/32x32/Conv1/InstanceNorm/epsilon", "shape": [], "dtype": "float32"}, {"name": "StatefulPartitionedCall/style_gan_g/G_synthesis/G_synthesis/32x32/Conv1/StyleModApply/strided_slice/stack", "shape": [2], "dtype": "int32"}, {"name": "StatefulPartitionedCall/style_gan_g/G_synthesis/G_synthesis/32x32/Conv1/StyleModApply/strided_slice/stack_1", "shape": [2], "dtype": "int32"}, {"name": "StatefulPartitionedCall/style_gan_g/G_synthesis/G_synthesis/32x32/Conv1/StyleModApply/strided_slice/stack_2", "shape": [2], "dtype": "int32"}, {"name": "StatefulPartitionedCall/style_gan_g/G_synthesis/G_synthesis/32x32/Conv1/StyleModApply/add/y", "shape": [], "dtype": "float32"}, {"name": "StatefulPartitionedCall/style_gan_g/G_synthesis/G_synthesis/32x32/Conv1/StridedSlice/strided_slice/stack", "shape": [2], "dtype": "int32"}, {"name": "StatefulPartitionedCall/style_gan_g/G_synthesis/G_synthesis/32x32/Conv1/StridedSlice/strided_slice/stack_1", "shape": [2], "dtype": "int32"}, {"name": "StatefulPartitionedCall/style_gan_g/G_synthesis/G_synthesis/32x32/Conv1/StridedSlice/strided_slice/stack_2", "shape": [2], "dtype": "int32"}, {"name": "StatefulPartitionedCall/style_gan_g/G_synthesis/G_synthesis/32x32/Conv1/StyleMod/mul_1", "shape": [512, 1024], "dtype": "float32"}, {"name": "StatefulPartitionedCall/style_gan_g/G_synthesis/G_synthesis/32x32/Conv1/StyleMod/mul", "shape": [1024], "dtype": "float32"}, {"name": "StatefulPartitionedCall/style_gan_g/G_synthesis/G_synthesis/32x32/Conv1/StyleModApply/Reshape/shape", "shape": [5], "dtype": "int32"}, {"name": "StatefulPartitionedCall/style_gan_g/G_synthesis/G_synthesis/32x32/Conv1/StyleModApply/strided_slice_1/stack", "shape": [2], "dtype": "int32"}, {"name": "StatefulPartitionedCall/style_gan_g/G_synthesis/G_synthesis/32x32/Conv1/StyleModApply/strided_slice_1/stack_1", "shape": [2], "dtype": "int32"}, {"name": "StatefulPartitionedCall/style_gan_g/G_synthesis/G_synthesis/32x32/Conv1/StyleModApply/strided_slice_1/stack_2", "shape": [2], "dtype": "int32"}, {"name": "StatefulPartitionedCall/style_gan_g/G_synthesis/G_synthesis/64x64/Conv0_up/Upscaled2d/Reshape/shape", "shape": [6], "dtype": "int32"}, {"name": "StatefulPartitionedCall/style_gan_g/G_synthesis/G_synthesis/64x64/Conv0_up/Upscaled2d/Tile/multiples", "shape": [6], "dtype": "int32"}, {"name": "StatefulPartitionedCall/style_gan_g/G_synthesis/G_synthesis/64x64/Conv0_up/Upscaled2d/Reshape_1/shape", "shape": [4], "dtype": "int32"}, {"name": "StatefulPartitionedCall/style_gan_g/G_synthesis/G_synthesis/64x64/Conv0_up/mul", "shape": [3, 3, 512, 256], "dtype": "float32"}, {"name": "StatefulPartitionedCall/style_gan_g/G_synthesis/G_synthesis/64x64/Conv0_up/Blur/filter", "shape": [3, 3, 256, 1], "dtype": "float32"}, {"name": "StatefulPartitionedCall/style_gan_g/G_synthesis/G_synthesis/64x64/Conv0_up/LeakyReLU/alpha", "shape": [], "dtype": "float32"}, {"name": "StatefulPartitionedCall/style_gan_g/G_synthesis/G_synthesis/64x64/Conv0_up/InstanceNorm/Mean/reduction_indices", "shape": [2], "dtype": "int32"}, {"name": "StatefulPartitionedCall/style_gan_g/G_synthesis/G_synthesis/64x64/Conv0_up/InstanceNorm/Mean_1/reduction_indices", "shape": [2], "dtype": "int32"}, {"name": "StatefulPartitionedCall/style_gan_g/G_synthesis/G_synthesis/64x64/Conv0_up/InstanceNorm/epsilon", "shape": [], "dtype": "float32"}, {"name": "StatefulPartitionedCall/style_gan_g/G_synthesis/G_synthesis/64x64/Conv0_up/StyleModApply/strided_slice/stack", "shape": [2], "dtype": "int32"}, {"name": "StatefulPartitionedCall/style_gan_g/G_synthesis/G_synthesis/64x64/Conv0_up/StyleModApply/strided_slice/stack_1", "shape": [2], "dtype": "int32"}, {"name": "StatefulPartitionedCall/style_gan_g/G_synthesis/G_synthesis/64x64/Conv0_up/StyleModApply/strided_slice/stack_2", "shape": [2], "dtype": "int32"}, {"name": "StatefulPartitionedCall/style_gan_g/G_synthesis/G_synthesis/64x64/Conv0_up/StyleModApply/add/y", "shape": [], "dtype": "float32"}, {"name": "StatefulPartitionedCall/style_gan_g/G_synthesis/G_synthesis/64x64/Conv0_up/StridedSlice/strided_slice/stack", "shape": [2], "dtype": "int32"}, {"name": "StatefulPartitionedCall/style_gan_g/G_synthesis/G_synthesis/64x64/Conv0_up/StridedSlice/strided_slice/stack_1", "shape": [2], "dtype": "int32"}, {"name": "StatefulPartitionedCall/style_gan_g/G_synthesis/G_synthesis/64x64/Conv0_up/StridedSlice/strided_slice/stack_2", "shape": [2], "dtype": "int32"}, {"name": "StatefulPartitionedCall/style_gan_g/G_synthesis/G_synthesis/64x64/Conv0_up/StyleMod/mul_1", "shape": [512, 512], "dtype": "float32"}, {"name": "StatefulPartitionedCall/style_gan_g/G_synthesis/G_synthesis/64x64/Conv0_up/StyleMod/mul", "shape": [512], "dtype": "float32"}, {"name": "StatefulPartitionedCall/style_gan_g/G_synthesis/G_synthesis/64x64/Conv0_up/StyleModApply/Reshape/shape", "shape": [5], "dtype": "int32"}, {"name": "StatefulPartitionedCall/style_gan_g/G_synthesis/G_synthesis/64x64/Conv0_up/StyleModApply/strided_slice_1/stack", "shape": [2], "dtype": "int32"}, {"name": "StatefulPartitionedCall/style_gan_g/G_synthesis/G_synthesis/64x64/Conv0_up/StyleModApply/strided_slice_1/stack_1", "shape": [2], "dtype": "int32"}, {"name": "StatefulPartitionedCall/style_gan_g/G_synthesis/G_synthesis/64x64/Conv0_up/StyleModApply/strided_slice_1/stack_2", "shape": [2], "dtype": "int32"}, {"name": "StatefulPartitionedCall/style_gan_g/G_synthesis/G_synthesis/64x64/Conv1/mul", "shape": [3, 3, 256, 256], "dtype": "float32"}, {"name": "StatefulPartitionedCall/style_gan_g/G_synthesis/G_synthesis/64x64/Conv1/LeakyReLU/alpha", "shape": [], "dtype": "float32"}, {"name": "StatefulPartitionedCall/style_gan_g/G_synthesis/G_synthesis/64x64/Conv1/InstanceNorm/Mean/reduction_indices", "shape": [2], "dtype": "int32"}, {"name": "StatefulPartitionedCall/style_gan_g/G_synthesis/G_synthesis/64x64/Conv1/InstanceNorm/Mean_1/reduction_indices", "shape": [2], "dtype": "int32"}, {"name": "StatefulPartitionedCall/style_gan_g/G_synthesis/G_synthesis/64x64/Conv1/InstanceNorm/epsilon", "shape": [], "dtype": "float32"}, {"name": "StatefulPartitionedCall/style_gan_g/G_synthesis/G_synthesis/64x64/Conv1/StyleModApply/strided_slice/stack", "shape": [2], "dtype": "int32"}, {"name": "StatefulPartitionedCall/style_gan_g/G_synthesis/G_synthesis/64x64/Conv1/StyleModApply/strided_slice/stack_1", "shape": [2], "dtype": "int32"}, {"name": "StatefulPartitionedCall/style_gan_g/G_synthesis/G_synthesis/64x64/Conv1/StyleModApply/strided_slice/stack_2", "shape": [2], "dtype": "int32"}, {"name": "StatefulPartitionedCall/style_gan_g/G_synthesis/G_synthesis/64x64/Conv1/StyleModApply/add/y", "shape": [], "dtype": "float32"}, {"name": "StatefulPartitionedCall/style_gan_g/G_synthesis/G_synthesis/64x64/Conv1/StridedSlice/strided_slice/stack", "shape": [2], "dtype": "int32"}, {"name": "StatefulPartitionedCall/style_gan_g/G_synthesis/G_synthesis/64x64/Conv1/StridedSlice/strided_slice/stack_1", "shape": [2], "dtype": "int32"}, {"name": "StatefulPartitionedCall/style_gan_g/G_synthesis/G_synthesis/64x64/Conv1/StridedSlice/strided_slice/stack_2", "shape": [2], "dtype": "int32"}, {"name": "StatefulPartitionedCall/style_gan_g/G_synthesis/G_synthesis/64x64/Conv1/StyleMod/mul_1", "shape": [512, 512], "dtype": "float32"}, {"name": "StatefulPartitionedCall/style_gan_g/G_synthesis/G_synthesis/64x64/Conv1/StyleMod/mul", "shape": [512], "dtype": "float32"}, {"name": "StatefulPartitionedCall/style_gan_g/G_synthesis/G_synthesis/64x64/Conv1/StyleModApply/Reshape/shape", "shape": [5], "dtype": "int32"}, {"name": "StatefulPartitionedCall/style_gan_g/G_synthesis/G_synthesis/64x64/Conv1/StyleModApply/strided_slice_1/stack", "shape": [2], "dtype": "int32"}, {"name": "StatefulPartitionedCall/style_gan_g/G_synthesis/G_synthesis/64x64/Conv1/StyleModApply/strided_slice_1/stack_1", "shape": [2], "dtype": "int32"}, {"name": "StatefulPartitionedCall/style_gan_g/G_synthesis/G_synthesis/64x64/Conv1/StyleModApply/strided_slice_1/stack_2", "shape": [2], "dtype": "int32"}, {"name": "StatefulPartitionedCall/style_gan_g/G_synthesis/G_synthesis/128x128/Conv0_up/Blur/filter", "shape": [3, 3, 128, 1], "dtype": "float32"}, {"name": "StatefulPartitionedCall/style_gan_g/G_synthesis/G_synthesis/128x128/Conv0_up/LeakyReLU/alpha", "shape": [], "dtype": "float32"}, {"name": "StatefulPartitionedCall/style_gan_g/G_synthesis/G_synthesis/128x128/Conv0_up/InstanceNorm/Mean/reduction_indices", "shape": [2], "dtype": "int32"}, {"name": "StatefulPartitionedCall/style_gan_g/G_synthesis/G_synthesis/128x128/Conv0_up/InstanceNorm/Mean_1/reduction_indices", "shape": [2], "dtype": "int32"}, {"name": "StatefulPartitionedCall/style_gan_g/G_synthesis/G_synthesis/128x128/Conv0_up/InstanceNorm/epsilon", "shape": [], "dtype": "float32"}, {"name": "StatefulPartitionedCall/style_gan_g/G_synthesis/G_synthesis/128x128/Conv0_up/StyleModApply/strided_slice/stack", "shape": [2], "dtype": "int32"}, {"name": "StatefulPartitionedCall/style_gan_g/G_synthesis/G_synthesis/128x128/Conv0_up/StyleModApply/strided_slice/stack_1", "shape": [2], "dtype": "int32"}, {"name": "StatefulPartitionedCall/style_gan_g/G_synthesis/G_synthesis/128x128/Conv0_up/StyleModApply/strided_slice/stack_2", "shape": [2], "dtype": "int32"}, {"name": "StatefulPartitionedCall/style_gan_g/G_synthesis/G_synthesis/128x128/Conv0_up/StyleModApply/add/y", "shape": [], "dtype": "float32"}, {"name": "StatefulPartitionedCall/style_gan_g/G_synthesis/G_synthesis/128x128/Conv0_up/StridedSlice/strided_slice/stack", "shape": [2], "dtype": "int32"}, {"name": "StatefulPartitionedCall/style_gan_g/G_synthesis/G_synthesis/128x128/Conv0_up/StridedSlice/strided_slice/stack_1", "shape": [2], "dtype": "int32"}, {"name": "StatefulPartitionedCall/style_gan_g/G_synthesis/G_synthesis/128x128/Conv0_up/StridedSlice/strided_slice/stack_2", "shape": [2], "dtype": "int32"}, {"name": "StatefulPartitionedCall/style_gan_g/G_synthesis/G_synthesis/128x128/Conv0_up/StyleMod/mul_1", "shape": [512, 256], "dtype": "float32"}, {"name": "StatefulPartitionedCall/style_gan_g/G_synthesis/G_synthesis/128x128/Conv0_up/StyleMod/mul", "shape": [256], "dtype": "float32"}, {"name": "StatefulPartitionedCall/style_gan_g/G_synthesis/G_synthesis/128x128/Conv0_up/StyleModApply/Reshape/shape", "shape": [5], "dtype": "int32"}, {"name": "StatefulPartitionedCall/style_gan_g/G_synthesis/G_synthesis/128x128/Conv0_up/StyleModApply/strided_slice_1/stack", "shape": [2], "dtype": "int32"}, {"name": "StatefulPartitionedCall/style_gan_g/G_synthesis/G_synthesis/128x128/Conv0_up/StyleModApply/strided_slice_1/stack_1", "shape": [2], "dtype": "int32"}, {"name": "StatefulPartitionedCall/style_gan_g/G_synthesis/G_synthesis/128x128/Conv0_up/StyleModApply/strided_slice_1/stack_2", "shape": [2], "dtype": "int32"}, {"name": "StatefulPartitionedCall/style_gan_g/G_synthesis/G_synthesis/128x128/Conv1/mul", "shape": [3, 3, 128, 128], "dtype": "float32"}, {"name": "StatefulPartitionedCall/style_gan_g/G_synthesis/G_synthesis/128x128/Conv1/LeakyReLU/alpha", "shape": [], "dtype": "float32"}, {"name": "StatefulPartitionedCall/style_gan_g/G_synthesis/G_synthesis/128x128/Conv1/InstanceNorm/Mean/reduction_indices", "shape": [2], "dtype": "int32"}, {"name": "StatefulPartitionedCall/style_gan_g/G_synthesis/G_synthesis/128x128/Conv1/InstanceNorm/Mean_1/reduction_indices", "shape": [2], "dtype": "int32"}, {"name": "StatefulPartitionedCall/style_gan_g/G_synthesis/G_synthesis/128x128/Conv1/InstanceNorm/epsilon", "shape": [], "dtype": "float32"}, {"name": "StatefulPartitionedCall/style_gan_g/G_synthesis/G_synthesis/128x128/Conv1/StyleModApply/strided_slice/stack", "shape": [2], "dtype": "int32"}, {"name": "StatefulPartitionedCall/style_gan_g/G_synthesis/G_synthesis/128x128/Conv1/StyleModApply/strided_slice/stack_1", "shape": [2], "dtype": "int32"}, {"name": "StatefulPartitionedCall/style_gan_g/G_synthesis/G_synthesis/128x128/Conv1/StyleModApply/strided_slice/stack_2", "shape": [2], "dtype": "int32"}, {"name": "StatefulPartitionedCall/style_gan_g/G_synthesis/G_synthesis/128x128/Conv1/StyleModApply/add/y", "shape": [], "dtype": "float32"}, {"name": "StatefulPartitionedCall/style_gan_g/G_synthesis/G_synthesis/128x128/Conv1/StridedSlice/strided_slice/stack", "shape": [2], "dtype": "int32"}, {"name": "StatefulPartitionedCall/style_gan_g/G_synthesis/G_synthesis/128x128/Conv1/StridedSlice/strided_slice/stack_1", "shape": [2], "dtype": "int32"}, {"name": "StatefulPartitionedCall/style_gan_g/G_synthesis/G_synthesis/128x128/Conv1/StridedSlice/strided_slice/stack_2", "shape": [2], "dtype": "int32"}, {"name": "StatefulPartitionedCall/style_gan_g/G_synthesis/G_synthesis/128x128/Conv1/StyleMod/mul_1", "shape": [512, 256], "dtype": "float32"}, {"name": "StatefulPartitionedCall/style_gan_g/G_synthesis/G_synthesis/128x128/Conv1/StyleMod/mul", "shape": [256], "dtype": "float32"}, {"name": "StatefulPartitionedCall/style_gan_g/G_synthesis/G_synthesis/128x128/Conv1/StyleModApply/Reshape/shape", "shape": [5], "dtype": "int32"}, {"name": "StatefulPartitionedCall/style_gan_g/G_synthesis/G_synthesis/128x128/Conv1/StyleModApply/strided_slice_1/stack", "shape": [2], "dtype": "int32"}, {"name": "StatefulPartitionedCall/style_gan_g/G_synthesis/G_synthesis/128x128/Conv1/StyleModApply/strided_slice_1/stack_1", "shape": [2], "dtype": "int32"}, {"name": "StatefulPartitionedCall/style_gan_g/G_synthesis/G_synthesis/128x128/Conv1/StyleModApply/strided_slice_1/stack_2", "shape": [2], "dtype": "int32"}, {"name": "StatefulPartitionedCall/style_gan_g/G_synthesis/G_synthesis/256x256/Conv0_up/Blur/filter", "shape": [3, 3, 64, 1], "dtype": "float32"}, {"name": "StatefulPartitionedCall/style_gan_g/G_synthesis/G_synthesis/256x256/Conv0_up/LeakyReLU/alpha", "shape": [], "dtype": "float32"}, {"name": "StatefulPartitionedCall/style_gan_g/G_synthesis/G_synthesis/256x256/Conv0_up/InstanceNorm/Mean/reduction_indices", "shape": [2], "dtype": "int32"}, {"name": "StatefulPartitionedCall/style_gan_g/G_synthesis/G_synthesis/256x256/Conv0_up/InstanceNorm/Mean_1/reduction_indices", "shape": [2], "dtype": "int32"}, {"name": "StatefulPartitionedCall/style_gan_g/G_synthesis/G_synthesis/256x256/Conv0_up/InstanceNorm/epsilon", "shape": [], "dtype": "float32"}, {"name": "StatefulPartitionedCall/style_gan_g/G_synthesis/G_synthesis/256x256/Conv0_up/StyleModApply/strided_slice/stack", "shape": [2], "dtype": "int32"}, {"name": "StatefulPartitionedCall/style_gan_g/G_synthesis/G_synthesis/256x256/Conv0_up/StyleModApply/strided_slice/stack_1", "shape": [2], "dtype": "int32"}, {"name": "StatefulPartitionedCall/style_gan_g/G_synthesis/G_synthesis/256x256/Conv0_up/StyleModApply/strided_slice/stack_2", "shape": [2], "dtype": "int32"}, {"name": "StatefulPartitionedCall/style_gan_g/G_synthesis/G_synthesis/256x256/Conv0_up/StyleModApply/add/y", "shape": [], "dtype": "float32"}, {"name": "StatefulPartitionedCall/style_gan_g/G_synthesis/G_synthesis/256x256/Conv0_up/StridedSlice/strided_slice/stack", "shape": [2], "dtype": "int32"}, {"name": "StatefulPartitionedCall/style_gan_g/G_synthesis/G_synthesis/256x256/Conv0_up/StridedSlice/strided_slice/stack_1", "shape": [2], "dtype": "int32"}, {"name": "StatefulPartitionedCall/style_gan_g/G_synthesis/G_synthesis/256x256/Conv0_up/StridedSlice/strided_slice/stack_2", "shape": [2], "dtype": "int32"}, {"name": "StatefulPartitionedCall/style_gan_g/G_synthesis/G_synthesis/256x256/Conv0_up/StyleMod/mul_1", "shape": [512, 128], "dtype": "float32"}, {"name": "StatefulPartitionedCall/style_gan_g/G_synthesis/G_synthesis/256x256/Conv0_up/StyleMod/mul", "shape": [128], "dtype": "float32"}, {"name": "StatefulPartitionedCall/style_gan_g/G_synthesis/G_synthesis/256x256/Conv0_up/StyleModApply/Reshape/shape", "shape": [5], "dtype": "int32"}, {"name": "StatefulPartitionedCall/style_gan_g/G_synthesis/G_synthesis/256x256/Conv0_up/StyleModApply/strided_slice_1/stack", "shape": [2], "dtype": "int32"}, {"name": "StatefulPartitionedCall/style_gan_g/G_synthesis/G_synthesis/256x256/Conv0_up/StyleModApply/strided_slice_1/stack_1", "shape": [2], "dtype": "int32"}, {"name": "StatefulPartitionedCall/style_gan_g/G_synthesis/G_synthesis/256x256/Conv0_up/StyleModApply/strided_slice_1/stack_2", "shape": [2], "dtype": "int32"}, {"name": "StatefulPartitionedCall/style_gan_g/G_synthesis/G_synthesis/256x256/Conv1/mul", "shape": [3, 3, 64, 64], "dtype": "float32"}, {"name": "StatefulPartitionedCall/style_gan_g/G_synthesis/G_synthesis/256x256/Conv1/LeakyReLU/alpha", "shape": [], "dtype": "float32"}, {"name": "StatefulPartitionedCall/style_gan_g/G_synthesis/G_synthesis/256x256/Conv1/InstanceNorm/Mean/reduction_indices", "shape": [2], "dtype": "int32"}, {"name": "StatefulPartitionedCall/style_gan_g/G_synthesis/G_synthesis/256x256/Conv1/InstanceNorm/Mean_1/reduction_indices", "shape": [2], "dtype": "int32"}, {"name": "StatefulPartitionedCall/style_gan_g/G_synthesis/G_synthesis/256x256/Conv1/InstanceNorm/epsilon", "shape": [], "dtype": "float32"}, {"name": "StatefulPartitionedCall/style_gan_g/G_synthesis/G_synthesis/256x256/Conv1/StyleModApply/strided_slice/stack", "shape": [2], "dtype": "int32"}, {"name": "StatefulPartitionedCall/style_gan_g/G_synthesis/G_synthesis/256x256/Conv1/StyleModApply/strided_slice/stack_1", "shape": [2], "dtype": "int32"}, {"name": "StatefulPartitionedCall/style_gan_g/G_synthesis/G_synthesis/256x256/Conv1/StyleModApply/strided_slice/stack_2", "shape": [2], "dtype": "int32"}, {"name": "StatefulPartitionedCall/style_gan_g/G_synthesis/G_synthesis/256x256/Conv1/StyleModApply/add/y", "shape": [], "dtype": "float32"}, {"name": "StatefulPartitionedCall/style_gan_g/G_synthesis/G_synthesis/256x256/Conv1/StridedSlice/strided_slice/stack", "shape": [2], "dtype": "int32"}, {"name": "StatefulPartitionedCall/style_gan_g/G_synthesis/G_synthesis/256x256/Conv1/StridedSlice/strided_slice/stack_1", "shape": [2], "dtype": "int32"}, {"name": "StatefulPartitionedCall/style_gan_g/G_synthesis/G_synthesis/256x256/Conv1/StridedSlice/strided_slice/stack_2", "shape": [2], "dtype": "int32"}, {"name": "StatefulPartitionedCall/style_gan_g/G_synthesis/G_synthesis/256x256/Conv1/StyleMod/mul_1", "shape": [512, 128], "dtype": "float32"}, {"name": "StatefulPartitionedCall/style_gan_g/G_synthesis/G_synthesis/256x256/Conv1/StyleMod/mul", "shape": [128], "dtype": "float32"}, {"name": "StatefulPartitionedCall/style_gan_g/G_synthesis/G_synthesis/256x256/Conv1/StyleModApply/Reshape/shape", "shape": [5], "dtype": "int32"}, {"name": "StatefulPartitionedCall/style_gan_g/G_synthesis/G_synthesis/256x256/Conv1/StyleModApply/strided_slice_1/stack", "shape": [2], "dtype": "int32"}, {"name": "StatefulPartitionedCall/style_gan_g/G_synthesis/G_synthesis/256x256/Conv1/StyleModApply/strided_slice_1/stack_1", "shape": [2], "dtype": "int32"}, {"name": "StatefulPartitionedCall/style_gan_g/G_synthesis/G_synthesis/256x256/Conv1/StyleModApply/strided_slice_1/stack_2", "shape": [2], "dtype": "int32"}, {"name": "StatefulPartitionedCall/style_gan_g/G_synthesis/G_synthesis/512x512/Conv0_up/Blur/filter", "shape": [3, 3, 32, 1], "dtype": "float32"}, {"name": "StatefulPartitionedCall/style_gan_g/G_synthesis/G_synthesis/512x512/Conv0_up/LeakyReLU/alpha", "shape": [], "dtype": "float32"}, {"name": "StatefulPartitionedCall/style_gan_g/G_synthesis/G_synthesis/512x512/Conv0_up/InstanceNorm/Mean/reduction_indices", "shape": [2], "dtype": "int32"}, {"name": "StatefulPartitionedCall/style_gan_g/G_synthesis/G_synthesis/512x512/Conv0_up/InstanceNorm/Mean_1/reduction_indices", "shape": [2], "dtype": "int32"}, {"name": "StatefulPartitionedCall/style_gan_g/G_synthesis/G_synthesis/512x512/Conv0_up/InstanceNorm/epsilon", "shape": [], "dtype": "float32"}, {"name": "StatefulPartitionedCall/style_gan_g/G_synthesis/G_synthesis/512x512/Conv0_up/StyleModApply/strided_slice/stack", "shape": [2], "dtype": "int32"}, {"name": "StatefulPartitionedCall/style_gan_g/G_synthesis/G_synthesis/512x512/Conv0_up/StyleModApply/strided_slice/stack_1", "shape": [2], "dtype": "int32"}, {"name": "StatefulPartitionedCall/style_gan_g/G_synthesis/G_synthesis/512x512/Conv0_up/StyleModApply/strided_slice/stack_2", "shape": [2], "dtype": "int32"}, {"name": "StatefulPartitionedCall/style_gan_g/G_synthesis/G_synthesis/512x512/Conv0_up/StyleModApply/add/y", "shape": [], "dtype": "float32"}, {"name": "StatefulPartitionedCall/style_gan_g/G_synthesis/G_synthesis/512x512/Conv0_up/StridedSlice/strided_slice/stack", "shape": [2], "dtype": "int32"}, {"name": "StatefulPartitionedCall/style_gan_g/G_synthesis/G_synthesis/512x512/Conv0_up/StridedSlice/strided_slice/stack_1", "shape": [2], "dtype": "int32"}, {"name": "StatefulPartitionedCall/style_gan_g/G_synthesis/G_synthesis/512x512/Conv0_up/StridedSlice/strided_slice/stack_2", "shape": [2], "dtype": "int32"}, {"name": "StatefulPartitionedCall/style_gan_g/G_synthesis/G_synthesis/512x512/Conv0_up/StyleMod/mul_1", "shape": [512, 64], "dtype": "float32"}, {"name": "StatefulPartitionedCall/style_gan_g/G_synthesis/G_synthesis/512x512/Conv0_up/StyleMod/mul", "shape": [64], "dtype": "float32"}, {"name": "StatefulPartitionedCall/style_gan_g/G_synthesis/G_synthesis/512x512/Conv0_up/StyleModApply/Reshape/shape", "shape": [5], "dtype": "int32"}, {"name": "StatefulPartitionedCall/style_gan_g/G_synthesis/G_synthesis/512x512/Conv0_up/StyleModApply/strided_slice_1/stack", "shape": [2], "dtype": "int32"}, {"name": "StatefulPartitionedCall/style_gan_g/G_synthesis/G_synthesis/512x512/Conv0_up/StyleModApply/strided_slice_1/stack_1", "shape": [2], "dtype": "int32"}, {"name": "StatefulPartitionedCall/style_gan_g/G_synthesis/G_synthesis/512x512/Conv0_up/StyleModApply/strided_slice_1/stack_2", "shape": [2], "dtype": "int32"}, {"name": "StatefulPartitionedCall/style_gan_g/G_synthesis/G_synthesis/512x512/Conv1/mul", "shape": [3, 3, 32, 32], "dtype": "float32"}, {"name": "StatefulPartitionedCall/style_gan_g/G_synthesis/G_synthesis/512x512/Conv1/LeakyReLU/alpha", "shape": [], "dtype": "float32"}, {"name": "StatefulPartitionedCall/style_gan_g/G_synthesis/G_synthesis/512x512/Conv1/InstanceNorm/Mean/reduction_indices", "shape": [2], "dtype": "int32"}, {"name": "StatefulPartitionedCall/style_gan_g/G_synthesis/G_synthesis/512x512/Conv1/InstanceNorm/Mean_1/reduction_indices", "shape": [2], "dtype": "int32"}, {"name": "StatefulPartitionedCall/style_gan_g/G_synthesis/G_synthesis/512x512/Conv1/InstanceNorm/epsilon", "shape": [], "dtype": "float32"}, {"name": "StatefulPartitionedCall/style_gan_g/G_synthesis/G_synthesis/512x512/Conv1/StyleModApply/strided_slice/stack", "shape": [2], "dtype": "int32"}, {"name": "StatefulPartitionedCall/style_gan_g/G_synthesis/G_synthesis/512x512/Conv1/StyleModApply/strided_slice/stack_1", "shape": [2], "dtype": "int32"}, {"name": "StatefulPartitionedCall/style_gan_g/G_synthesis/G_synthesis/512x512/Conv1/StyleModApply/strided_slice/stack_2", "shape": [2], "dtype": "int32"}, {"name": "StatefulPartitionedCall/style_gan_g/G_synthesis/G_synthesis/512x512/Conv1/StyleModApply/add/y", "shape": [], "dtype": "float32"}, {"name": "StatefulPartitionedCall/style_gan_g/G_synthesis/G_synthesis/512x512/Conv1/StridedSlice/strided_slice/stack", "shape": [2], "dtype": "int32"}, {"name": "StatefulPartitionedCall/style_gan_g/G_synthesis/G_synthesis/512x512/Conv1/StridedSlice/strided_slice/stack_1", "shape": [2], "dtype": "int32"}, {"name": "StatefulPartitionedCall/style_gan_g/G_synthesis/G_synthesis/512x512/Conv1/StridedSlice/strided_slice/stack_2", "shape": [2], "dtype": "int32"}, {"name": "StatefulPartitionedCall/style_gan_g/G_synthesis/G_synthesis/512x512/Conv1/StyleMod/mul_1", "shape": [512, 64], "dtype": "float32"}, {"name": "StatefulPartitionedCall/style_gan_g/G_synthesis/G_synthesis/512x512/Conv1/StyleMod/mul", "shape": [64], "dtype": "float32"}, {"name": "StatefulPartitionedCall/style_gan_g/G_synthesis/G_synthesis/512x512/Conv1/StyleModApply/Reshape/shape", "shape": [5], "dtype": "int32"}, {"name": "StatefulPartitionedCall/style_gan_g/G_synthesis/G_synthesis/512x512/Conv1/StyleModApply/strided_slice_1/stack", "shape": [2], "dtype": "int32"}, {"name": "StatefulPartitionedCall/style_gan_g/G_synthesis/G_synthesis/512x512/Conv1/StyleModApply/strided_slice_1/stack_1", "shape": [2], "dtype": "int32"}, {"name": "StatefulPartitionedCall/style_gan_g/G_synthesis/G_synthesis/512x512/Conv1/StyleModApply/strided_slice_1/stack_2", "shape": [2], "dtype": "int32"}, {"name": "StatefulPartitionedCall/style_gan_g/G_synthesis/G_synthesis/1024x1024/Conv0_up/Blur/filter", "shape": [3, 3, 16, 1], "dtype": "float32"}, {"name": "StatefulPartitionedCall/style_gan_g/G_synthesis/G_synthesis/1024x1024/Conv0_up/LeakyReLU/alpha", "shape": [], "dtype": "float32"}, {"name": "StatefulPartitionedCall/style_gan_g/G_synthesis/G_synthesis/1024x1024/Conv0_up/InstanceNorm/Mean/reduction_indices", "shape": [2], "dtype": "int32"}, {"name": "StatefulPartitionedCall/style_gan_g/G_synthesis/G_synthesis/1024x1024/Conv0_up/InstanceNorm/Mean_1/reduction_indices", "shape": [2], "dtype": "int32"}, {"name": "StatefulPartitionedCall/style_gan_g/G_synthesis/G_synthesis/1024x1024/Conv0_up/InstanceNorm/epsilon", "shape": [], "dtype": "float32"}, {"name": "StatefulPartitionedCall/style_gan_g/G_synthesis/G_synthesis/1024x1024/Conv0_up/StyleModApply/strided_slice/stack", "shape": [2], "dtype": "int32"}, {"name": "StatefulPartitionedCall/style_gan_g/G_synthesis/G_synthesis/1024x1024/Conv0_up/StyleModApply/strided_slice/stack_1", "shape": [2], "dtype": "int32"}, {"name": "StatefulPartitionedCall/style_gan_g/G_synthesis/G_synthesis/1024x1024/Conv0_up/StyleModApply/strided_slice/stack_2", "shape": [2], "dtype": "int32"}, {"name": "StatefulPartitionedCall/style_gan_g/G_synthesis/G_synthesis/1024x1024/Conv0_up/StyleModApply/add/y", "shape": [], "dtype": "float32"}, {"name": "StatefulPartitionedCall/style_gan_g/G_synthesis/G_synthesis/1024x1024/Conv0_up/StridedSlice/strided_slice/stack", "shape": [2], "dtype": "int32"}, {"name": "StatefulPartitionedCall/style_gan_g/G_synthesis/G_synthesis/1024x1024/Conv0_up/StridedSlice/strided_slice/stack_1", "shape": [2], "dtype": "int32"}, {"name": "StatefulPartitionedCall/style_gan_g/G_synthesis/G_synthesis/1024x1024/Conv0_up/StridedSlice/strided_slice/stack_2", "shape": [2], "dtype": "int32"}, {"name": "StatefulPartitionedCall/style_gan_g/G_synthesis/G_synthesis/1024x1024/Conv0_up/StyleMod/mul_1", "shape": [512, 32], "dtype": "float32"}, {"name": "StatefulPartitionedCall/style_gan_g/G_synthesis/G_synthesis/1024x1024/Conv0_up/StyleMod/mul", "shape": [32], "dtype": "float32"}, {"name": "StatefulPartitionedCall/style_gan_g/G_synthesis/G_synthesis/1024x1024/Conv0_up/StyleModApply/Reshape/shape", "shape": [5], "dtype": "int32"}, {"name": "StatefulPartitionedCall/style_gan_g/G_synthesis/G_synthesis/1024x1024/Conv0_up/StyleModApply/strided_slice_1/stack", "shape": [2], "dtype": "int32"}, {"name": "StatefulPartitionedCall/style_gan_g/G_synthesis/G_synthesis/1024x1024/Conv0_up/StyleModApply/strided_slice_1/stack_1", "shape": [2], "dtype": "int32"}, {"name": "StatefulPartitionedCall/style_gan_g/G_synthesis/G_synthesis/1024x1024/Conv0_up/StyleModApply/strided_slice_1/stack_2", "shape": [2], "dtype": "int32"}, {"name": "StatefulPartitionedCall/style_gan_g/G_synthesis/G_synthesis/1024x1024/Conv1/mul", "shape": [3, 3, 16, 16], "dtype": "float32"}, {"name": "StatefulPartitionedCall/style_gan_g/G_synthesis/G_synthesis/1024x1024/Conv1/LeakyReLU/alpha", "shape": [], "dtype": "float32"}, {"name": "StatefulPartitionedCall/style_gan_g/G_synthesis/G_synthesis/1024x1024/Conv1/InstanceNorm/Mean/reduction_indices", "shape": [2], "dtype": "int32"}, {"name": "StatefulPartitionedCall/style_gan_g/G_synthesis/G_synthesis/1024x1024/Conv1/InstanceNorm/Mean_1/reduction_indices", "shape": [2], "dtype": "int32"}, {"name": "StatefulPartitionedCall/style_gan_g/G_synthesis/G_synthesis/1024x1024/Conv1/InstanceNorm/epsilon", "shape": [], "dtype": "float32"}, {"name": "StatefulPartitionedCall/style_gan_g/G_synthesis/G_synthesis/1024x1024/Conv1/StyleModApply/strided_slice/stack", "shape": [2], "dtype": "int32"}, {"name": "StatefulPartitionedCall/style_gan_g/G_synthesis/G_synthesis/1024x1024/Conv1/StyleModApply/strided_slice/stack_1", "shape": [2], "dtype": "int32"}, {"name": "StatefulPartitionedCall/style_gan_g/G_synthesis/G_synthesis/1024x1024/Conv1/StyleModApply/strided_slice/stack_2", "shape": [2], "dtype": "int32"}, {"name": "StatefulPartitionedCall/style_gan_g/G_synthesis/G_synthesis/1024x1024/Conv1/StyleModApply/add/y", "shape": [], "dtype": "float32"}, {"name": "StatefulPartitionedCall/style_gan_g/G_mapping/Truncation/ReadVariableOp", "shape": [512], "dtype": "float32"}, {"name": "StatefulPartitionedCall/style_gan_g/G_mapping/G_mapping/PixelNorm/Mean/reduction_indices", "shape": [], "dtype": "int32"}, {"name": "StatefulPartitionedCall/style_gan_g/G_mapping/G_mapping/PixelNorm/epsilon", "shape": [], "dtype": "float32"}, {"name": "StatefulPartitionedCall/style_gan_g/G_mapping/G_mapping/Dense0/mul_1", "shape": [512, 512], "dtype": "float32"}, {"name": "StatefulPartitionedCall/style_gan_g/G_mapping/G_mapping/Dense0/mul", "shape": [512], "dtype": "float32"}, {"name": "StatefulPartitionedCall/style_gan_g/G_mapping/G_mapping/Dense0/LeakyReLU/alpha", "shape": [], "dtype": "float32"}, {"name": "StatefulPartitionedCall/style_gan_g/G_mapping/G_mapping/Dense1/mul_1", "shape": [512, 512], "dtype": "float32"}, {"name": "StatefulPartitionedCall/style_gan_g/G_mapping/G_mapping/Dense1/mul", "shape": [512], "dtype": "float32"}, {"name": "StatefulPartitionedCall/style_gan_g/G_mapping/G_mapping/Dense1/LeakyReLU/alpha", "shape": [], "dtype": "float32"}, {"name": "StatefulPartitionedCall/style_gan_g/G_mapping/G_mapping/Dense2/mul_1", "shape": [512, 512], "dtype": "float32"}, {"name": "StatefulPartitionedCall/style_gan_g/G_mapping/G_mapping/Dense2/mul", "shape": [512], "dtype": "float32"}, {"name": "StatefulPartitionedCall/style_gan_g/G_mapping/G_mapping/Dense2/LeakyReLU/alpha", "shape": [], "dtype": "float32"}, {"name": "StatefulPartitionedCall/style_gan_g/G_mapping/G_mapping/Dense3/mul_1", "shape": [512, 512], "dtype": "float32"}, {"name": "StatefulPartitionedCall/style_gan_g/G_mapping/G_mapping/Dense3/mul", "shape": [512], "dtype": "float32"}, {"name": "StatefulPartitionedCall/style_gan_g/G_mapping/G_mapping/Dense3/LeakyReLU/alpha", "shape": [], "dtype": "float32"}, {"name": "StatefulPartitionedCall/style_gan_g/G_mapping/G_mapping/Dense4/mul_1", "shape": [512, 512], "dtype": "float32"}, {"name": "StatefulPartitionedCall/style_gan_g/G_mapping/G_mapping/Dense4/mul", "shape": [512], "dtype": "float32"}, {"name": "StatefulPartitionedCall/style_gan_g/G_mapping/G_mapping/Dense4/LeakyReLU/alpha", "shape": [], "dtype": "float32"}, {"name": "StatefulPartitionedCall/style_gan_g/G_mapping/G_mapping/Dense5/mul_1", "shape": [512, 512], "dtype": "float32"}, {"name": "StatefulPartitionedCall/style_gan_g/G_mapping/G_mapping/Dense5/mul", "shape": [512], "dtype": "float32"}, {"name": "StatefulPartitionedCall/style_gan_g/G_mapping/G_mapping/Dense5/LeakyReLU/alpha", "shape": [], "dtype": "float32"}, {"name": "StatefulPartitionedCall/style_gan_g/G_mapping/G_mapping/Dense6/mul_1", "shape": [512, 512], "dtype": "float32"}, {"name": "StatefulPartitionedCall/style_gan_g/G_mapping/G_mapping/Dense6/mul", "shape": [512], "dtype": "float32"}, {"name": "StatefulPartitionedCall/style_gan_g/G_mapping/G_mapping/Dense6/LeakyReLU/alpha", "shape": [], "dtype": "float32"}, {"name": "StatefulPartitionedCall/style_gan_g/G_mapping/G_mapping/Dense7/mul_1", "shape": [512, 512], "dtype": "float32"}, {"name": "StatefulPartitionedCall/style_gan_g/G_mapping/G_mapping/Dense7/mul", "shape": [512], "dtype": "float32"}, {"name": "StatefulPartitionedCall/style_gan_g/G_mapping/G_mapping/Dense7/LeakyReLU/alpha", "shape": [], "dtype": "float32"}, {"name": "StatefulPartitionedCall/style_gan_g/G_mapping/G_mapping/Broadcast/strided_slice/stack", "shape": [2], "dtype": "int32"}, {"name": "StatefulPartitionedCall/style_gan_g/G_mapping/G_mapping/Broadcast/strided_slice/stack_1", "shape": [2], "dtype": "int32"}, {"name": "StatefulPartitionedCall/style_gan_g/G_mapping/G_mapping/Broadcast/strided_slice/stack_2", "shape": [2], "dtype": "int32"}, {"name": "StatefulPartitionedCall/style_gan_g/G_mapping/G_mapping/Broadcast/Tile/multiples", "shape": [3], "dtype": "int32"}, {"name": "StatefulPartitionedCall/style_gan_g/G_mapping/Truncation/sub/ReadVariableOp", "shape": [512], "dtype": "float32"}, {"name": "StatefulPartitionedCall/style_gan_g/G_mapping/Truncation/SelectV2", "shape": [1, 18, 1], "dtype": "float32"}, {"name": "StatefulPartitionedCall/style_gan_g/G_synthesis/G_synthesis/1024x1024/Conv1/StridedSlice/strided_slice/stack", "shape": [2], "dtype": "int32"}, {"name": "StatefulPartitionedCall/style_gan_g/G_synthesis/G_synthesis/1024x1024/Conv1/StridedSlice/strided_slice/stack_1", "shape": [2], "dtype": "int32"}, {"name": "StatefulPartitionedCall/style_gan_g/G_synthesis/G_synthesis/1024x1024/Conv1/StridedSlice/strided_slice/stack_2", "shape": [2], "dtype": "int32"}, {"name": "StatefulPartitionedCall/style_gan_g/G_synthesis/G_synthesis/1024x1024/Conv1/StyleMod/mul_1", "shape": [512, 32], "dtype": "float32"}, {"name": "StatefulPartitionedCall/style_gan_g/G_synthesis/G_synthesis/1024x1024/Conv1/StyleMod/mul", "shape": [32], "dtype": "float32"}, {"name": "StatefulPartitionedCall/style_gan_g/G_synthesis/G_synthesis/1024x1024/Conv1/StyleModApply/Reshape/shape", "shape": [5], "dtype": "int32"}, {"name": "StatefulPartitionedCall/style_gan_g/G_synthesis/G_synthesis/1024x1024/Conv1/StyleModApply/strided_slice_1/stack", "shape": [2], "dtype": "int32"}, {"name": "StatefulPartitionedCall/style_gan_g/G_synthesis/G_synthesis/1024x1024/Conv1/StyleModApply/strided_slice_1/stack_1", "shape": [2], "dtype": "int32"}, {"name": "StatefulPartitionedCall/style_gan_g/G_synthesis/G_synthesis/1024x1024/Conv1/StyleModApply/strided_slice_1/stack_2", "shape": [2], "dtype": "int32"}, {"name": "StatefulPartitionedCall/style_gan_g/G_synthesis/G_synthesis/ToRGB_lod0/mul", "shape": [1, 1, 16, 3], "dtype": "float32"}, {"name": "StatefulPartitionedCall/style_gan_g/G_synthesis/G_synthesis/ToRGB_lod0/mul_1", "shape": [3], "dtype": "float32"}]}]}